data/U2_new/model_UAV_0.pth (torch, 660400 bytes, 6 tensors)

linear_stack.0.weight f4 [400, 4]
0.28735003 -0.40409186 -0.027426522 0.4338228 -1.4325864 0.3393551 0.0025786958 0.91795737
0.07855209 -0.021552103 0.0792429 0.42378628 0.37426117 -0.020026688 -0.007859406 -0.00443153
0.23326021 0.11110822 0.46628344 0.19765769 -0.18620312 -0.30198067 -0.083807826 -0.21567035
0.16640677 0.28970456 0.4284892 0.51075715 -0.33240938 0.491553 0.17814624 0.39361528
0.45310152 -0.61235833 -0.78453255 -0.9054733 0.46884942 -0.074362054 0.44050965 -0.30119967
0.48151052 -0.22656086 0.42773613 0.091546685 -0.13894354 0.30606195 -0.6859005 0.32583264
-0.1443786 -0.0548172 -0.48069406 -0.23839086 0.22108158 -0.18678892 0.82913506 0.66783327
0.28749508 0.11139119 0.52065146 0.45664126 -0.48494115 0.32681122 0.32097304 0.40382078
-1.1949005 0.13822663 0.073914975 0.4505228 -1.6287056 0.03785957 0.6512298 0.8587224
0.2452054 0.057155203 0.33891076 0.2503706 0.06178715 0.20550627 -0.4560662 0.54627013
-0.3373157 -0.29386035 -2.4659421 1.544515 0.33768243 -0.36580682 -0.5547648 0.5378299
-0.09768294 0.23092452 0.25217015 -0.5877155 0.09174558 0.10513735 -0.32109818 -0.22209102
0.11116839 0.052346498 -0.003941496 -0.0053318585 0.44716805 -0.08226388 0.464363 0.31397974
-0.0018890814 -0.36418918 0.51826376 0.29344866 0.26845443 0.016755544 0.17807025 0.38626248
0.40934977 -0.4017011 0.12687445 0.43549472 0.3439001 0.27401188 -0.3287938 -0.33667108
-0.5000609 -0.0883257 1.3399518 -0.94195956 0.38066483 -0.28566927 -0.18630815 -0.031805396
0.22944348 0.40710157 -0.3181552 0.13856883 0.35761058 0.24428041 0.30975226 0.3218955
0.3349977 0.026522592 -0.21074776 -0.20083103 0.226955 0.21259208 -0.18852407 0.57029223
0.1644535 -0.18245727 0.30128363 0.18189175 0.2433575 0.26529458 -0.1634999 0.5352111
-0.05780387 -0.017177999 -0.47194004 -0.3218081 0.20921353 0.18747535 0.4626019 -0.009664802
-0.36141324 0.23097551 0.5515141 0.68108356 -0.004820285 0.36411634 -0.20037319 -0.21102224
-0.02830382 -0.20930798 -0.4649731 0.9405486 -0.0024550236 0.0018595874 0.522536 0.42729035
0.31691083 0.06060744 -0.068609826 0.641252 -0.12503171 -0.040422678 -0.43074948 -0.0987643
-0.22207698 0.5129121 -0.47402987 -0.6590945 0.23812805 0.15970165 0.28118145 -0.2411262
-1.5727898 0.20400062 0.31161124 0.2707751 0.18860757 0.25828892 0.555244 -0.40363064
0.26061773 -0.650075 0.6423192 0.05283169 0.24980041 -0.037781734 -0.010079626 0.048832912
0.08608306 0.22919853 0.10255824 0.18985382 -0.5549735 0.38103035 0.5274104 0.47343096
0.47358328 -0.31370583 -0.11503927 0.51329947 -0.4088647 0.61454695 -0.81364024 -0.6383515
0.43361506 -0.19365002 -0.032231234 0.44197056 0.34068608 0.4511763 0.090848 -0.24337296
0.4073024 -0.1610225 -0.120475784 0.40837443 -0.49000615 0.34702837 0.47517198 -0.4408899
-0.4106862 -0.04379821 0.21001273 -0.014481068 -1.0581623 0.25286046 -0.37413692 -0.5554701
-0.32893488 0.42448545 0.4849388 -0.1907526 0.061923828 0.26203904 0.21294199 0.21441883
00000000: 8b1f 933e 21e5 cebe 96ad e0bc 061e de3e
00000010: fe5e b7bf f4bf ad3e 56ff 283b 41ff 6a3f
00000020: ebdf a03d 098e b0bc 1a4a a23d 84fa d83e
00000030: 299f bf3e 020f a4bc bdc4 00bc 5e36 91bb
00000040: c4db 6e3e b58c e33d b4bc ee3e c766 4a3e
00000050: 08ac 3ebe 369d 9abe 70a3 abbd b0d8 5cbe
00000060: 8966 2a3e 2854 943e f062 db3e fbc0 023f
00000070: 9031 aabe d6ac fb3e f86b 363e f187 c93e
00000080: ecfc e73e 84c3 1cbf 20d7 48bf 19cd 67bf
00000090: 080d f03e 224b 98bd 7b8a e13e d836 9abe
000000a0: 8c88 f63e 92ff 67be 3b00 db3e d47c bb3d
000000b0: 3747 0ebe 27b4 9c3e 2d97 2fbf 89d3 a63e
000000c0: fcd7 13be 0088 60bd 881d f6be bc1c 74be
000000d0: 3663 623e 9845 3fbe 3242 543f 1ff7 2a3f
000000e0: 8e32 933e 1021 e43d 6a49 053f e2cc e93e
000000f0: 354a f8be cd53 a73e 9456 a43e 99c1 ce3e
00000100: 80f2 98bf 488b 0d3e bc60 973d edaa e63e
00000110: 6d79 d0bf a312 1b3d ffb6 263f 3bd5 5b3f
00000120: 2017 7b3e 931b 6a3d b685 ad3e 9330 803e
00000130: 8614 7d3d 3c70 523e 8281 e9be 5cd8 0b3f
00000140: a5b4 acbe dd74 96be ffd1 1dc0 abb2 c53f
00000150: b6e4 ac3e 084b bbbe 1105 0ebf 38af 093f
00000160: fe0d c8bd 7a77 6c3e 721c 813e 8674 16bf
00000170: 1be5 bb3d 4052 d73d fb66 a4be d46b 63be
00000180: 41ac e33d 4869 563d aa27 81bb dfb6 aebb
00000190: 36f3 e43e f779 a8bd fdc0 ed3e f4c1 a03e
000001a0: 0e9b f7ba 0177 babe efac 043f e73e 963e
000001b0: dc72 893e ec42 893c 0c58 363e 32c4 c53e
000001c0: 4b96 d13e c4ab cdbe 60eb 013e 2af9 de3e
000001d0: ad13 b03e 494b 8c3e a957 a8be 2760 acbe
000001e0: fe03 00bf 1be4 b4bd 8a83 ab3f 4324 71bf
000001f0: 80e6 c23e 3e43 92be 90c7 3ebe 6046 02bd
00000200: 3bf3 6a3e 9e6f d03e 3de5 a2be fde4 0d3e
00000210: bc18 b73e a524 7a3e d997 9e3e 7dcf a43e
00000220: d284 ab3e e845 d93c 43ce 57be a6a6 4dbe
00000230: e466 683e bdb1 593e 740c 41be acfe 113f
00000240: 8066 283e 14d6 3abe d941 9a3e d541 3a3e
00000250: b532 793e b1d4 873e 856c 27be 9803 093f
00000260: c0c3 6cbd e0b8 8cbc 20a2 f1be 08c4 a4be
00000270: 123c 563e 8af9 3f3e 28da ec3e 1e59 1ebc
00000280: 280b b9be d884 6c3e 0730 0d3f 7e5b 2e3f
00000290: 7bf3 9dbb 756d ba3e a12e 4dbe 3716 58be
000002a0: 6add e7bc d554 56be f410 eebe cbc7 703f
000002b0: 76e4 20bb 66bd f33a ebc4 053f cdc5 da3e
000002c0: 2342 a23e 823f 783d 4f83 8cbd 1729 243f
000002d0: 5008 00be 4092 25bd 328b dcbe f044 cabd
000002e0: 2668 63be 354e 033f 0bb4 f2be 6bba 28bf
000002f0: d7d7 733e d488 233e 04f7 8f3e c9e9 76be
00000300: 2d51 c9bf 8ae5 503e 828b 9f3e 09a3 8a3e
00000310: 5822 413e 723e 843e 7924 0e3f ada8 cebe
00000320: b06f 853e 516b 26bf 086f 243f 0b66 583d
00000330: aecb 7f3e 05c1 1abd 0425 25bc 0505 483d
00000340: 514c b03d 05b3 6a3e 0e0a d23d 0a69 423e
00000350: be12 0ebf 6916 c33e 5e04 073f 8b65 f23e
00000360: 8279 f23e 0d9e a0be b599 ebbd 9867 033f
00000370: b756 d1be f352 1d3f ba4a 50bf 016b 23bf
00000380: cb02 de3e 314c 46be e604 04bd f749 e23e
00000390: 686e ae3e 9400 e73e 840e ba3d c336 79be
000003a0: f189 d03e 15e3 24be 02bc f6bd 7416 d13e
000003b0: 16e2 fabe b4ad b13e be49 f33e 52bc e1be
000003c0: 7645 d2be c065 33bd 940d 573e 0042 6dbc
000003d0: dd71 87bf ed76 813e e08e bfbe 4a33 0ebf
000003e0: 276a a8be 2856 d93e e649 f83e a654 43be
000003f0: d7a3 7d3d fb29 863e 770d 5a3e 9c90 5b3e

linear_stack.0.bias f4 [400]
0.13823152 0.2833347 -0.5309159 0.65472025 0.585333 -0.26970148 0.89325637 0.6485871
-0.029660763 0.14154044 0.6990829 -0.43939522 -0.07833141 -0.1429573 0.9389186 0.5360849
0.4761277 0.8288103 -0.13958648 -0.66357404 0.1905172 0.26221585 0.35256705 0.4450807
-0.2822307 0.085814536 0.8184912 0.24129106 0.39023462 0.3550064 0.9323082 -0.37248927
0.06937394 0.05590885 -1.0284767 0.57309026 0.17540745 0.55176854 -0.4772479 1.07051
-0.072354205 0.61202955 0.7006725 -0.025154535 -0.21744539 -0.08301145 -0.40190947 0.51174134
0.56626254 0.20113936 -0.1314994 0.46583217 0.683535 0.47433504 0.49136138 0.2926262
0.45377693 -0.60203797 -0.6658631 0.47588408 -0.42129475 0.48115802 0.7047601 -0.25747943
-0.018378241 0.10269302 -0.19004127 0.19462556 0.2577283 0.7581733 -0.7107975 0.18885766
-0.8121769 -0.098822854 -0.024090398 -0.20849335 0.7884095 0.48812756 -0.19396847 0.08226709
-0.15324402 0.20360881 0.74520355 0.62625784 -0.45861655 0.80217147 -0.30110312 -0.408311
0.87446886 -0.25955832 -0.28037465 0.30731508 -0.1445595 -0.4576605 -0.27066687 -0.21122533
0.3730143 -0.3300764 -0.59936696 0.38865164 -1.0177412 -0.060532153 0.65324605 -0.13876155
-0.3667009 0.4543199 0.65872353 0.09823002 0.113456815 0.42947763 0.45470765 0.23360956
0.88633657 0.2938502 -0.35807598 -0.0099378545 0.5788584 0.411448 0.19920726 0.8113337
0.5091475 0.41380864 0.64279866 -0.49092004 0.26964492 0.32307267 -0.086940885 -0.34852728
0.51598763 -0.413298 -0.21301341 0.9034046 -0.1837017 -0.17339066 0.37509778 0.20591073
0.35401344 -1.0939027 0.47759935 -0.64347506 0.30894512 -0.92166567 -0.71548855 1.037456
-0.55263853 -0.08279634 0.09157201 0.6226956 0.26264554 0.5378965 0.102627166 -0.17143613
0.6843738 0.417124 0.2132149 -0.46922567 -0.5682485 0.16587108 -0.37521976 0.8219302
0.848687 -0.27019888 -0.32226866 1.0251652 -0.20245598 -0.023357682 -0.32110113 0.54131037
0.46659398 0.88783133 0.54478675 0.671013 0.6822671 0.9891035 -0.16478091 -0.087681115
0.85377496 0.0027109075 0.44824865 0.38497996 0.31555024 -0.21005857 -0.65162563 0.95096296
0.7388518 -0.39704978 0.15362114 0.16238303 0.49657387 -0.18722476 -0.2192142 0.7698297
-0.51781327 0.66031593 0.08933794 0.60339683 0.30674705 0.13464384 0.58936846 0.19544938
0.4785763 0.61555594 -0.27907532 0.5494412 -0.564309 0.37469655 0.17086029 0.6515822
0.41853213 0.2353615 0.18052821 0.48190704 0.4632081 -0.4573393 1.0786283 -0.62137395
-0.42419407 0.33643416 0.69844276 0.4753713 -0.2790097 0.356381 -0.30739212 0.36351717
0.39221627 0.5399654 -0.5255167 0.46577093 0.630945 -0.34307942 0.3652438 -0.0527308
-0.31667095 0.66162163 -0.61971074 0.29316828 0.29225707 0.4515979 -0.3590928 -0.40790436
0.49574986 -0.48347342 0.26480377 -0.31623834 -0.22116588 0.68352854 -0.41519803 -0.24730021
-0.39025402 0.8406207 0.87828386 -0.4212516 0.66393197 0.42946303 -0.3846963 0.4485274
00000000: 908c 0d3e 3f11 913e 1bea 07bf bf9b 273f
00000010: 62d8 153f 5016 8abe 73ac 643f ce09 263f
00000020: 21fb f2bc faef 103e 19f7 323f 69f8 e0be
00000030: 386c a0bd 6663 12be f85c 703f dc3c 093f
00000040: 03c7 f33e e92c 543f c2ef 0ebe fddf 29bf
00000050: f116 433e 2841 863e ab83 b43e 9ee1 e33e
00000060: 8b80 90be 88bf af3d a488 513f 0115 773e
00000070: d5cc c73e 66c3 b53e c0ab 6e3f eab6 bebe
00000080: ed13 8e3d ae00 653d 20a5 83bf 0bb6 123f
00000090: 039e 333e b440 0d3f d659 f4be 7906 893f
000000a0: 712e 94bd f8ad 1c3f 465f 333f e210 cebc
000000b0: 01aa 5ebe e801 aabd 14c7 cdbe 7b01 033f
000000c0: 95f6 103f 7af7 4d3e c7a7 06be 8e81 ee3e
000000d0: 26fc 2e3f 0bdc f23e b893 fb3e 1ad3 953e
000000e0: 7355 e83e 291f 1abf 0176 2abf 14a7 f33e
000000f0: f2b3 d7be 585a f63e 286b 343f 58d4 83be
00000100: f78d 96bc b850 d23d 2e9a 42be ec4b 473e
00000110: f7f4 833e a517 423f d3f6 35bf e763 413e
00000120: d3ea 4fbf a363 cabd 3a59 c5bc 487f 55be
00000130: 34d5 493f dbeb f93e ac9f 46be a67b a83d
00000140: 00ec 1cbe d47e 503e a9c5 3e3f 6f52 203f
00000150: cacf eabe 1c5b 4d3f 302a 9abe 240e d1be
00000160: 31dd 5f3f d4e4 84be 448d 8fbe 6758 9d3e
00000170: 6807 14be 7a52 eabe d994 8abe 744b 58be
00000180: bbfb be3e c6ff a8be 1d70 19bf 59fd c63e
00000190: 5845 82bf 90f0 77bd 223b 273f 8217 0ebe
000001a0: 38c0 bbbe 9e9c e83e 1ba2 283f d22c c93d
000001b0: 0c5c e83d 7ee4 db3e 71cf e83e 5837 6f3e
000001c0: f4e6 623f 8973 963e bc55 b7be 62d2 22bc
000001d0: 1030 143f 50a9 d23e fdfc 4b3e 91b3 4f3f
000001e0: 7e57 023f bade d33e 748e 243f df59 fbbe
000001f0: e60e 8a3e c869 a53e 100e b2bd 2b72 b2be
00000200: c417 043f cc9b d3be 3020 5abe 8645 673f
00000210: 4c1c 3cbe 528d 31be d10c c03e 43da 523e
00000220: 4041 b53e 0105 8cbf e787 f43e c8ba 24bf
00000230: 0e2e 9e3e 48f2 6bbf 422a 37bf 5ccb 843f
00000240: b879 0dbf 2191 a9bd 1b8a bb3d fb68 1f3f
00000250: 7a79 863e 96b3 093f 312e d23d f48c 2fbe
00000260: 1f33 2f3f 4791 d53e 0255 5a3e 593e f0be
00000270: bc78 11bf 1cda 293e ce1c c0be 056a 523f
00000280: 8d43 593f 8257 8abe 6600 a5be 9d38 833f
00000290: 9f50 4fbe 9c58 bfbc 5e67 a4be 5193 0a3f
000002a0: 68e5 ee3e ea48 633f 2577 0b3f 82c7 2b3f
000002b0: 0fa9 2e3f e335 7d3f 54bc 28be 2892 b3bd
000002c0: ff90 5a3f 7ba9 313b d980 e53e 181c c53e
000002d0: cd8f a13e 9819 57be f0d0 26bf 4f72 733f
000002e0: 6425 3d3f 1c4a cbbe dc4e 1d3e bd47 263e
000002f0: ee3e fe3e d9b7 3fbe b079 60be 8f13 453f
00000300: 698f 04bf 770a 293f cff6 b63d 3778 1a3f
00000310: f30d 9d3e 13e0 093e dae0 163f e223 483e
00000320: f407 f53e 1395 1d3f f6e2 8ebe 2ea8 0c3f
00000330: 8e76 10bf 3ad8 bf3e 00f6 2e3e 17ce 263f
00000340: d849 d63e 9b02 713e 63dc 383e 85bc f63e
00000350: 9d29 ed3e 6028 eabe 7e10 8a3f 5d12 1fbf
00000360: f72f d9be 1941 ac3e 25cd 323f de63 f33e
00000370: 5cda 8ebe 9277 b63e 8062 9dbe ec1e ba3e
00000380: 92d0 c83e 2c3b 0a3f 4388 06bf 8779 ee3e
00000390: 9d85 213f 1ba8 afbe 3c01 bb3e 40fc 57bd
000003a0: b222 a2be 0960 293f 5da5 1ebf 271a 963e
000003b0: b8a2 953e d737 e73e 03db b7be d7d8 d0be
000003c0: edd2 fd3e d489 f7be 5c94 873e fee9 a1be
000003d0: 4f79 62be bafb 2e3f d694 d4be 443c 7dbe
000003e0: 60cf c7be eb32 573f 36d7 603f 4aae d7be
000003f0: 72f7 293f 94e2 db3e eaf6 c4be 62a5 e53e

linear_stack.2.weight f4 [400, 400]
-0.0093676355 0.34339714 -0.46187612 0.107258596 0.06351259 0.049157023 0.17252901 0.12171915
-0.14411196 -0.089357376 0.027077952 -0.17074169 0.011761958 -0.13997057 0.23159291 0.11343351
0.24947974 0.1154323 -0.075911246 -0.2012779 -0.4323731 -0.08585352 -0.03354607 0.035177354
-0.1470686 -0.11644999 0.14064917 -0.06151037 -0.058157444 -0.047035106 0.40380767 0.014268177
-0.056991242 -0.083418384 -0.10282362 0.29018363 0.05401826 0.017773578 0.040989567 0.30275318
-0.09998431 0.09000458 0.42444375 -0.031815447 -0.08421629 -0.045610666 -0.11854172 -0.019334571
0.06685842 -0.013125111 0.07520978 0.026951049 0.021725796 0.023810422 0.06676271 0.12691768
0.07923309 -0.0922137 -0.1452015 0.23927234 -0.046642955 -0.015682016 0.008571948 -0.030013165
-0.09572916 -0.058334287 0.070042774 -0.0050359517 -0.07255042 0.1920277 -0.21862838 0.21827929
-0.62099606 -0.037395872 -0.04154392 0.043283887 0.27116418 0.024113603 -0.009592801 -0.019036144
-0.04175191 -0.013346349 0.5612525 0.04446846 -0.021077199 0.3148948 0.033328798 -0.014006048
0.2270537 -0.13821886 -0.0332896 -0.09988709 0.093718044 0.013900995 -0.08342912 -0.017269433
0.2517703 0.008258427 -0.08820773 -0.04343941 -0.20612785 0.023342555 0.039934907 0.13010997
-0.124083616 0.060952485 0.02599636 -0.15474238 -0.019137405 -0.010571997 0.027436389 -0.04730309
0.2928553 -0.07808783 -0.0012024343 -0.008582889 0.07479117 -0.57550275 -0.027084565 0.11956937
0.07464075 -0.01597791 0.03370145 0.038238257 -0.02740042 -0.13051741 0.016612673 -0.21164517
0.2239075 -0.046033632 -0.04903213 0.13686664 0.0062426925 -0.1176697 -0.021124218 0.06265856
0.08644944 -0.3004926 0.094240755 -0.15701023 0.24281587 -0.11723557 -0.39767584 -0.23209912
-0.38199446 -0.036806088 0.12153446 0.03709535 -0.0014367532 0.14307968 -0.06562105 -0.011276799
0.13423418 0.090916626 0.024657937 -0.05073924 -0.058273718 0.025820859 0.039068043 0.20014618
0.15910621 -0.1057433 -0.025858963 -0.2154182 -0.07947568 0.42556173 -0.13651648 0.37485462
0.24081127 -0.3797219 -0.026912132 0.09199048 -0.21648952 -0.29304332 -0.043311454 0.0025048673
0.18001531 0.062810116 -0.06507753 0.08315715 -0.086496204 -0.10708194 -0.3971288 0.29661417
0.08330931 -0.039249778 -0.17463054 -0.058939736 0.048584264 -0.09591075 0.012029648 0.12520231
-0.10980421 0.15181023 -0.210216 0.08580042 -0.16154246 -0.048758358 0.058028597 -0.09310531
-0.024413288 0.13860059 0.024903392 -0.004037746 -0.0642649 -0.06956687 -0.12357579 0.20840171
-0.07087962 0.03104212 0.07918537 0.051789533 0.052418146 0.030173182 -0.28683475 -0.35211197
-0.085543856 0.022868339 0.01085775 0.12893178 -0.03274886 -0.017326653 -0.114362925 -0.025385601
0.0599759 0.0548839 0.014767105 0.19801305 -0.017796755 -0.1736313 0.051306427 -0.002205762
-0.11039959 0.06971576 -0.43959567 0.13482402 -0.03943188 0.010663033 -0.116988406 -0.13299416
-0.39710668 -0.066464074 -0.07581773 -0.014933801 -0.066091485 0.014880991 0.049967457 -0.0005422771
-0.025672263 0.11890801 -0.14098415 -0.10651613 0.18801291 -0.049559526 0.015797539 0.1347011
00000000: b67a 19bc c0d1 af3e 077b ecbe 65aa db3d
00000010: e412 823d e058 493d 72ab 303e e447 f93d
00000020: 1692 13be 0001 b7bd 95d2 dd3c e9d6 2ebe
00000030: 3ab5 403c 7254 0fbe b126 6d3e d44f e83d
00000040: 9e77 7f3e c567 ec3d 5b77 9bbd cb1b 4ebe
00000050: 0260 ddbe f8d3 afbd 9b67 09bd 2116 103d
00000060: 2799 16be 557d eebd 5606 103e 4cf2 7bbd
00000070: 8036 6ebd e2a7 40bd e1bf ce3e 12c5 693c
00000080: a66f 69bd 42d7 aabd 3195 d2bd f392 943e
00000090: 4042 5d3d e599 913c ade4 273d 7702 9b3e
000000a0: 93c4 ccbd 5254 b83d b150 d93e ea50 02bd
000000b0: 9779 acbd 40d2 3abd 00c6 f2bd 8963 9ebc
000000c0: 11ed 883d b50a 57bc 9607 9a3d 72c8 dc3c
000000d0: 4cfa b13c 130e c33c e3ba 883d b5f6 013e
000000e0: f544 a23d 89da bcbd b4af 14be cf03 753e
000000f0: af0c 3fbd 9277 80bc 5b71 0c3c 2bde f5bc
00000100: a60d c4bd efef 6ebd 9672 8f3d a004 a5bb
00000110: 5195 94bd e9a2 443e 1ee0 5fbe 9b84 5f3e
00000120: 99f9 1ebf 6a2c 19bd f529 2abd 724a 313d
00000130: 08d6 8a3e e489 c53c 202b 1dbc b0f1 9bbc
00000140: 0d04 2bbd a5aa 5abc 3eae 0f3f 8f24 363d
00000150: 17aa acbc e439 a13e c783 083d a079 65bc
00000160: c480 683e 3f89 0dbe ad5a 08bd 9a91 ccbd
00000170: 3fef bf3d 00c1 633c e3dc aabd a078 8dbc
00000180: 09e8 803e 5a4e 073c 41a6 b4bd 86ed 31bd
00000190: 2e13 53be e338 bf3c c992 233d 8c3b 053e
000001a0: 8d1f febd 50a9 793d 52f6 d43c c974 1ebe
000001b0: 0cc6 9cbc 2b36 2dbc 47c2 e03c e3c0 41bd
000001c0: 21f1 953e 83ec 9fbd 009b 9dba 3f9f 0cbc
000001d0: 1d2c 993d 2654 13bf 73e0 ddbc c9e0 f43d
000001e0: 40dd 983d 1be4 82bc 880a 0a3d b89f 1c3d
000001f0: d876 e0bc 5ba6 05be 4d17 883c 83b9 58be
00000200: 0248 653e c38d 3cbd ead5 48bd c526 0c3e
00000210: 808f cc3b d0fc f0bd b20c adbc 2253 803d
00000220: 670c b13d 2bda 99be 4c01 c13d 4ac7 20be
00000230: b9a4 783e 3419 f0bd 2b9c cbbe 64ab 6dbe
00000240: c794 c3be fbc1 16bd 0fe7 f83d 4bf1 173d
00000250: 7051 bcba 7b83 123e 5464 86bd 53c2 38bc
00000260: af74 093e 7f32 ba3d 71ff c93c f3d3 4fbd
00000270: 6cb0 6ebd 4486 d33c d005 203d 1ff3 4c3e
00000280: bdec 223e f18f d8bd 2dd6 d3bc 9796 5cbe
00000290: 25c4 a2bd 3ae3 d93e faca 0bbe f2ec bf3e
000002a0: 3b97 763e e96a c2be d576 dcbc 8165 bc3d
000002b0: 6eaf 5dbe c609 96be 5a67 31bd b328 243b
000002c0: ef55 383e 97a2 803d 5e47 85bd 4c4e aa3d
000002d0: ec24 b1bd c74d dbbd 7754 cbbe d0dd 973e
000002e0: 129e aa3d 60c4 20bd 59d2 32be cb6a 71bd
000002f0: 4b00 473d db6c c4bd 0018 453c 0935 003e
00000300: 08e1 e0bd 2474 1b3e dd42 57be 21b8 af3d
00000310: 636b 25be d8b6 47bd 65af 6d3d ffad bebd
00000320: 60fe c7bc 50ed 0d3e 3302 cc3c 124f 84bb
00000330: 519d 83bd 1379 8ebd 4e15 fdbd 4267 553e
00000340: 5629 91bd 0b4c fe3c f02b a23d 4321 543d
00000350: 69b4 563d c02d f73c 01dc 92be 0548 b4be
00000360: 9e31 afbd 6256 bb3c b4e4 313c b106 043e
00000370: ab23 06bd a0f0 8dbc 1c37 eabd 77f5 cfbc
00000380: 4aa9 753d f1cd 603d baf1 713c efc3 4a3e
00000390: 80ca 91bc 67cc 31be b026 523d 8c8e 10bb
000003a0: 2e19 e2bd 23c7 8e3d af12 e1be 4f0f 0a3e
000003b0: 5383 21bd 01b4 2e3c 9e97 efbd 9f2f 08be
000003c0: 9151 cbbe 511e 88bd 5346 9bbd e7ac 74bc
000003d0: f95a 87bd 66cf 733c adaa 4c3d 9a27 0eba
000003e0: a34e d2bc 0b86 f33d 265e 10be 2125 dabd
000003f0: 7586 403e eefe 4abd d769 813c 16ef 093e

linear_stack.2.bias f4 [400]
0.24941927 0.02388065 0.021782301 0.014033163 0.1188789 0.19128415 0.18328378 0.20282598
0.18666834 0.23842472 -0.023071172 -0.024605531 -0.048216555 0.13808669 0.015639989 -0.024581546
0.18949702 -0.041129768 0.19901928 0.16563997 -0.02521607 0.21124575 0.11811993 0.028375812
0.11364998 -0.04975481 -0.012499511 0.11962573 0.22218928 0.22000252 0.15272684 -0.018386906
0.1793615 0.15905456 0.1455254 0.002800329 0.15360343 0.114855364 -0.058901526 0.0032325562
0.14674187 0.14871128 0.015928442 -0.0015292506 0.0069395187 -0.011381525 0.11303912 0.03447671
0.004998232 0.015199924 0.1731139 0.1836992 -0.033329424 0.2124205 0.14282396 0.008846021
0.025216397 -0.029544467 0.1336941 0.22619744 0.1445604 0.15612376 0.009404077 -0.047121856
0.028543128 -0.08334055 0.16799578 -0.031266328 -0.025476394 0.1464583 0.23512161 0.20068672
0.008111806 -0.03394604 0.19936784 0.14281213 0.24446754 0.14732783 0.20405795 0.12005375
-0.00091475714 0.20613627 -0.061779827 0.21658887 0.15281051 0.21647511 0.03723187 0.026406657
0.22064869 0.15524518 0.017517408 0.16916163 0.14427951 0.025906416 0.1541995 0.24281995
0.18867807 0.19196174 0.22983941 0.19219352 -0.034552205 0.18825996 -0.0066828667 -0.018047525
-0.028300602 0.17651895 0.20895825 0.22500043 0.1876267 0.030025434 0.15809779 0.22530246
0.010991269 0.18327704 -0.039110113 0.19591877 0.16958235 0.15147525 -0.030337406 -0.037529174
0.24956724 0.022975707 0.19742006 0.19815911 0.11127332 0.18565035 0.18947403 -0.035378065
0.21414872 -0.01478293 0.14120828 0.25681558 0.030059049 0.022632616 0.15756798 0.023183662
0.14923537 0.16587602 0.23346761 0.15420796 -0.0048297583 0.024627466 0.16484113 -0.0016310454
0.030360112 -0.042262573 -0.046217743 0.16907737 0.14636692 0.19888325 0.084571704 0.027894652
-0.009937841 0.06289596 0.03029017 0.19623636 0.17355679 0.049186505 0.18864505 0.37983137
-0.038450025 0.19972089 -0.03193572 0.02493447 0.18802932 -0.010937953 0.12737677 0.38923618
-0.0009547305 0.15797916 0.1930115 -0.03962397 0.21132867 0.02635758 0.20275111 -0.02152372
0.0005875087 0.16502331 0.16620807 0.15771736 -0.036772218 0.16325597 0.004937508 0.21618138
0.035264116 0.1632601 0.23394929 0.031132804 -0.011838098 0.008198041 0.1488917 0.032821912
0.1696706 0.20860833 0.19907252 0.14315642 0.039982535 0.0053033116 0.19018699 0.24609151
0.21225283 0.013981601 0.16665551 0.024692625 0.14495568 -0.025001425 0.21617945 0.19847123
0.16333902 -0.027045976 0.026626652 0.15564159 0.19092536 0.12957357 0.13036321 0.15916526
0.23737018 -0.010188841 0.0026392161 0.025838463 -0.050410483 0.17432913 0.2703755 0.16633058
-0.016634127 -0.04004498 0.2339428 0.17845076 0.13818541 0.15642853 -0.05084184 0.014874418
-0.00935458 0.022519922 0.011813708 0.15042543 0.1863934 0.22436534 0.121405974 0.008892662
-0.010602427 -0.041664954 -0.028248064 0.18411979 -0.045392197 0.23727697 0.20953287 0.03795324
0.16507679 0.2692657 -0.009974448 0.1455157 0.14003386 0.03286877 0.0041105365 0.19837375
00000000: c467 7f3e 5aa1 c33c cc70 b23c 5aeb 653c
00000010: c876 f33d fedf 433e beae 3b3e 9db1 4f3e
00000020: fc25 3f3e 9c25 743e c1ff bcbc 8a91 c9bc
00000030: b97e 45bd 9966 0d3e 6f1f 803c 3d5f c9bc
00000040: 820b 423e b077 28bd b6cb 4b3e 869d 293e
00000050: ee91 cebc ce50 583e dde8 f13d 6474 e83c
00000060: 52c1 e83d b3cb 4bbd c0ca 4cbc 56fe f43d
00000070: 9685 633e 5748 613e 6d64 1c3e 23a0 96bc
00000080: 8baa 373e 33df 223e 9c04 153e b985 373b
00000090: 384a 1d3e 4a39 eb3d ba42 71bd 4bd9 533b
000000a0: 8043 163e c547 183e 5d7c 823c 2371 c8ba
000000b0: e764 e33b 9379 3abc 0e81 e73d 7337 0d3d
000000c0: 35c8 a33b 1a09 793c c544 313e a51b 3c3e
000000d0: 6f84 08bd c284 593e 7240 123e e7ee 103c
000000e0: 9e92 ce3c 3d07 f2bc 1be7 083e 4da0 673e
000000f0: a407 143e e8de 1f3e 8f13 1a3c d902 41bd
00000100: 47d3 e93c 73ae aabd 1607 2c3e 1f11 00bd
00000110: dfb3 d0bc 2af9 153e b8c3 703e d280 4d3e
00000120: 61e7 043c 010b 0bbd 1527 4c3e 583d 123e
00000130: b355 7a3e 1bdd 163e 91f4 503e bede f53d
00000140: 50cc 6fba 6315 533e d80c 7dbd 79c9 5d3e
00000150: 5c7a 1c3e a7ab 5d3e 7280 183d c652 d83c
00000160: bbf1 613e 98f8 1e3e ab80 8f3c b538 2d3e
00000170: 02be 133e b139 d43c 79e6 1d3e cba5 783e
00000180: d334 413e 9e91 443e 065b 6b3e 61ce 443e
00000190: 9d86 0dbd 38c7 403e f3fb dabb 67d8 93bc
000001a0: aad6 e7bc 62c1 343e 27f9 553e 8366 663e
000001b0: 3721 403e e6f7 f53c 63e4 213e b0b5 663e
000001c0: b914 343c faac 3b3e ed31 20bd ee9e 483e
000001d0: ffa6 2d3e 541c 1b3e 2786 f8bc 31b8 19bd
000001e0: 8e8e 7f3e 8d37 bc3c 7c28 4a3e 39ea 4a3e
000001f0: 44e3 e33d 201b 3e3e 7b05 423e 97e8 10bd
00000200: cd49 5b3e 1a34 72bc e798 103e 557d 833e
00000210: 653e f63c 0968 b93c 8059 213e aaeb bd3c
00000220: 28d1 183e 67db 293e 2212 6f3e b1e8 1d3e
00000230: f342 9ebb 8abf c93c 1dcc 283e cdc8 d5ba
00000240: c5b5 f83c 851b 2dbd d14e 3dbd 9e22 2d3e
00000250: 36e1 153e 0da8 4b3e ee33 ad3d 5383 e43c
00000260: 54d2 22bc 99cf 803d 1723 f83c 2ff2 483e
00000270: dfb8 313e ca77 493d 2b2c 413e 4279 c23e
00000280: c67d 1dbd a283 4c3e 08cf 02bd 6043 cc3c
00000290: c28a 403e 1a35 33bc 0e6f 023e f749 c73e
000002a0: e146 7aba 4ac5 213e cfa4 453e be4c 22bd
000002b0: 8b66 583e daeb d73c fd9d 4f3e 8352 b0bc
000002c0: 0b03 1a3a dffb 283e 7332 2a3e a980 213e
000002d0: 779e 16bd 932c 273e d2ca a13b a75e 5d3e
000002e0: 1b71 103d a82d 273e 6790 6f3e 390a ff3c
000002f0: 95f4 41bc 1351 063c 1177 183e 4570 063d
00000300: 21be 2d3e 6c9d 553e abd9 4b3e 9997 123e
00000310: bac4 233d 67c7 ad3b 61c0 423e 6aff 7b3e
00000320: ce58 593e 1613 653c bea7 2a3e 3048 ca3c
00000330: 436f 143e cacf ccbc 255e 5d3e 0b3c 4b3e
00000340: 5842 273e 868f ddbc 2320 da3c 8260 1f3e
00000350: f081 433e efae 043e ef7d 053e 38fc 223e
00000360: 2b11 733e 19ef 26bc b3f6 2c3b 2fab d33c
00000370: 397b 4ebd 5683 323e a86e 8a3e 9052 2a3e
00000380: 4b44 88bc 3406 24bd b48e 6f3e ccbb 363e
00000390: 7a80 0d3e cd2e 203e 893f 50bd d5b3 733c
000003a0: f443 19bc b37b b83c 488e 413c 2009 1a3e
000003b0: e9dd 3e3e 07c0 653e b2a3 f83d 87b2 113c
000003c0: cdb5 2dbc dfa8 2abd 7c68 e7bc e689 3c3e
000003d0: 2bed 39bd bcf8 723e c98f 563e db74 1b3d
000003e0: e409 293e 32dd 893e de6b 23bc 1102 153e
000003f0: 0965 0f3e 67a1 063d aeb1 863b 7d22 4b3e

linear_stack.4.weight f4 [5, 400]
0.28675437 -0.033049196 -0.021126984 0.031983435 0.07355227 0.13756755 0.18411279 0.1386193
0.08894701 0.1731028 -0.025577743 0.004359917 -0.03214086 0.15884034 0.0046935226 -0.035167374
0.17493556 -0.01359225 0.1844593 0.107681476 -0.014207703 0.11884294 0.19444199 -0.018689394
0.1454419 -0.030097712 -0.00994086 -0.01210527 0.19707426 0.13297847 0.1595536 0.031166429
0.1733224 0.1914473 0.092800826 -0.022685139 0.14433429 0.15216716 -0.025818959 -0.0126928715
0.21440001 0.06101716 -0.024607599 -0.017283497 -0.041897703 0.04695365 0.1783361 0.037853874
-0.044971947 0.029795874 0.20186701 0.046415217 -0.0038384914 0.05204774 0.19507119 -0.031269774
-0.04632246 -0.0049400437 0.16314377 0.00062843156 0.19690318 0.071087435 0.01736737 -0.023572886
0.018891243 -0.17213462 0.057106055 -0.031895854 0.03847762 0.11745951 0.1516254 0.20882004
0.0012440035 -0.0028729595 0.11388814 0.10351706 0.0053164195 0.17279044 0.19589141 0.12997656
0.01692052 0.11756714 -0.00049673923 -0.09101101 0.2006433 0.20799161 0.032522988 -0.026903875
0.31052387 0.07072392 0.041886706 0.18104166 0.0825787 -0.019398628 0.15616137 -0.052448865
0.22521594 0.32887653 0.08778215 0.16483948 0.039728135 0.07307136 0.043541264 0.02868731
0.0032083094 0.07692491 0.050108198 0.08214961 0.341328 -0.027603675 0.09221943 0.1473583
-0.0060155382 0.17338105 0.017022623 0.16470331 0.22585262 0.15484165 0.03771838 -0.0049129045
0.2183416 -0.020237131 0.066934116 0.21949749 0.2262921 0.33453873 0.17053492 -0.04191319
0.23422576 0.025610203 0.24560152 0.5533116 -0.02692253 -0.15248829 0.2746726 -0.016149407
0.21275261 0.09541704 0.25833455 0.1452297 -0.037486732 0.010227079 0.092122875 0.025400484
-0.033321377 -0.028687542 -0.028254509 0.07133974 -0.0022648536 0.16163339 0.07516147 -0.018297968
0.013196552 0.16241802 0.04832957 0.13225052 0.09320175 -0.025774378 0.087249674 -0.10860307
-0.035934675 0.13637315 -0.035928383 -0.050628074 0.106330104 0.014926088 0.1390255 -0.03234915
0.01385502 0.17030695 0.11740092 0.017763648 0.20160495 -0.042247582 0.24282004 -0.01987868
-0.036404293 0.08786623 0.21367776 0.13820316 0.008330792 0.21387865 -0.0013485908 0.097270966
0.02535423 0.09674497 0.15971343 0.035298448 -0.04439087 -0.022250539 0.078151174 0.026971016
0.16683093 0.07227024 0.2968201 0.3284769 0.029885901 0.024997437 0.24634235 0.10682036
0.12547967 0.029333452 0.059443843 0.07276679 0.17637277 0.020296438 0.14277698 0.2215859
0.23843315 -0.01877446 0.04987357 0.12045486 0.03809975 0.08882099 0.28056177 0.12586817
0.1754231 -0.018089231 -0.029997243 -0.0015101233 0.0034762505 0.109483965 0.2748206 0.13141873
-0.02472363 0.031685438 -0.082810156 0.16798791 0.2915931 0.20674783 0.02820146 -0.043063663
0.0076646917 0.010428381 -0.016545162 0.13805112 0.2217922 0.078319475 0.24464212 -0.013828307
0.018665625 0.0017764695 -0.020335097 0.20285444 0.023895236 0.18544953 0.10183905 -0.031800214
0.110813096 0.18597436 -0.043481007 0.18329528 0.11421108 0.05200112 0.019975444 0.12646368
00000000: 78d1 923e 985e 07bd 7f12 adbc 1001 033d
00000010: 93a2 963d 82de 0c3e 1088 3c3e 38f2 0d3e
00000020: da29 b63d dc41 313e 6a88 d1bc a2dd 8e3b
00000030: 22a6 03bd 0ba7 223e 1fcc 993b aa0b 10bd
00000040: 4f22 333e 07b2 5ebc e6e2 3c3e 1b88 dc3d
00000050: 6dc7 68bc ed63 f33d cd1b 473e 801a 99bc
00000060: b9ee 143e 7a8f f6bc fdde 22bc 2f55 46bc
00000070: d6cd 493e 822b 083e 0562 233e bd50 ff3c
00000080: 6d7b 313e c30a 443e 5c0e be3d 2fd6 b9bc
00000090: 5ecc 133e b5d1 1b3e 4882 d3bc c3f5 4fbc
000000a0: ad8b 5b3e 21ed 793d e095 c9bc 1f96 8dbc
000000b0: ed9c 2bbd 7852 403d bd9d 363e aa0c 1b3d
000000c0: 8134 38bd 7a16 f43c 3ab6 4e3e e21d 3e3d
000000d0: 338f 7bbb 0330 553d bec0 473e bc14 00bd
000000e0: 9fbc 3dbd 17e0 a1bb 290f 273e 54bd 243a
000000f0: fda0 493e 4a96 913d 0446 8e3c ed1b c1bc
00000100: cfc1 9a3c 0f44 30be 0ae8 693d 3aa5 02bd
00000110: b59a 1d3d 9d8e f03d b043 1b3e ecd4 553e
00000120: d50d a33a 4348 3cbb 2f3e e93d c100 d43d
00000130: 5c35 ae3b faef 303e c297 483e 9318 053e
00000140: e79c 8a3c 0ac7 f03d 9b37 02ba fb63 babd
00000150: 7075 4d3e c1fb 543e d336 053d 8465 dcbc
00000160: fcfc 9e3e b4d7 903d 6591 2b3d fc62 393e
00000170: 051f a93d dfe9 9ebc c4e8 1f3e 9fd4 56bd
00000180: 029f 663e 8162 a83e 21c7 b33d aecb 283e
00000190: f8b9 223d 70a6 953d 5358 323d a601 eb3c
000001a0: 8042 523b cf8a 9d3d 413e 4d3d 0e3e a83d
000001b0: 8bc2 ae3e 1a21 e2bc 8add bc3d 18e5 163e
000001c0: fe1d c5bb cd8a 313e 0773 8b3c fca7 283e
000001d0: e945 673e cf8e 1e3e 977e 1a3d 6efc a0bb
000001e0: f194 5f3e 57c8 a5bc c114 893d f3c3 603e
000001f0: 1eb9 673e a948 ab3e b5a0 2e3e 2aad 2bbd
00000200: e1d8 6f3e 7dcc d13c f77e 7b3e d4a5 0d3f
00000210: a38c dcbc e425 1cbe e3a1 8c3e c34b 84bc
00000220: d2db 593e 026a c33d 6d44 843e 18b7 143e
00000230: b08b 19bd 7a8f 273c ebaa bc3d ad14 d03c
00000240: ff7b 08bd 2302 ebbc 0076 e7bc 921a 923d
00000250: f06d 14bb 3983 253e 42ee 993d 9fe5 95bc
00000260: 5a36 583c e950 263e 3af5 453d ae6c 073e
00000270: 8fe0 be3d ca24 d3bc f5af b23d 496b debd
00000280: 3d30 13bd 67a5 0b3e a429 13bd 625f 4fbd
00000290: 99c3 d93d 8d8c 743c b35c 0e3e 8b80 04bd
000002a0: 2a00 633c f264 2e3e e56f f03d 1285 913c
000002b0: 8771 4e3e cd0b 2dbd d1a5 783e 9dd8 a2bc
000002c0: ab1c 15bd 36f3 b33d 58ce 5a3e 2185 0d3e
000002d0: e07d 083c 0103 5b3e 33c3 b0ba 0036 c73d
000002e0: adb3 cf3c 3a22 c63d eb8b 233e 1b95 103d
000002f0: 33d3 35bd c346 b6bc b90d a03d 52f2 dc3c
00000300: bad5 2a3e 6b02 943d cef8 973e 202e a83e
00000310: 47d3 f43c 6dc7 cc3c 2b41 7c3e a2c4 da3d
00000320: be7d 003e b54c f03c 637b 733d c106 953d
00000330: 109b 343e b744 a63c 2134 123e 6ae7 623e
00000340: d227 743e e5cc 99bc 3b48 4c3d 0ab1 f63d
00000350: 7c0e 1c3d c7e7 b53d cba5 8f3e 96e3 003e
00000360: 1da2 333e de2f 94bc c7bc f5bc 54ef c5ba
00000370: ced1 633b 2139 e03d 49b5 8c3e a292 063e
00000380: 3689 cabc 97c8 013d 5f98 a9bd 0605 2c3e
00000390: b14b 953e b4b5 533e c006 e73c 8663 30bd
000003a0: 1828 fb3b cddb 2a3c b889 87bc 465d 0d3e
000003b0: 7f1d 633e f665 a03d 7783 7a3e 2090 62bc
000003c0: a7e8 983c 6dd8 e83a ca95 a6bc 13b9 4f3e
000003d0: f1bf c33c 7be6 3d3e fe90 d03d f140 02bd
000003e0: faf1 e23d 1070 3e3e 2419 32bd c2b1 3b3e
000003f0: 80e7 e93d 20ff 543d 8ba3 a33c b27f 013e

linear_stack.4.bias f4 [5]
0.1701331 0.1640887 0.10670202 0.22318251 0.10286387
00000000: 5f37 2e3e de06 283e 9786 da3d f589 643e
00000010: 4baa d23d
