data/U2_new/model_UAV_2.pth (torch, 660400 bytes, 6 tensors)

linear_stack.0.weight f4 [400, 4]
0.35197812 0.18671696 0.46145767 -0.14727567 0.1276219 -0.021378221 0.036582936 -0.09698151
0.19033436 0.32998952 0.2629256 0.11153151 -0.03848335 -0.019711137 -0.03536639 -0.78184485
-0.1297917 0.12281995 0.47136843 0.1613906 0.26020578 0.08894679 0.38843507 0.49181104
0.38429713 -0.3014503 0.74607325 0.5516345 -0.38044146 0.3003257 0.59739214 -0.5278782
-0.8592745 0.18662801 -0.38551575 -0.11601559 0.22953987 -0.4639475 -1.0307304 0.74184066
0.38064998 -0.4480483 0.24841218 0.4295163 0.28163466 0.24435602 -0.27638334 -0.42037338
-1.1707315 0.16615452 -1.4115384 0.00045708174 0.32763726 0.3192105 -0.10206533 0.14137748
0.041716725 0.07411324 -0.045054585 -0.23013948 -0.5666491 -0.058100376 -0.5513417 1.253225
-0.1469672 0.33411765 -0.51138306 -0.42407766 0.42236143 -1.1557 0.3466515 -0.90332115
-0.39329255 -0.27682793 -0.37075967 -0.15503591 -0.06378804 -0.0562175 -0.11631584 -2.5169187
-0.0073505044 -0.39342022 0.06510264 -0.4475537 -0.04151088 -0.061676443 -0.1978916 -0.32099974
0.25862062 -0.28694564 0.2599684 0.97068363 -0.79740316 -0.11254375 1.3164303 -0.8420692
-0.055152357 -0.07664043 -0.07600331 -0.07260579 -0.53083706 0.11778408 -0.10135303 0.54070187
0.34061885 -0.04915948 0.4383755 -0.031957496 0.56076384 -0.17432901 0.41248658 0.5964156
-0.20852126 0.21474266 0.548479 0.1279745 0.14572667 0.44502416 0.0021264188 -0.42545605
-0.23861264 -1.5013329 1.8654103 1.3856364 0.38111007 -0.03255645 -0.02177937 -0.044440422
-0.367482 0.41917145 -0.2042977 -0.08211425 0.28574252 -0.014847415 0.24695733 0.7418908
0.010567457 0.1877097 0.6398281 -0.0731918 0.3426233 0.24662928 0.119536676 -0.043361172
-0.3052891 -0.12404555 -0.056468546 -0.24168265 0.096336424 0.42416254 -0.02747651 -0.5082037
0.027886093 -0.26177 0.43782395 -0.0463506 0.32579467 -0.43631366 -1.5762874 0.88054913
0.350091 0.28012717 -0.30374822 0.22375703 0.095337994 0.0995568 -0.16156293 0.5931676
-0.96556437 0.28806743 -1.1186574 -0.008294706 0.25054502 0.09107241 -0.26814684 0.1442596
0.099801555 0.15645318 0.48004717 0.23276867 -0.19166718 -0.16644633 0.3296711 0.6384524
-0.056862235 -0.1791119 0.24791783 0.29216808 0.10913071 0.14138226 0.4350924 0.1929942
-0.10461122 0.47399414 0.19182058 0.060557358 -0.92287594 -0.11294396 0.07918603 -0.7269592
0.16968638 0.1720567 0.04405299 -0.3024731 -0.07850103 0.050758038 0.23017016 0.66876674
0.23561446 0.280394 0.6053753 0.26800206 0.18268327 0.41598815 0.118025005 -0.3408432
0.30399033 -0.31760293 -0.23188204 1.1788019 -0.41145068 0.53832346 -0.3023717 0.32116407
0.12691337 0.14514582 -0.3308209 0.9175327 -0.19985507 0.1057016 0.335962 0.124744765
-0.4337201 -0.098807156 0.33748978 -0.3503244 -0.4778288 0.3357179 0.44870338 0.51983386
-0.014577102 0.15980765 -0.021517668 -0.08931549 -0.7641697 -0.12217598 0.19555433 -0.25892502
0.019775372 0.0589028 -0.19076174 0.33963007 0.4125948 -0.16619803 0.36635113 -0.6792216
00000000: 7a36 b43e bb32 3f3e 2e44 ec3e 6fcf 16be
00000010: 51af 023e 6121 afbc fdd7 153d 3e9e c6bd
00000020: 03e7 423e 63f4 a83e 2f9e 863e a26a e43d
00000030: b8a0 1dbd 4079 a1bc 59dc 10bd fc26 48bf
00000040: 1ee8 04be 0789 fb3d 3457 f13e 9443 253e
00000050: b139 853e bc29 b63d f6e0 c63e a8ce fb3e
00000060: 98c2 c43e b257 9abe a8fe 3e3f eb37 0d3f
00000070: 39c9 c2be 4ac4 993e b1ee 183f 0723 07bf
00000080: 6af9 5bbf 6a1b 3f3e 5262 c5be 9599 edbd
00000090: 800c 6b3e 878a edbe f9ee 83bf 45e9 3d3f
000000a0: 8ee4 c23e 9666 e5be c35f 7e3e 8fe9 db3e
000000b0: 6b32 903e 7738 7a3e 1e82 8dbe 2e3b d7be
000000c0: 88da 95bf 6924 2a3e 4aad b4bf 79a4 ef39
000000d0: 12c0 a73e 8f6f a33e a107 d1bd 42c5 103e
000000e0: 28df 2a3d afc8 973d 288b 38bd afa9 6bbe
000000f0: ea0f 11bf a9fa 6dbd bb24 0dbf ad69 a03f
00000100: 927e 16be 7811 ab3e 00ea 02bf b520 d9be
00000110: c23f d83e faed 93bf 4e7c b13e 0e40 67bf
00000120: a45d c9be 64bc 8dbe 36d4 bdbe bcc1 1ebe
00000130: 4ea3 82bd 5244 66bd 0037 eebd 3215 21c0
00000140: 80dc f0bb 606e c9be 8854 853d c225 e5be
00000150: 5007 2abd 70a0 7cbd 18a4 4abe 145a a4be
00000160: ec69 843e 8aea 92be 941a 853e b97e 783f
00000170: 9d22 4cbf 567d e6bd ca80 a83f d991 57bf
00000180: 70e7 61bd a8f5 9cbd a0a7 9bbd 58b2 94bd
00000190: f0e4 07bf c838 f13d 2d92 cfbd 706b 0a3f
000001a0: 9865 ae3e 735b 49bd c172 e03e dde5 02bd
000001b0: 388e 0f3f 4e83 32be 7131 d33e b1ae 183f
000001c0: 9986 55be 80e5 5b3e 1f69 0c3f bf0b 033e
000001d0: 5f39 153e 35da e33e 635b 0b3b 60d5 d9be
000001e0: df56 74be ad2b c0bf c4c5 ee3f 895c b13f
000001f0: dc20 c33e ea59 05bd a66a b2bc 2907 36bd
00000200: 9a26 bcbe a49d d63e 6b33 51be 842b a8bd
00000210: d84c 923e 9242 73bc 62e2 7c3e 8eec 3d3f
00000220: 2123 2d3c f936 403e c6cb 233f 95e5 95bd
00000230: 526c af3e 638c 7c3e a5cf f43d 7c9b 31bd
00000240: da4e 9cbe 980b febd 904b 67bd a87b 77be
00000250: 084c c53d d52b d93e 6b16 e1bc a319 02bf
00000260: 6071 e43c b806 86be 762a e03e 20da 3dbd
00000270: 8fce a63e 8164 dfbe c9c3 c9bf ab6b 613f
00000280: 213f b33e d46c 8f3e e384 9bbe 9020 653e
00000290: 9140 c33d 70e4 cb3d c170 25be d5d9 173f
000002a0: 3a2f 77bf 937d 933e 2a30 8fbf 85e6 07bc
000002b0: 7047 803e 2c84 ba3d 8b4a 89be cab8 133e
000002c0: c264 cc3d 4335 203e bec8 f53e e95a 6e3e
000002d0: 6744 44be e870 2abe a7ca a83e 9e71 233f
000002e0: 60e8 68bd 1c69 37be 2cde 7d3e 0e97 953e
000002f0: ec7f df3d 83c6 103e 6ec4 de3e 46a0 453e
00000300: 683e d6bd 5caf f23e 9d6c 443e fe0a 783d
00000310: 9941 6cbf 2a4f e7bd 492c a23d 001a 3abf
00000320: 44c2 2d3e a22f 303e e870 343d c1dd 9abe
00000330: 26c5 a0bd a9e7 4f3d bab1 6b3e 4c34 2b3f
00000340: eb44 713e cd8f 8f3e e0f9 1a3f 9137 893e
00000350: 5311 3b3e 66fc d43e 18b7 f13d 0083 aebe
00000360: 9fa4 9b3e da9c a2be 7c72 6dbe fbe2 963f
00000370: aaa9 d2be 91cf 093f 77d0 9abe 9e6f a43e
00000380: 94f5 013e 1ba1 143e 5b61 a9be 6ce3 6a3f
00000390: cfa6 4cbe 157a d83d 3603 ac3e 2f7a ff3d
000003a0: 9010 debe 685b cabd 76cb ac3e b85d b3be
000003b0: faa5 f4be 37e3 ab3e 73bc e53e d513 053f
000003c0: ccd4 6ebc 9ea4 233e d245 b0bc 0aeb b6bd
000003d0: a0a0 43bf 6637 fabd 653f 483e d291 84be
000003e0: f6ff a13c 1044 713d 0c57 43be fee3 ad3e
000003f0: a03f d33e d12f 2abe 6092 bb3e 77e1 2dbf

linear_stack.0.bias f4 [400]
0.9947078 -0.6767443 0.581363 0.9139058 -0.6756001 -0.22155197 -0.2915245 0.09923445
0.34446126 -0.3960309 -0.47296914 0.4755174 0.2515516 0.48640397 -0.75207293 0.45674783
0.6045341 0.059233636 -0.07323605 0.5883923 -0.011150777 -0.22975999 -0.637503 0.84469527
-0.47343874 0.7891857 -0.6122062 0.61161923 0.10798612 0.76125586 1.0245239 0.34826
0.2278027 -0.5294795 -0.46138564 0.6679502 -0.4272433 0.7377122 -0.39723092 -0.5857542
0.84765416 0.237368 0.3063293 0.23174638 -0.3529194 -0.05569735 -0.29535562 0.10034901
0.5299292 0.91042405 0.41810444 -0.78482825 -0.49216396 0.7193509 -1.1074437 0.41298866
0.63513243 -0.10570907 -0.374627 0.15224679 -0.34713158 0.7377878 -0.5560282 0.35952356
0.10758219 0.28232643 0.72426116 0.49364722 -0.03399414 0.06882144 0.14787874 -0.31059104
0.14727287 0.17680883 -0.6648607 0.7724791 -0.28784186 -0.3928995 0.95404404 0.61452156
0.59298337 -0.08854278 0.07918213 0.54216045 0.676801 -0.93094504 0.55971074 0.3004553
-0.019935165 0.65744054 -0.46485448 0.7472681 -0.44134012 -0.35991967 0.9781124 0.259732
0.12577671 -0.10467833 -0.024383256 -0.16299802 0.5510746 0.9452798 -0.825005 -0.39187372
0.19455878 0.50123507 -0.7187926 0.14911738 0.12545706 0.7422966 0.41776633 0.6819731
-0.0006949808 0.84192306 0.16326605 0.5071286 -0.23786858 -0.9525917 0.5166596 -0.4529383
0.21589243 0.8623471 0.6319584 0.6879666 -0.747416 -0.48356056 0.8614132 1.0263463
0.8758987 0.7393704 -0.027683627 0.4244829 -0.4812086 0.6371135 0.33534506 -0.19956952
0.24274606 -0.44148278 -0.30149895 0.2792648 0.7910425 0.68006843 0.043202832 0.9085786
-0.032248445 -0.073281385 -0.4395388 1.0659642 0.620627 -0.83221096 0.46772373 0.5544201
-0.19378835 -0.6980704 -0.25185898 0.14326833 -0.35652947 -0.11373199 0.27846387 0.8653667
0.7254062 0.4513124 -0.79311085 -0.5318126 0.332399 -0.07560903 -0.039250992 0.41394007
0.38977125 0.25445765 0.68309283 0.14175989 -0.7373046 -0.11546421 0.17360944 0.16170727
-0.32233593 1.019794 -0.42479497 -0.4851361 0.045278694 0.17260559 0.5610378 0.1443052
-0.32425743 -0.8095191 -0.7689257 -0.4312231 0.7562729 -0.9311672 0.6408023 -0.75790215
-0.49185362 -0.018432505 -0.035764057 -0.40773255 0.76963264 0.3385554 -0.6202239 0.461068
0.18428269 -0.83775526 0.18483546 -0.4972751 -0.113044575 -0.050208937 0.7405447 1.0642729
-0.025968492 0.63949 0.33655396 0.6659364 0.7405156 0.32591236 0.16532202 0.75085807
0.49587896 0.019946756 -0.12095344 0.06471038 -0.9264477 0.33404282 0.84067935 0.14074372
0.72894764 -0.6575719 -0.018457163 0.24031556 -0.76361454 0.43940288 0.8330015 0.9959299
0.21642283 -0.30918515 -0.74871 -0.37010962 0.9228916 0.06958236 -0.28337684 -0.4944176
-0.4811768 -0.35021544 0.6557299 0.5462075 0.8098376 0.51589507 1.1482049 0.60903925
-0.40601325 0.74721783 -0.049818918 -0.6595417 -0.27050853 0.75507224 -0.4798548 -0.5303771
00000000: 2ca5 7e3f 1d3f 2dbf 35d4 143f bbf5 693f
00000010: 21f4 2cbf 85de 62be b342 95be 6e3b cb3d
00000020: 3a5d b03e 90c4 cabe 0329 f2be 0477 f33e
00000030: 5fcb 803e f109 f93e da87 40bf dada e93e
00000040: bfc2 1a3f f89e 723d c8fc 95bd e1a0 163f
00000050: c0b1 36bc 3446 6bbe 6633 23bf f33d 583f
00000060: 9066 f2be 1308 4a3f 8cb9 1cbf 1493 1c3f
00000070: d427 dd3d aae1 423f 9923 833f 224f b23e
00000080: 1c45 693e f88b 07bf bd3a ecbe c9fe 2a3f
00000090: a2bf dabe b5da 3c3f da61 cbbe fdf3 15bf
000000a0: ddff 583f 9910 733e 32d7 9c3e ec4e 6d3e
000000b0: dab1 b4be e822 64bd da38 97be c883 cd3d
000000c0: 71a9 073f 8d11 693f c911 d63e 81ea 48bf
000000d0: eafc fbbe 6127 383f b7c0 8dbf 4073 d33e
000000e0: 0a98 223f ff7d d8bd 1ccf bfbe 95e6 1b3e
000000f0: 3bbb b1be a9df 3c3f dd57 0ebf 7913 b83e
00000100: 0d54 dc3d 178d 903e 2e69 393f 54bf fc3e
00000110: 703d 0bbd 41f2 8c3d 866d 173e ca05 9fbe
00000120: b3ce 163e 600d 353e 5034 2abf 31c1 453f
00000130: 0260 93be 202a c9be 3b3c 743f 4951 1d3f
00000140: c2cd 173f eb55 b5bd 3e2a a23d 07cb 0a3f
00000150: d542 2d3f 6a52 6ebf 3449 0f3f 47d5 993e
00000160: 124f a3bc 064e 283f 6801 eebe f64c 3f3f
00000170: 55f7 e1be 6447 b8be 9365 7a3f 98fb 843e
00000180: 9ccb 003e 9861 d6bd 65bf c7bc f4e8 26be
00000190: 3a13 0d3f dbfd 713f 8733 53bf aca3 c8be
000001a0: 6b3a 473e f150 003f cb02 38bf 3ab2 183e
000001b0: d177 003e 2607 3e3f 78e5 d53e ca95 2e3f
000001c0: 5f2f 36ba 4588 573f 372f 273e 2ed3 013f
000001d0: d293 73be 0ddd 73bf ce43 043f 87e7 e7be
000001e0: e812 5d3e c8c2 5c3f 07c8 213f 941e 303f
000001f0: a856 3fbf 4095 f7be 9385 5c3f 515f 833f
00000200: e63a 603f 6147 3d3f c6c8 e2bc d355 d93e
00000210: f960 f6be df19 233f 59b2 ab3e f45b 4cbe
00000220: 6c92 783e 080a e2be 125e 9abe ccfb 8e3e
00000230: c381 4a3f f718 2e3f 74f5 303d 9b98 683f
00000240: f216 04bd 8d14 96bd 3b0b e1be 8471 883f
00000250: 69e1 1e3f c70b 55bf 7c79 ef3e 7aee 0d3f
00000260: 7470 46be beb4 32bf a9f3 80be efb4 123e
00000270: 088b b6be 51ec e8bd d192 8e3e ac88 5d3f
00000280: 39b4 393f 6b12 e73e 5009 4bbf df24 08bf
00000290: 3430 aa3e e8d8 9abd a6c5 20bd f4ef d33e
000002a0: 1990 c73e 4648 823e 2cdf 2e3f 8129 113e
000002b0: ffbf 3cbf 8078 ecbd acc6 313e 9796 253e
000002c0: 3709 a5be 9c88 823f ba7e d9be c263 f8be
000002d0: 2776 393d 85bf 303e 2ca0 0f3f bec4 133e
000002e0: 1205 a6be a53c 4fbf 51d8 44bf 46c9 dcbe
000002f0: 1a9b 413f f960 6ebf 9f0b 243f e005 42bf
00000300: 3dd4 fbbe c4ff 96bc 557d 12bd 52c2 d0be
00000310: a506 453f 2257 ad3e fec6 1ebf 1b11 ec3e
00000320: 9ab4 3c3e 2177 56bf 8245 3d3e d89a febe
00000330: ea83 e7bd e3a7 4dbd 5694 3d3f 183a 883f
00000340: e0bb d4bc 9eb5 233f cd50 ac3e cf7a 2a3f
00000350: 6e92 3d3f fcdd a63e 2d4a 293e 3c38 403f
00000360: d9e3 fd3e 6167 a33c 70b6 f7bd e086 843d
00000370: ad2b 6dbf a907 ab3e c336 573f 1f1f 103e
00000380: 509c 3a3f a256 28bf 7a33 97bc 4815 763e
00000390: 3e7c 43bf 6af9 e03e 963f 553f 43f5 7e3f
000003a0: f29d 5d3e 844d 9ebe 75ab 3fbf 027f bdbe
000003b0: a042 6c3f 3281 8e3d c516 91be 4e24 fdbe
000003c0: ce5c f6be 704f b3be eadd 273f 41d4 0b3f
000003d0: 8451 4f3f b311 043f 61f8 923f ffe9 1b3f
000003e0: f8e0 cfbe ab49 3f3f ec0e 4cbd bad7 28bf
000003f0: 1880 8abe 6a4c 413f 87af f5be cbc6 07bf

linear_stack.2.weight f4 [400, 400]
-0.04425279 0.0010981441 -0.044430476 -0.029199375 -0.04954843 -0.0005793393 -0.013534076 -0.0044740797
0.022975082 -0.03187455 0.041088708 -0.0026934564 0.04477566 0.010094625 0.007260406 -0.046997618
0.027957458 0.015573281 0.03679607 -0.04029125 0.014571798 -0.002165693 -0.01176098 0.045698404
-0.019456042 0.037012555 0.0132109225 0.045342304 -0.016611028 -0.0083385585 0.0004673958 0.04430747
0.023120701 -0.014305824 -0.04443351 -0.049310517 -0.047746707 -0.020865714 -0.029620672 -0.008841271
0.0053274515 0.031212253 -0.0072773336 -0.026144797 -0.04059681 0.029104847 0.033477563 -0.02366342
0.0027846813 0.0039729415 0.035283156 -0.028325945 0.020424683 0.01020245 0.027187033 -0.00015354156
-0.045180704 0.010457438 -0.047023308 -0.04935546 -0.014998215 -0.02885796 0.0148045365 -0.03127302
0.039722484 -0.03940046 -0.03293037 -0.014188266 -0.044232238 -0.032938916 -0.0005588472 -0.012667
-0.034839954 -0.04073112 0.04447345 -0.033781882 0.024869317 0.039588608 0.027466668 0.018487949
-0.040878333 0.016978204 -0.042885967 0.00022403598 0.047579 -0.03258432 -0.03337813 -0.030611724
0.046275523 0.013183809 0.0067768516 -0.046737976 0.041140895 0.015324461 -0.013749087 -0.004711032
-0.025273627 -0.047147322 -0.04027763 0.0009554207 -0.023213392 0.026019549 -0.0065889596 -0.008639097
0.028340071 -0.025484247 0.009277451 -0.02396186 -0.016319042 -0.043677118 0.019846875 0.037938666
0.048231423 -0.0034512996 0.028159743 0.043472838 0.008113516 -0.02129445 -0.03379351 0.02132293
-0.049028844 -0.025231069 -0.009045041 -0.02657454 -0.0043672505 -0.025012655 -0.036108505 -0.023838002
-0.033620138 0.049634695 -0.014776898 -0.014049202 -0.017820496 -0.034860905 -0.0023522556 -0.0011275709
0.02920658 -0.020625979 0.032423228 0.029090434 0.0066483854 0.046813082 0.028305 0.038085766
0.006968838 0.007591188 -0.030533446 -0.035328873 0.029073847 -0.03012457 -0.0153066395 -0.025440961
-0.022239745 -0.040046852 -0.008577866 0.027379245 -0.031894207 -0.000151819 -0.024784649 -0.036638875
-0.039064325 0.0425508 0.039758474 0.021366764 -0.0037983656 0.016878456 -0.025897259 -0.02653755
-0.031838924 0.038640976 0.0068003596 -0.026061928 -0.015294475 -0.010751707 0.011095387 0.0011091232
-0.043463625 0.038443822 -0.02819783 -0.0054126503 -0.039595902 0.045834094 -0.022629553 -0.030113388
-0.022091836 0.021690553 0.035763424 -0.009848661 0.0030232072 -0.0001721859 0.021789664 0.042348184
-0.0013359964 0.02352723 0.023494655 0.01280545 0.04870977 0.008483714 0.033047814 -0.032408416
0.02142905 0.04313279 0.037207264 -0.04602927 -0.024912441 0.0021796466 -0.04165929 -0.032434996
0.04628821 0.021397246 0.035467695 -0.012797422 -0.039411712 -0.028360952 0.0027225732 0.044086702
-0.035865027 0.02284338 0.0344378 -0.014330751 0.020289375 -0.039020058 -0.005449772 -0.00066330435
0.031507384 -0.028958255 -0.013937331 -0.01227054 0.045904186 0.021741558 0.01214577 0.032508124
-0.019775111 -0.041510947 0.035405792 0.04089737 -0.019504994 0.03095981 -0.008902991 0.0158134
0.038853694 -0.031658996 -0.049747456 -0.049937528 -0.022198189 -0.0024407685 -0.03620686 -0.034487423
0.027037758 0.016405536 -0.042405482 0.033405777 -0.010975897 0.010400141 -0.0030889928 0.029646104
00000000: 6a42 35bd 9aef 8f3a bbfc 35bd 8733 efbc
00000010: 4bf3 4abd cdde 17ba 07be 5dbc 4d9b 92bb
00000020: 3d36 bc3c e38e 02bd a24c 283d b384 30bb
00000030: af66 373d ed63 253c b3e8 ed3b 9380 40bd
00000040: 0a07 e53c 1327 7f3c 7ab7 163d 7008 25bd
00000050: 8dbe 6e3c 4dee 0dbb 20b1 40bc 402e 3b3d
00000060: 4762 9fbc 7a9a 173d a072 583c dab8 393d
00000070: da13 88bc 739e 08bc cd0c f539 c07b 353d
00000080: a067 bd3c fa62 6abc eaff 35bd d3f9 49bd
00000090: 0d92 43bd 93ee aabc 0da7 f2bc fada 10bc
000000a0: e791 ae3b d7b0 ff3c b376 eebb 9d2d d6bc
000000b0: d748 26bd 4a6d ee3c c51f 093d cad9 c1bc
000000c0: 337f 363b 732f 823b 1285 103d d00b e8bc
000000d0: aa51 a73c 2d28 273c 57b7 de3c 0000 21b9
000000e0: 670f 39bd ad55 2b3c 839b 40bd f328 4abd
000000f0: 13bb 75bc 8767 ecbc ba8e 723c 2318 00bd
00000100: 0bb4 223d 6062 21bd ffe1 06bd e775 68bc
00000110: dd2c 35bd f5ea 06bd 9a7f 12ba 4089 4fbc
00000120: 57b4 0ebd add5 26bd cb29 363d df5e 0abd
00000130: bdba cb3c aa27 223d c701 e13c 0a74 973c
00000140: 0a70 27bd e015 8b3c 32a9 2fbd 33eb 6a39
00000150: 33e2 423d 2377 05bd 82b7 08bd 70c5 fabc
00000160: 678b 3d3d e700 583c 5a10 de3b 5270 3fbd
00000170: 5b83 283d 7313 7b3c da43 61bc 005f 9abb
00000180: a30a cfbc 8d1d 41bd 28fa 24bd 3375 7a3a
00000190: 032a bebc f326 d53c 33e8 d7bb 008b 0dbc
000001a0: 7029 e83c 57c4 d0bc 7300 183c aa4b c4bc
000001b0: 83af 85bc c7e6 32bd ea95 a23c 9365 1b3d
000001c0: 508e 453d 332f 62bb 43af e63c 9310 323d
000001d0: 8dee 043c b371 aebc 106b 0abd 6dad ae3c
000001e0: 78d2 48bd 63b1 cebc a731 14bc dab2 d9bc
000001f0: 271b 8fbb 57e7 ccbc 83e6 13bd ea47 c3bc
00000200: 45b5 09bd c04d 4b3d cd1a 72bc a02e 66bc
00000210: 4afc 91bc 4fca 0ebd 4d28 1abb 00cb 93ba
00000220: a342 ef3c d0f7 a8bc 38ce 043d 104f ee3c
00000230: b3da d93b 13bf 3f3d e3df e73c d2ff 1b3d
00000240: da5a e43b 80bf f83b 4721 fabc 02b5 10bd
00000250: 472c ee3c cdc7 f6bc b3c8 7abc 9069 d0bc
00000260: 2030 b6bc 2b08 24bd 2d8a 0cbc 704a e03c
00000270: 80a3 02bd 9a31 1fb9 2d09 cbbc a512 16bd
00000280: ea01 20bd bf49 2e3d c8d9 223d 5a09 af3c
00000290: 00ee 78bb b044 8a3c 7d26 d4bc 4765 d9bc
000002a0: 8869 02bd 0046 1e3d 8dd5 de3b d37f d5bc
000002b0: ad95 7abc ed27 30bc 6dc9 353c 0060 913a
000002c0: ea06 32bd 4577 1d3d 23ff e6bc 9a5c b1bb
000002d0: 502f 22bd 88bc 3b3d 9d61 b9bc 5ab0 f6bc
000002e0: f0f9 b4bc 63b0 b13c ab7c 123d 475c 21bc
000002f0: 0021 463b cd8c 34b9 3d80 b23c 4a75 2d3d
00000300: 9a1c afba 2dbc c03c dd77 c03c f3cd 513c
00000310: e583 473d 47ff 0a3c 255d 073d b0be 04bd
00000320: fa8b af3c 02ac 303d a566 183d 3089 3cbd
00000330: 2d15 ccbc 67d8 0e3b efa2 2abd 8fda 04bd
00000340: b598 3d3d 4749 af3c 9346 113d 47ac 51bc
00000350: 2d6e 21bd 3a55 e8bc 336d 323b 4294 343d
00000360: 35e7 12bd 0a22 bb3c a70e 0d3d 87cb 6abc
00000370: e735 a63c 7fd3 1fbd 0094 b2bb 9ae1 2dba
00000380: e30d 013d dd39 edbc 6759 64bc 600a 49bc
00000390: 0706 3c3d 5a1b b23c 0dff 463c 3d27 053d
000003a0: 6aff a1bc 6207 2abd aa05 113d 0084 273d
000003b0: f0c8 9fbc 6d9f fd3c dadd 11bc 1a8b 813c
000003c0: 0d25 1f3d ddac 01bd fdc3 4bbd 4b8b 4cbd
000003d0: fad8 b5bc 4df5 1fbb a54d 14bd af42 0dbd
000003e0: 4a7e dd3c e764 863c 5fb1 2dbd 7fd4 083d
000003f0: 40d4 33bc 5a65 2a3c b370 4abb 63dc f23c

linear_stack.2.bias f4 [400]
-0.029220928 0.07399006 -0.045991663 0.16474871 0.2973002 0.008732509 0.24964997 0.19591781
-0.012240868 0.24433194 -0.042141568 -0.015787382 -0.022951841 0.21691032 -0.010482884 0.19710834
0.1006858 -0.008162244 0.2593211 -0.035465714 -0.0025314689 -0.051964857 0.2511636 0.26765463
-0.05418319 0.22529331 0.21027035 -0.26535612 0.21724422 0.15451542 -0.01848318 -0.023009712
-0.007663769 0.21162239 0.22319938 0.016709717 0.20398529 -0.046573877 -0.14334847 0.26441172
0.21736702 0.27768356 0.24695659 -0.042598575 0.27409428 -0.04188146 0.21626471 0.26180106
0.28548 0.2696845 -0.04887046 0.19166704 0.21439807 0.2005536 -0.0003027256 0.011524785
0.011800748 0.030396068 0.2024222 0.16751215 -0.036273696 0.122061126 0.19340658 0.12156747
0.22323963 0.2480965 0.27107537 -0.015525632 0.2405869 0.19319896 -0.04321869 0.17454033
-0.015496463 -0.031894803 -0.044615336 0.021730354 0.23557565 0.237072 0.15984362 -0.046699263
0.22843406 0.2668668 -0.043858472 0.28385532 0.23340632 -0.0038914888 0.1689686 0.2736355
-0.046631757 0.26491937 0.1872142 -0.031397954 0.15154721 0.0012799249 0.30523288 -0.010511031
0.20740339 -0.051209163 0.29748386 0.170625 0.21867764 0.14193928 0.21158102 -0.027782254
0.302381 0.21392767 0.21733518 0.20488499 0.18657504 0.28025573 -0.27568048 0.20583135
0.20497066 0.051439967 -0.0007627108 0.18586454 0.013158 0.25588208 -0.044525594 0.049711347
0.30270505 0.006431419 0.01650463 0.22287227 -0.035560418 -0.01561653 -0.029516691 -0.014169797
-0.03194424 0.13800257 0.1279114 0.004072106 0.17086144 0.11907362 -0.049312618 0.17303692
0.2287022 0.025329156 0.21314298 -0.034544647 0.041237842 0.22717354 -0.011331202 0.3611238
0.21980149 -0.17839164 -0.021264223 0.09917399 0.22242203 -0.02116484 -0.033683307 0.0086166505
0.16874993 0.29728627 -0.05883671 0.16100828 0.21850011 0.19777301 0.25004077 -0.029434137
-0.053440534 0.019159654 -0.004754243 0.1644626 0.24273144 -0.034699496 0.23178953 -0.031642456
-0.021835232 0.046261936 0.23201051 0.16048503 0.16297029 0.28897285 -0.028256733 0.2162155
0.12326983 0.18116498 0.29214317 0.016686672 0.23760517 0.2100418 0.15581656 0.1738436
0.21165134 0.14879522 0.21229006 0.018639818 -0.0060593616 0.04259363 0.170942 0.2671907
-0.005903749 0.32829484 0.033274096 -0.016682848 0.2593255 -0.013302857 -0.01248011 0.3401695
-0.0092962105 0.14834265 0.038338102 0.26124647 -0.020693345 0.35987672 0.22638209 -0.04004429
0.22829354 2.7305674e-05 -0.06087258 0.039488923 0.22391577 -0.05135003 0.011537147 0.2275762
-0.021358691 0.1675011 0.011498004 -0.020744992 -0.021882588 0.031227296 0.21995817 0.19508201
-0.028489882 0.033337153 -0.04395446 -0.047777 0.00092319 0.033956207 -0.19346108 0.20542525
-0.0061970414 -0.121666305 0.22802098 0.12804505 0.17239311 -0.11105833 0.17277658 0.24041456
-0.0060732733 0.015234167 -0.05058014 -0.044965938 0.0025721975 -0.004311776 0.03683719 0.32311022
0.029979505 0.22756742 0.17796598 0.32850045 0.19061485 0.19282992 0.19398013 0.25586045
00000000: ba60 efbc 1a88 973d c161 3cbd e3b3 283e
00000010: bb37 983e cc12 0f3c 3ea4 7f3e ae9e 483e
00000020: ec8d 48bc 2732 7a3e a39c 2cbd 8a54 81bc
00000030: 8005 bcbc bd1d 5e3e 67c0 2bbc c5d6 493e
00000040: 5b34 ce3d efba 05bc bcc5 843e 7f44 11bd
00000050: 00e7 25bb 1ad9 54bd 8498 803e 070a 893e
00000060: 31ef 5dbd 4ab3 663e 1c51 573e c2dc 87be
00000070: 4575 5e3e 4a39 1e3e 0a6a 97bc dd7e bcbc
00000080: 5b20 fbbb 8ab3 583e 618e 643e d1e2 883c
00000090: 85e1 503e 40c4 3ebd f1c9 12be f960 873e
000000a0: 7695 5e3e 8a2c 8e3e 30e2 7c3e d87b 2ebd
000000b0: 1656 8c3e e58b 2bbd 7f74 5d3e ca0a 863e
000000c0: 6f2a 923e 1614 8a3e 642c 48bd 5d44 443e
000000d0: 2b8b 5b3e ec5d 4d3e 24b7 9eb9 74d2 3c3c
000000e0: ed57 413c 2d01 f93c c447 4f3e 4e88 2b3e
000000f0: ba93 14bd 2ffb f93d 600c 463e 5ef8 f83d
00000100: ee98 643e 020d 7e3e 64ca 8a3e 385f 7ebc
00000110: 6a5c 763e f3d5 453e 1506 31bd b3ba 323e
00000120: e0e4 7dbc 20a4 02bd 92be 36bd db03 b23c
00000130: be3a 713e 01c3 723e 0cae 233e ba47 3fbd
00000140: 9eea 693e c4a2 883e f1a4 33bd 7c55 913e
00000150: 1102 6f3e 5908 7fbb 1b06 2d3e f419 8c3e
00000160: f100 3fbd 83a3 873e 14b5 3f3e 249b 00bd
00000170: 312f 1b3e 27c3 a73a 7c47 9c3e 7636 2cbc
00000180: 8e61 543e b3c0 51bd ce4f 983e 52b8 2e3e
00000190: 08ed 5f3e 8858 113e b2a8 583e 9c97 e3bc
000001a0: afd1 9a3e db0f 5b3e 1d8d 5e3e 5fcd 513e
000001b0: 870d 3f3e ae7d 8f3e fe25 8dbe 74c5 523e
000001c0: d4e3 513e b7b2 523d a8f0 47ba 4653 3e3e
000001d0: a794 573c fa02 833e 7860 36bd 209e 4b3d
000001e0: 28fc 9a3e a7be d23b b834 873c a138 643e
000001f0: cda7 11bd 79dc 7fbc fdcc f1bc 7028 68bc
00000200: f7d7 02bd 8c50 0d3e 35fb 023e 4d6f 853b
00000210: 4df6 2e3e dfdc f33d 07fc 49bd 9730 313e
00000220: e930 6a3e 177f cf3c 2742 5a3e b07e 0dbd
00000230: 03e9 283d 2ea0 683e 82a6 39bc 38e5 b83e
00000240: a413 613e 4cac 36be 4f32 aebc bc1b cb3d
00000250: 9ac2 633e e361 adbc 82f7 09bd da2c 0d3c
00000260: c8cc 2c3e e835 983e c3fe 70bd 5bdf 243e
00000270: 7ebe 5f3e 0285 4a3e 5805 803e dc1f f1bc
00000280: 76e4 5abd b5f4 9c3c 7bc9 9bbb e268 283e
00000290: 978e 783e 0f21 0ebd 3c5a 6d3e 859b 01bd
000002a0: cddf b2bc 287d 3d3d 2a94 6d3e 3056 243e
000002b0: afe1 263e 40f4 933e aa7a e7bc 9967 5d3e
000002c0: e574 fc3d 5083 393e ca93 953e 7db2 883c
000002d0: c54e 733e 3315 573e 608e 1f3e 0f04 323e
000002e0: 21bb 583e c65d 183e 9162 593e 88b2 983c
000002f0: 9c8d c6bb a876 2e3d 6b0b 2f3e 38cd 883e
00000300: 3c74 c1bb 4316 a83e 6b4a 083d 78aa 88bc
00000310: 50c6 843e 3af4 59bc 6079 4cbc b22a ae3e
00000320: 224f 18bc 23e7 173e 6a08 1d3d 19c2 853e
00000330: 1785 a9bc c341 b83e b5d0 673e 7b05 24bd
00000340: c8c5 693e 7d0e e537 8755 79bd 23bf 213d
00000350: 2d4a 653e 6954 52bd 4d06 3d3c bc09 693e
00000360: 6cf8 aebc 6985 2b3e 2062 3c3c 67f1 a9bc
00000370: 1d43 b3bc 63d0 ff3c b73c 613e 94c3 473e
00000380: 9d63 e9bc 8a8c 083d 9809 34bd d1b1 43bd
00000390: 3b02 723a aa15 0b3d a91a 46be ff5a 523e
000003a0: 8d10 cbbb 2f2c f9bd 557e 693e 3e1e 033e
000003b0: d287 303e 8d72 e3bd 58ec 303e 3c2f 763e
000003c0: 4f02 c7bb ba98 793c 1f2d 4fbd 342e 38bd
000003d0: 5092 283b cc49 8dbb 98e2 163d b46e a53e
000003e0: 9497 f53c 6f07 693e b73c 363e 3631 a83e
000003f0: 8a30 433e 3575 453e baa2 463e 2400 833e

linear_stack.4.weight f4 [5, 400]
0.030887503 -0.07059425 -0.02732833 0.058827218 0.30093202 0.028810982 0.07979455 0.14462614
0.019499958 -0.7984351 -0.042900924 -0.02907247 0.0031303389 -0.0046853092 -0.032006152 0.021310385
0.47489113 -0.015343283 0.12732428 -0.027352273 -0.043289185 0.01764356 0.56440425 0.18016392
-0.038656976 0.1478962 0.10942356 -0.19869933 0.74797654 0.15489765 0.020834183 0.014616335
-0.17169616 0.09253278 0.20443714 0.03397133 0.23311034 0.01141038 0.038674477 0.19380924
0.057129715 0.20602909 0.103780165 0.0011919002 0.23032546 0.04444868 0.14535572 0.23163188
0.22495319 0.15638088 0.03355158 0.22907655 0.06638788 -0.00810463 -0.034693927 0.029574484
-0.008241373 -0.035194702 0.108184144 0.11842443 0.0075636506 0.29724947 0.16601269 0.059170872
0.1503512 0.20436236 0.22090164 -0.024415333 0.30113778 0.18364964 -0.040599223 0.09548549
-0.046330847 0.0055437325 -0.0024356784 -0.029001543 0.07212697 0.08784453 0.100789465 -0.032256927
0.3188431 0.19652683 -0.02941268 0.275106 0.09570627 0.020589996 0.15575215 0.24649246
-0.04964037 0.22508158 0.16255046 -0.04327214 0.020628328 -0.0037379991 0.30193144 -0.018113606
0.15496883 -0.044328883 0.13098937 0.08417876 0.05915508 0.066023715 0.20998298 0.0133752115
0.28296626 0.18875957 0.19107744 0.1937071 0.17499816 0.17032722 -0.20453799 -0.3390211
0.031727213 0.072034724 0.034518618 0.17456377 -0.031484526 0.19848855 -0.009918088 -0.03618241
0.33945066 -0.036325496 0.025911987 0.2506932 0.03755746 -0.0028137336 -0.037044074 0.03461008
0.05201186 0.15675229 -0.19919577 0.006886512 0.07567299 0.51037246 0.049677752 0.1537045
0.22851406 -0.03573201 0.09186193 0.013666368 -0.013315714 0.1594992 -0.017841905 0.37193376
0.17264156 -0.15243244 0.03809572 0.023189865 0.19879602 -0.007137287 -0.009390533 -0.045684587
0.1696565 0.28137854 -0.012406421 0.024390303 0.20843987 -0.0149664115 0.15317577 -0.015473205
0.025911367 -0.021156901 -0.025076156 0.13516164 0.08409336 0.0003431751 0.20347784 -0.011291751
-0.02856396 -0.0013739461 0.2338842 0.1394828 0.16392827 0.32534367 0.016602121 0.09547488
-0.52106184 0.13755189 0.08261481 -0.010916633 0.13686594 0.11918596 0.23679274 0.41905126
0.22553377 0.112781845 0.30993915 -0.012439536 0.045352448 -0.024449103 -0.041122224 0.24266046
-0.03913296 0.29969236 -0.0077004135 -0.01621805 0.18716605 0.038351446 -0.023972638 0.49446395
0.0066129626 0.12131142 0.036208935 0.520965 -0.016755199 0.36399946 0.22375466 0.037988465
0.2323689 -0.02116517 -0.0025083828 0.024931544 0.38107795 -0.031315807 -0.026038468 0.23239376
-0.005685131 -0.10476666 -0.0055767237 0.016569259 0.0469648 -0.015602904 0.056287095 -0.2645549
0.039895188 -0.038610198 -0.037712257 -0.0028301957 0.034970473 -0.013742806 -0.38881794 0.19739144
0.018069262 -0.11185361 0.117531866 0.09583976 0.16087624 -0.169192 0.113177575 0.17258416
0.04886049 -0.027721798 0.3077782 0.049348548 0.03584033 0.00015535965 0.017995322 -0.5951247
-0.04716404 0.10897529 0.16305342 0.3200585 0.11076337 -0.3888977 0.17487451 -0.15852013
00000000: ca07 fd3c b893 90bd a9df dfbc cff4 703d
00000010: c313 9a3e 0205 ec3c 536b a33d e018 143e
00000020: 60be 9f3c 3e66 4cbf e1b8 2fbd 6329 eebc
00000030: 5f26 4d3b 3987 99bb e218 03bd 1e93 ae3c
00000040: ee24 f33e 6562 7bbc 4c61 023e e011 e0bc
00000050: 0050 31bd 3a89 903c cc7c 103f e47c 383e
00000060: c756 1ebd 1a72 173e 7619 e03d d677 4bbe
00000070: 647b 3f3f 7d9d 1e3e 73ac aa3c 5a79 6f3c
00000080: 1ed1 2fbe d381 bd3d f857 513e 8525 0b3d
00000090: 7ab4 6e3e 9af2 3a3c 2169 1e3d ee75 463e
000000a0: d900 6a3d 4af9 523e b28a d43d 8939 9c3a
000000b0: 70da 6b3e d20f 363d 21d8 143e e830 6d3e
000000c0: 215a 663e 4f22 203e 626d 093d 0b93 6a3e
000000d0: 5ef6 873d 48c9 04bc 381b 0ebd 3046 f23c
000000e0: d306 07bc 5228 10bd a68f dd3d 8288 f23d
000000f0: 80d8 f73b 1531 983e 3bff 293e 285d 723d
00000100: aaf5 193e 5e44 513e 0a34 623e aa02 c8bc
00000110: bb2e 9a3e a70e 3c3e 5f4b 26bd e68d c33d
00000120: 6ac5 3dbd 33a8 b53b e79f 1fbb a594 edbc
00000130: 4eb7 933d d5e7 b33d b56a ce3d d71f 04bd
00000140: 673f a33e 543e 493e dcf2 f0bc b2da 8c3e
00000150: a601 c43d 5aac a83c 7e7d 1f3e 8568 7c3e
00000160: b353 4bbd c97b 663e a173 263e 213e 31bd
00000170: bdfc a83c 38f9 74bb c296 9a3e fc62 94bc
00000180: 26b0 1e3e 3492 35bd 1422 063e ea65 ac3d
00000190: 994c 723d 7137 873d c705 573e b423 5b3c
000001a0: f4e0 903e 304a 413e cea9 433e 275b 463e
000001b0: b832 333e 426a 2e3e 6872 51be 2c94 adbe
000001c0: 65f4 013d f186 933d 6563 0d3d d8c0 323e
000001d0: ebf5 00bd 9540 4b3e 7a7f 22bc 0234 14bd
000001e0: 7acc ad3e 0bca 14bd 6045 d43c dc5a 803e
000001f0: dad5 193d 9e66 38bb 87bb 17bd 4dc3 0d3d
00000200: 630a 553d ac83 203e faf9 4bbe 40a8 e13b
00000210: 71fa 9a3d c5a7 023f e67a 4b3d b664 1d3e
00000220: 97ff 693e ba5b 12bd 1c22 bc3d e7e8 5f3c
00000230: 272a 5abc c253 233e 3029 92bc 1a6e be3e
00000240: f3c8 303e 4017 1cbe 420a 1c3d acf8 bd3c
00000250: 2f91 4b3e e7df e9bb c0da 19bc c31f 3bbd
00000260: 6fba 2d3e d910 903e 4d44 4bbc 2cce c73c
00000270: 4371 553e ae35 75bc 1cda 1c3e 5383 7dbc
00000280: 1344 d43c 3d51 adbc 836c cdbc d067 0a3e
00000290: 2439 ac3d 2fec b339 7f5c 503e 0901 39bc
000002a0: f7fe e9bc fb15 b4ba 577f 6f3e 94d4 0e3e
000002b0: d0dc 273e 7293 a63e 2c01 883c 5588 c33d
000002c0: 4f64 05bf 67da 0c3e f431 a93d addb 32bc
000002d0: 9626 0c3e c517 f43d cc79 723e e38d d63e
000002e0: 53f2 663e 2bfa e63d 58b0 9e3e 32cf 4bbc
000002f0: 7dc3 393d 7c49 c8bc c76f 28bd fc7b 783e
00000300: e249 20bd 4771 993e c053 fcbb b7db 84bc
00000310: 75a8 3f3e 6816 1d3d 4462 c4bc 612a fd3e
00000320: 8db1 d83b 1f72 f83d d24f 143d f65d 053f
00000330: 3342 89bc 235e ba3e f11f 653e cb99 1b3d
00000340: 1df2 6d3e 9462 adbc ae63 24bb 3d3d cc3c
00000350: a61c c33e 0145 00bd a04e d5bc a1f8 6d3e
00000360: 564a babb e78f d6bd f3bc b6bb 41bc 873c
00000370: 2a5e 403d 53a3 7fbc 4c8d 663d bd73 87be
00000380: 2369 233d ba25 1ebd 2b78 1abd ce7a 39bb
00000390: 333d 0f3d 8229 61bc 2513 c7be fb20 4a3e
000003a0: fd05 943c 8113 e5bd 8cb4 f03d a347 c43d
000003b0: bebc 243e ab40 2dbe a5c9 e73d e7b9 303e
000003c0: f021 483d d318 e3bc 1b95 9d3e b421 4a3d
000003d0: 4fcd 123d 0ae8 2239 ed6a 933c 185a 18bf
000003e0: 152f 41bd 702e df3d 7af7 263e b5de a33e
000003f0: e8d7 e23d 991d c7be 4e12 333e 1a53 22be

linear_stack.4.bias f4 [5]
0.16736932 0.18924406 0.34339228 -0.0015205746 -0.020689875
00000000: dd62 2b3e 32c9 413e 1dd1 af3e 044e c7ba
00000010: d07d a9bc
