data/U2_new/model_UAV_3.pth (torch, 660400 bytes, 6 tensors)

linear_stack.0.weight f4 [400, 4]
0.16365112 -0.22296718 0.4525788 -0.19772562 0.031694334 0.30112404 -0.1792408 0.12602477
0.10711738 0.34331635 -0.31313094 -0.4827515 0.2608397 0.22406036 0.537978 0.5826498
-0.1022626 -0.7324514 -0.1755633 -1.1351699 -0.011069798 0.041267727 0.5017202 0.70516956
0.33715287 0.239004 -0.095459945 -0.16596845 0.16128717 -0.40068614 0.49559483 0.7173795
-0.48324025 0.24059187 -1.1700836 -1.2483855 0.06644658 -0.23572755 0.27752018 0.8401112
-0.020862106 0.023133807 0.8673007 -0.09325372 0.19519019 0.6975058 0.2954382 -0.2702723
0.13855726 0.20160952 -0.14984766 -0.524734 0.083335035 -0.043999515 0.5981082 0.27675155
0.24045636 -0.01564173 0.033244763 -0.42046764 -0.20312868 0.37265474 0.6976622 0.8470725
-1.2651663 0.7697419 -0.5877251 2.8749428 0.058380753 0.16917567 0.06678447 1.2359836
0.4282041 0.065949745 0.39463097 0.5889543 -0.14704843 0.39720318 0.1391992 -0.06459322
-0.31205308 -0.08349186 0.1419914 -0.31886256 0.22759333 -0.038605694 0.58458585 0.06454375
-0.2580038 0.5209651 -0.54612845 0.21235713 0.13377981 -0.29862228 0.29779106 -0.30762193
0.21843752 0.2475397 -0.08123627 -0.02484422 -0.19246425 0.4022939 0.05273971 -1.6542066
-0.18503857 0.54825085 0.5042723 -0.23249681 0.5142373 -0.17577536 0.21720222 -0.3551045
0.037054505 0.038846217 -0.15645197 -0.14656964 0.094578706 0.22740082 0.2581019 0.47751915
0.4290519 -0.406749 -0.22107133 -0.021268057 0.11532476 0.19826972 -0.0153835 -0.45712364
-0.115358025 0.5494233 -0.46370545 0.16663334 0.17785846 0.28433794 0.28993428 -0.4619998
-0.06206288 0.13079385 0.022962565 0.5490995 0.07714261 0.4871932 0.38972104 0.2852104
0.11569839 -0.42923424 0.31863126 0.78121316 0.6585882 -0.29231134 0.3059122 0.30155045
0.25042138 0.29676133 0.17959188 0.52842784 -0.41965526 0.33463785 0.6232805 0.45087183
-0.10151014 0.3533163 0.5152376 0.43489134 -0.48434603 -0.38065666 0.20856881 -0.08850491
0.03251107 0.20186725 0.63086855 0.13009274 -0.2523412 -0.29885352 -0.48035967 -0.051148117
-0.5189297 -0.65352166 0.2325056 1.2885795 0.10239554 -0.3755625 0.37933508 0.8589886
0.23037624 0.4946695 -0.1661183 0.2350074 -0.31403476 -0.29666197 -1.4626898 0.2626597
-0.37888697 0.4523491 -0.863943 0.6914724 0.19227846 0.60591924 -0.078361124 0.223034
0.095524736 0.003927591 -0.25348365 -0.28296354 0.23036286 -0.07655275 0.0036131607 0.17143862
0.44227153 0.097898185 -0.34346834 0.5225281 0.37969482 -0.07739765 0.018863415 0.37169424
-0.2821235 0.044025507 0.74847764 0.94082487 -0.24448939 0.56138474 -0.113933936 0.5179422
0.24368265 0.39368817 0.27228022 0.4551758 -0.20003211 -0.28723007 0.33620894 -0.24259079
0.4171283 -0.032839753 -0.22788647 -0.2581949 0.21838233 0.39386392 -0.097264625 -0.18631087
0.090807065 -0.4394041 -0.32199708 0.4629016 -0.051801264 -0.29211962 0.116072536 -0.06580287
-0.26378638 -0.21098804 -0.12483609 -0.34681338 0.43166903 0.30657738 -0.023343619 -0.07946993
00000000: 2994 273e 8251 64be 69b8 e73e 9678 4abe
00000010: ebd1 013d ee2c 9a3e e68a 37be a30c 013e
00000020: 5b60 db3d 29c7 af3e b352 a0be 342b f7be
00000030: c88c 853e 1470 653e edb8 093f 8a28 153f
00000040: 0e6f d1bd ef81 3bbf dec6 33be 3f4d 91bf
00000050: 195e 35bc 5908 293d bc70 003f fe85 343f
00000060: 4d9f ac3e 77bd 743e 8180 c3bd a2f3 29be
00000070: 7728 253e bc26 cdbe 9bbe fd3e 2fa6 373f
00000080: 446b f7be b75d 763e 4dc5 95bf 19cb 9fbf
00000090: 2515 883d 9062 71be 2017 8e3e 8711 573f
000000a0: 02e7 aabc 1c83 bd3c 6b07 5e3f cefb bebd
000000b0: f0df 473e bd8f 323f ad43 973e 2261 8abe
000000c0: f4e1 0d3e ba72 4e3e aa71 19be f854 06bf
000000d0: 8fab aa3d d638 34bd 9e1d 193f 61b2 8d3e
000000e0: 313a 763e 1623 80bc a92b 083d 8947 d7be
000000f0: f700 50be 9acc be3e fd99 323f bed9 583f
00000100: f8f0 a1bf ce0d 453f 2775 16bf 10ff 3740
00000110: a820 6f3d 633c 2d3e 4cc6 883d b634 9e3f
00000120: 913d db3e a910 873d 120d ca3e b6c5 163f
00000130: dd93 16be 375e cb3e 3c8a 0e3e 7349 84bd
00000140: 6cc5 9fbe c8fd aabd 3266 113e f441 a3be
00000150: 3a0e 693e 0121 1ebd 6ba7 153f 832f 843d
00000160: 1319 84be f85d 053f 13cf 0bbf 2674 593e
00000170: 93fd 083e 05e5 98be 1278 983e 9f80 9dbe
00000180: 16ae 5f3e 0c7b 7d3e 345f a6bd 1b86 cbbc
00000190: 5915 45be 77f9 cd3e 9805 583d 0bbd d3bf
000001a0: c07a 3dbe 2b5a 0c3f fd17 013f a513 6ebe
000001b0: 0ea5 033f 75fe 33be 426a 5e3e 42d0 b5be
000001c0: 77c6 173d 361d 1f3d f234 20be 5a16 16be
000001d0: 7bb2 c13d c3db 683e ef25 843e 647d f43e
000001e0: b1ac db3e 6841 d0be 8660 62be 593a aebc
000001f0: 632f ec3d 3807 4b3e 130b 7cbc 1c0c eabe
00000200: d440 ecbd 01a7 0c3f cd6a edbe eea1 2a3e
00000210: 8720 363e be94 913e 4472 943e 3d8b ecbe
00000220: a535 7ebd d3ee 053e fd1b bc3c c991 0c3f
00000230: f2fc 9d3d 6371 f93e 8489 c73e 1907 923e
00000240: 47f3 ec3d 97c4 dbbe a323 a33e 96fd 473f
00000250: 3c99 283f d5a9 95be 86a0 9c3e d264 9a3e
00000260: 3b37 803e 1af1 973e efe6 373e 0c47 073f
00000270: 0edd d6be a755 ab3e 508f 1f3f acd8 e63e
00000280: 8ce4 cfbd e0e5 b43e 9de6 033f 14aa de3e
00000290: 34fc f7be 6ee5 c2be 1093 553e 1042 b5bd
000002a0: 542a 053d 4ab6 4e3e 9a80 213f 0837 053e
000002b0: de32 81be 5403 99be b4f1 f5be b080 51bd
000002c0: 94d8 04bf 324d 27bf f315 6e3e 2cf0 a43f
000002d0: c1b4 d13d ba49 c0be 3538 c23e ade6 5b3f
000002e0: c0e7 6b3e 5245 fd3e ea1a 2abe c8a5 703e
000002f0: 2ac9 a0be 14e4 97be 6b39 bbbf 557b 863e
00000300: 79fd c1be 4d9a e73e 5e2b 5dbf 5604 313f
00000310: a5e4 443e 861d 1b3f cc7b a0bd 0663 643e
00000320: 79a2 c33d 05b3 803b 9cc8 81be 99e0 90be
00000330: 3ee4 6b3e b0c7 9cbd c7ca 6c3b 9b8d 2f3e
00000340: 6a71 e23e d87e c83d 15db afbe 67c4 053f
00000350: 5c67 c23e a982 9ebd 7387 9a3c b54e be3e
00000360: 7e72 90be 1754 343d 3b9c 3f3f e6d9 703f
00000370: 6d5b 7abe e9b6 0f3f 3256 e9bd dc97 043f
00000380: f287 793e 7f91 c93e 5068 8b3e cd0c e93e
00000390: 38d5 4cbe d20f 93be 9423 ac3e b869 78be
000003a0: d791 d53e fa82 06bd 125b 69be 1f32 84be
000003b0: 9e9f 5f3e 88a8 c93e ad32 c7bd 47c8 3ebe
000003c0: 0ef9 b93d 93f9 e0be cddc a4be 7001 ed3e
000003d0: 902d 54bd b490 95be 70b7 ed3d a8c3 86bd
000003e0: 020f 87be 400d 58be 10aa ffbd 8691 b1be
000003f0: b903 dd3e b6f7 9c3e 1e3b bfbc 21c1 a2bd

linear_stack.0.bias f4 [400]
-0.5444278 -0.39797854 0.4697886 0.6940472 0.72044736 -0.3715676 0.5725032 -0.42572653
0.024154197 -0.4819434 -0.12964289 0.807147 0.3385033 -0.5541628 -0.04435789 0.1763616
-0.0012430304 0.45700106 0.31196404 -0.03439049 -0.007429239 0.56823015 0.72556067 -0.5539095
0.2699608 0.16235687 -0.15191586 0.6234436 -0.17703962 -0.6289003 0.74189895 0.3654508
-0.031459954 0.40648976 -0.072738886 -0.21070522 -0.42122304 0.6875779 0.44486672 0.34980404
-0.054468215 -0.24476111 -0.570823 -0.28924215 0.4830253 -0.39264333 0.6688691 0.61529
0.36071017 0.6284238 -0.30421093 0.31529978 0.5064648 0.31132898 0.6352887 -0.014624641
0.56339425 -0.34681964 0.47412366 0.49166244 0.6083205 -0.32106268 -0.2277689 0.63949907
-0.48011297 0.11508673 -0.039095853 0.814471 0.76641035 -0.5438961 1.0584742 0.7669701
0.63311356 0.5130392 0.6612701 -0.044908836 0.69155866 -0.09761888 0.616142 0.5991969
-0.4015526 -0.047215953 -0.34044158 0.4833344 -0.3729528 -0.13012385 0.38501278 0.61841166
0.32494175 0.29560727 0.30809343 0.4316356 0.31541649 0.018016068 0.30767748 0.4604212
0.63950104 0.27311796 -0.52409494 0.18409158 0.42816082 0.5080717 0.9543753 0.47398007
-0.3207371 -0.229667 -0.07872085 -0.52707976 -0.4673128 0.49432805 -0.65902925 0.36592188
0.10512553 -0.17224938 0.7285513 0.46355784 0.35206217 -0.121721216 -0.49456173 -0.45083398
-0.09784714 -0.50618315 -0.43804514 -0.2740833 0.74532473 0.41078842 -0.3466165 0.1260819
0.24868387 -0.77576137 -0.6496655 -0.48006165 -0.39897686 0.4932465 -0.12976146 0.15473397
-0.24927372 0.7211162 0.3633402 -0.35187003 -0.33870512 -0.00074443506 -0.46827203 -0.25065482
0.54894274 -0.6754134 0.4629354 0.37398046 0.39113668 0.44420862 0.91631335 0.2088466
-0.5459358 0.74741 -0.15954824 -0.634909 0.432383 0.1316583 -0.13660276 -0.00065143284
0.5717655 0.7280133 0.66387296 0.8133754 -0.55793357 0.38961336 -0.27243072 -0.41861904
0.22979625 0.3754613 0.56317675 -0.60866225 0.0033999016 0.52808255 -0.036273297 -0.12858903
-0.2992156 -0.11069605 0.30095407 -0.27896354 -0.59624213 0.11184469 -0.23802191 -0.29478082
-0.14246053 -0.23744482 0.4846164 0.4426841 -0.02235359 0.2780654 -0.6116344 -0.44103003
0.30488488 0.59393567 0.71799886 -0.007767558 -0.46138096 0.80047107 0.701524 0.8369667
0.8054388 -0.046491742 -0.40162677 0.20179178 -0.44999522 -0.57505167 0.061782584 0.37692893
-0.2081156 -0.19698572 0.35719296 0.4410151 -0.21000466 0.7270451 0.6777489 0.8158959
-0.03233856 0.75053394 0.7254919 -0.52274907 0.9188319 -0.37830663 0.030064985 -0.16431576
-0.0104925595 0.74748415 0.46055722 0.8086182 0.37006468 -0.09060368 -0.784004 -0.22675918
0.62727356 0.48676768 -0.3760227 -0.49667087 0.4287272 -0.0829981 0.37330508 -0.30673596
0.39190292 -0.3576388 -0.11504636 0.7806999 0.4768807 -0.6151414 -0.69244426 0.449548
0.0436372 0.57770926 0.3852305 -0.2277556 0.30583724 0.18231337 0.9096493 0.49184507
00000000: 9f5f 0bbf d8c3 cbbe 2288 f03e 14ad 313f
00000010: 3d6f 383f 1c3e bebe 928f 123f d4f8 d9be
00000020: 06df c53c 49c1 f6be 1bc1 04be 30a1 4e3f
00000030: 4e50 ad3e 9ddd 0dbf 9eb0 35bd 2398 343e
00000040: 2eed a2ba 0bfc e93e c0b9 9f3e 0bdd 0cbd
00000050: f970 f3bb 8877 113f 58be 393f 03cd 0dbf
00000060: 4d38 8a3e e140 263e d58f 1bbe 009a 1f3f
00000070: e049 35be 9cff 20bf 17ed 3d3f 5e1c bb3e
00000080: 27dc 00bd 6d1f d03e 20f8 94bd 1cc3 57be
00000090: 8caa d7be 1b05 303f 92c5 e33e 8419 b33e
000000a0: 101a 5fbd a8a2 7abe 7521 12bf 8c17 94be
000000b0: 184f f73e 8c08 c9be 013b 2b3f a583 1d3f
000000c0: 01af b83e 62e0 203f 89c1 9bbe f96e a13e
000000d0: ada7 013f 8366 9f3e 48a2 223f 319c 6fbc
000000e0: 9b3a 103f 5892 b1be 56c0 f23e 2ebb fb3e
000000f0: e4ba 1b3f 5462 a4be 403c 69be 36b6 233f
00000100: 5ed1 f5be 97b2 eb3d f922 20bd 2c81 503f
00000110: 7833 443f c63c 0bbf 157c 873f 2758 443f
00000120: bb13 223f 8956 033f ff48 293f 54f2 37bd
00000130: fd09 313f 68ec c7bd 7bbb 1d3f f864 193f
00000140: 4d98 cdbe 8465 41bd 5c4e aebe 9b77 f73e
00000150: abf3 bebe 303f 05be 6520 c53e 3a50 1e3f
00000160: c45e a63e d659 973e 6cbe 9d3e 57ff dc3e
00000170: 457e a13e 6f96 933c e787 9d3e 54bc eb3e
00000180: 57b6 233f 1ed6 8b3e 162b 06bf 8182 3c3e
00000190: e537 db3e fd10 023f f151 743f 84ad f23e
000001a0: a737 a4be d32d 6bbe 6638 a1bd b3ee 06bf
000001b0: a043 efbe 9118 fd3e 24b6 28bf 1d5a bb3e
000001c0: 0e4c d73d 2462 30be 5782 3a3f 7457 ed3e
000001d0: 7e41 b43e f948 f9bd 3237 fdbe b6d3 e6be
000001e0: 1564 c8bd 3895 01bf 7447 e0be a554 8cbe
000001f0: 9acd 3e3f dc52 d23e b877 b1be 9d1b 013e
00000200: fca6 7e3e 4c98 46bf 7a50 26bf a4ca f5be
00000210: b246 ccbe ce8a fc3e 30e0 04be 9572 1e3e
00000220: 9c41 7fbe 129b 383f ba07 ba3e 4f28 b4be
00000230: c26a adbe 3126 43ba 5ac1 efbe d455 80be
00000240: 8387 0c3f e5e7 2cbf de05 ed3e 5e7a bf3e
00000250: 1143 c83e 506f e33e 8393 6a3f e2db 553e
00000260: 73c2 0bbf 4356 3f3f 9d60 23be 6589 22bf
00000270: 4e61 dd3e 6fd1 063e 98e1 0bbe ebc4 2aba
00000280: 395f 123f 145f 3a3f 94f3 293f 5f39 503f
00000290: bcd4 0ebf 677b c73e 0a7c 8bbe 3c55 d6be
000002a0: b54f 6b3e 773c c03e 5a2c 103f 4ad1 1bbf
000002b0: e2d0 5e3b 6b30 073f 4f93 14bd d8ac 03be
000002c0: ca32 99be 9cb4 e2bd a716 9a3e 4fd4 8ebe
000002d0: 53a3 18bf d40e e53d 04bc 73be 83ed 96be
000002e0: 2ce1 11be bc24 73be a41f f83e 7ea7 e23e
000002f0: e01e b7bc 975e 8e3e 1294 1cbf b0ce e1be
00000300: df19 9c3e 2b0c 183f c6ce 373f 0087 febb
00000310: 203a ecbe aceb 4c3f 1497 333f 7343 563f
00000320: 3d31 4e3f 206e 3ebd 06a2 cdbe 81a2 4e3e
00000330: c665 e6be 9636 13bf bc0f 7d3d d4fc c03e
00000340: 411c 55be a0b6 49be ffe1 b63e bbcc e13e
00000350: 760b 57be a11f 3a3f f480 2d3f 8ede 503f
00000360: 7075 04bd fe22 403f d6b9 393f e2d2 05bf
00000370: 9138 6b3f 68b1 c1be d84a f63c 6442 28be
00000380: fce8 2bbc 1f5b 3f3f 28ce eb3e 9a01 4f3f
00000390: 1e79 bd3e 6c8e b9bd 7cb4 48bf 8f33 68be
000003a0: 0095 203f 9d39 f93e 0c86 c0be a54b febe
000003b0: 2282 db3e e8fa a9bd d821 bf3e 7f0c 9dbe
000003c0: 80a7 c83e 6f1c b7be 6d9d ebbd f3db 473f
000003d0: b529 f43e e879 1dbf 0744 31bf 282b e63e
000003e0: ecbc 323d c1e4 133f ef3c c53e c438 69be
000003f0: b396 9c3e 5bb0 3a3e c7de 683f 1ed3 fb3e

linear_stack.2.weight f4 [400, 400]
-0.053758707 -0.11062425 0.06617534 0.08448681 -0.26899666 -0.103535 -0.016930182 -0.0126134595
-0.29479507 -0.037643876 -0.1285024 0.19166495 -0.029985204 -0.05276892 -0.08383014 -0.09466409
0.1883979 0.36934683 -0.0016347448 -0.040507693 0.04527857 0.112393826 0.15291055 -0.15365244
0.0028361627 0.11294934 -0.07816051 0.029906636 0.3430714 -0.14508717 0.12553065 0.034575704
0.22634909 0.005843664 0.020645054 -0.04139092 -0.03434095 -0.006721583 0.009096874 -0.014082221
-0.016430818 -0.029058183 -0.15102702 -0.046861976 -0.3889837 -0.025506511 0.11548005 -0.15077145
0.09846735 0.085591845 -0.11672197 -0.03526905 0.044752184 0.0014019888 -0.14210054 0.1912346
0.014852981 0.017723626 0.010054556 0.02154792 0.3023999 0.010007912 0.011175352 0.059044845
0.0039803567 -0.0114652 0.83345383 -0.0078082588 -0.023418507 -0.12939923 0.24667066 0.22950275
-0.3684083 0.058841776 0.03986469 -0.03810495 -0.12999333 -0.0018884361 0.002795599 -0.407084
-0.03263975 0.012040225 0.047408886 0.0009242932 -0.10239714 -0.0054431143 0.04160546 -0.17332149
-0.02934703 0.056621227 -0.010438994 -0.086482614 0.05927399 0.11420505 0.055158764 0.25052023
-0.097630665 0.13913475 -0.10350425 0.08524714 0.0448473 0.0008541996 0.20342302 0.102126926
0.16894467 0.11434463 -0.18814386 -0.026546545 -0.10347764 -0.13005963 -0.21467571 0.8188154
0.011641045 -0.08424096 0.025365911 0.017687608 0.10372154 0.026326314 -0.0070020854 -0.1412317
-0.21266975 -0.20451915 -0.019740237 0.088124625 0.084506944 0.084905975 0.008624357 -0.07328967
0.07060032 -0.119903944 -0.095719114 0.04523855 -0.048418127 0.07270673 0.047288354 -0.33089674
0.045440555 0.08919438 0.12986425 -0.0370515 -0.021272898 -0.39817828 0.4638388 -0.02099607
-0.011108435 -0.13579881 0.023825036 0.049606297 -0.002024157 -0.24955358 0.20986788 -0.045842994
-0.04146151 0.6586735 -0.06981891 -0.07375374 0.015004379 -0.03432542 0.002592262 -0.29864332
-0.28654772 0.007982462 -0.0104541695 -0.0079343915 0.037125275 0.003025778 -0.010457951 0.04656849
-0.04523672 -0.529437 -0.035663664 -0.08728626 -0.075736985 -0.47176298 0.039357036 -0.025754148
0.027034964 -0.055240083 -0.023315633 -3.4505439 -0.09610249 -0.046488814 -0.007529211 -0.055522442
-0.0064186873 0.013233143 -0.05003402 0.015042436 0.02360431 -0.0057303417 -0.03361581 -0.18897866
-0.043333873 0.21856573 -0.009660105 -0.018789906 -0.104949445 -0.4270202 0.20049159 -0.43245912
0.23497315 -0.038771953 4.399419e-05 0.031438407 0.019871755 0.30415425 -0.03788978 -0.5122893
-0.03194841 0.03953531 0.0459687 -0.022459082 -0.03150166 0.12535514 -0.30674344 0.14595427
0.016737932 0.045997567 0.3663782 -0.042016994 0.14140493 -0.012251377 -0.019857831 0.0103993
-0.015117106 -0.37576064 -0.036441155 0.04893831 0.28597325 0.00034359412 -0.12534194 -0.06594698
0.03568601 -0.0041211927 0.046188395 -0.037870456 0.11932196 -0.02366658 -0.015448087 -0.06571139
0.036480546 0.012119502 -0.06749025 0.15076339 0.057214458 -0.0027955193 0.24842289 -0.04995413
0.021219134 0.111710496 0.18501058 -0.014543724 0.004157092 -0.010424489 0.1524684 -0.03086256
00000000: 1732 5cbd f78e e2bd f086 873d 6c07 ad3d
00000010: eeb9 89be 280a d4bd 2ab1 8abc afa8 4ebc
00000020: 61ef 96be 7730 1abd 2296 03be d143 443e
00000030: 88a3 f5bc 3924 58bd 23af abbd 3fdf c1bd
00000040: 61eb 403e 071b bd3e ef44 d6ba 65eb 25bd
00000050: 0676 393d bc2e e63d 9594 1c3e 1157 1dbe
00000060: eade 393b fc51 e73d 9e12 a0bd c3fe f43c
00000070: 0ea7 af3e bb91 14be 1b8b 003e 419f 0d3d
00000080: 0ec8 673e 357c bf3b d11f a93c 8689 29bd
00000090: 19a9 0cbd ba40 dcbb 0e0b 153c 1eb9 66bc
000000a0: ec99 86bc 6d0b eebc d4a6 1abe 58f2 3fbd
000000b0: df28 c7be 08f3 d0bc ce80 ec3d d563 1abe
000000c0: 40a9 c93d c74a af3d ee0b efbd 4876 10bd
000000d0: 114e 373d f0c2 b73a ce82 11be 01d3 433e
000000e0: eb59 733c 2331 913c ddbb 243c 4385 b03c
000000f0: 29d4 9a3e 3af8 233c d318 373c 02d9 713d
00000100: a76d 823b 89d8 3bbc 3b5d 553f 6cdc ffbb
00000110: 2bd8 bfbc 3b81 04be 3c97 7c3e c502 6b3e
00000120: 03a0 bcbe 1304 713d 2849 233d f013 1cbd
00000130: f91c 05be 6785 f7ba 5e36 373b 506d d0be
00000140: 42b1 05bd 5d44 453c d22f 423d 444c 723a
00000150: 97b5 d1bd 275c b2bb 7d6a 2a3d 307b 31be
00000160: 2f69 f0bc a9eb 673d 5008 2bbc cc1d b1bd
00000170: 49c9 723d 56e4 e93d 28ee 613d 3044 803e
00000180: 96f2 c7bd 5779 0e3e 09fa d3bd 0d96 ae3d
00000190: cdb1 373d 5dec 5f3a 204e 503e ec27 d13d
000001a0: d5ff 2c3e 842d ea3d c9a8 40be 2478 d9bc
000001b0: 16ec d3bd 5a2e 05be f3d3 5bbe e39d 513f
000001c0: 15ba 3e3c 8686 acbd 2ccc cf3c 9ae5 903c
000001d0: f56b d43d 48aa d73c c071 e5bb 0b9f 10be
000001e0: 19c6 59be 786d 51be 47b6 a1bc af7a b43d
000001f0: fa11 ad3d 2fe3 ad3d 2d4d 0d3c e518 96bd
00000200: e796 903d 3390 f5bd 6208 c4bd 0f4c 393d
00000210: 1652 46bd 44e7 943d 6fb1 413d 4c6b a9be
00000220: e01f 3a3d 8bab b63d 22fb 043e 50c3 17bd
00000230: 8044 aebc 06de cbbe 477c ed3e f3ff abbc
00000240: 2700 36bc d80e 0bbe b92c c33c f92f 4b3d
00000250: b8a7 04bb f98a 7fbe 9be7 563e ddc5 3bbd
00000260: 8bd3 29bd d49e 283f 37fd 8ebd 330c 97bd
00000270: edd4 753c d098 0cbd f1e2 293b c7e7 98be
00000280: 62b6 92be dfc8 023c f747 2bbc 40ff 01bc
00000290: ac10 183d 224c 463b d357 2bbc 9abe 3e3d
000002a0: 244a 39bd 2f89 07bf 1014 12bd 24c3 b2bd
000002b0: fe1b 9bbd eb8a f1be d834 213d 5dfa d2bc
000002c0: 6e78 dd3c 6d43 62bd 6d00 bfbc b6d5 5cc0
000002d0: 62d1 c4bd 0e6b 3ebd 9ab7 f6bb 806b 63bd
000002e0: da53 d2bb d3cf 583c 79f0 4cbd 8d74 763c
000002f0: d35d c13c 97c5 bbbb bbb0 09bd 9f83 41be
00000300: dc7e 31bd b2cf 5f3e 6b45 1ebc 4aed 99bc
00000310: bcef d6bd 64a2 dabe ab4d 4d3e 486b ddbe
00000320: cd9c 703e 57cf 1ebd 6786 3838 8fc5 003d
00000330: 17ca a23c 1bba 9b3e 5032 1bbd 6425 03bf
00000340: 56dc 02bd c7ef 213d ad49 3c3d 1cfc b7bc
00000350: e207 01bd 195d 003e 7a0d 9dbe 0975 153e
00000360: fd1d 893c f267 3c3d ec95 bb3e 031a 2cbd
00000370: 74cc 103e 00ba 48bc e4ac a2bc d361 2a3c
00000380: bdad 77bc b363 c0be 5243 15bd 8a73 483d
00000390: 166b 923e 6c24 b439 a359 00be 360f 87bd
000003a0: 7e2b 123d 120b 87bb 0b30 3d3d 0d1e 1bbd
000003b0: 125f f43d 6ae0 c1bc f919 7dbc b193 86bd
000003c0: a06c 153d e090 463c 5438 8abd b861 1a3e
000003d0: b559 6a3d 0835 37bb 9262 7e3e b49c 4cbd
000003e0: c0d3 ad3c 79c8 e43d 6a73 3d3e cd48 6ebc
000003f0: 3738 883b 7acb 2abc ad20 1c3e 7bd3 fcbc

linear_stack.2.bias f4 [400]
0.15283763 0.1529908 0.090022594 0.15575683 -0.20996276 0.1610836 0.24824455 0.10768616
0.2173666 0.17546439 0.11734853 0.00942972 0.23995125 0.02958929 0.038916215 0.0027163506
0.16399942 0.15648545 0.017370373 0.2679991 0.038177673 -0.04431732 -0.007746249 0.3424873
0.04385441 0.0014705827 0.22234946 -0.048025656 -0.054034196 0.019916112 -0.014534163 -0.03841212
0.19876409 0.20682546 0.2066501 0.15897408 0.2165475 0.18080476 0.20203593 0.24491186
0.18467249 0.15561071 -0.08434566 0.21198261 0.20556068 -0.045094844 0.14830425 -8.4102154e-05
0.020486059 0.22667599 0.008379493 -0.04321878 -0.04170007 0.24862923 -0.10802074 0.13044505
0.25374433 0.21158092 0.16408396 0.16140023 0.2225684 -0.017699132 0.0035906339 0.24002823
-0.012408474 0.22428192 0.16154164 0.19035342 0.009328807 0.16021325 -0.003763095 0.19563057
-0.19365272 -0.03123999 -0.024430286 0.1818684 0.16314915 0.030155908 0.16523558 0.19890098
0.20927234 -0.049744666 -0.033520963 0.18940216 0.22291839 0.24986258 0.37839556 0.24133836
0.10689149 0.21667169 0.14997682 0.07494584 0.029696196 -0.04083356 0.14214462 0.20195006
0.18438825 0.21494809 0.16616076 0.17788523 -0.0046832426 0.040024128 -0.0023300787 0.044794142
0.00017026342 0.26023182 0.012352559 -0.045655277 -0.11050285 0.18294527 -0.029146178 -0.025036562
0.099101305 0.17796332 0.08287169 0.017570281 0.11113484 0.22498207 0.018418722 0.12144546
0.020224333 0.17677222 -0.0317806 0.22539982 0.10984894 0.1838118 -0.04448527 -0.06041209
-0.06159058 0.009279174 0.24349108 0.14494856 0.1629335 0.2314419 0.1605604 -0.013586285
-0.16872153 0.14359635 0.11797112 0.014562916 -0.037270132 -0.029640768 0.18682486 -0.054380707
-0.036837008 0.018480217 0.28456968 0.19167703 0.17555372 -0.02349171 0.029027198 0.20947653
0.11674699 0.1753514 -0.043261975 0.17185585 0.16341785 -0.09491291 0.23273925 0.20141667
-0.028354943 -0.0379631 -0.05161105 -0.05612459 0.19803938 0.16134983 -0.019831892 -0.04366151
0.054446362 0.047570396 -0.015516812 0.040637057 0.0064361217 0.20871635 0.15492685 -0.02366553
0.19589244 0.10813655 0.26998734 0.0014961184 0.11864293 0.028228689 0.2549813 -0.15223776
0.17403714 0.25329134 0.04442611 0.031824064 0.030592361 0.22392489 -0.020768484 0.1555158
-0.14230238 0.1785778 -0.019529289 0.21826 0.0055110217 -0.0076538958 -0.04522022 -0.04371165
0.20607787 0.011707546 0.012008625 0.10429658 -0.0011460942 0.054915357 0.03775943 0.25202283
0.09517835 0.235412 0.19762807 0.0076336544 0.23886631 0.018848348 0.13819131 0.14700067
0.01597126 0.22231752 0.19768566 0.29010952 0.20494427 -0.03851977 -0.04745965 0.027084306
-0.14207235 0.14767253 0.04727707 -0.045110412 0.005888287 0.15809141 -0.016188378 -0.044566415
0.21330816 0.15408365 -0.014811625 0.16952507 0.21848129 0.21970601 -0.17299622 0.08761091
0.21963008 0.13991301 -0.032364696 0.012963313 0.22933865 0.12479124 -0.039497204 -0.027172714
-0.015950942 0.12985489 0.19840775 0.011152411 0.28213277 0.109393 -0.089977205 0.18373153
00000000: 7881 1c3e 9fa9 1c3e c45d b83d b87e 1f3e
00000010: 7a00 57be 19f3 243e d233 7e3e 908a dc3d
00000020: 5a95 5e3e f0ac 333e 6d54 f03d 1d7f 1a3c
00000030: c8b5 753e 3d65 f23c 9c66 1f3d cd04 323b
00000040: 77ef 273e b93d 203e 504c 8e3c 2e37 893e
00000050: 3160 1c3d 1486 35bd 3fd4 fdbb 7f5a af3e
00000060: afa0 333d 91c0 c03a 94af 633e 8db6 44bd
00000070: f652 5dbd 1d27 a33c b320 6ebc 0756 1dbd
00000080: d088 4b3e 0eca 533e 159c 533e 1aca 223e
00000090: a1be 5d3e e224 393e 82e2 4e3e 2dca 7a3e
000000a0: c91a 3d3e 6a58 1f3e 6bbd acbd f811 593e
000000b0: 807e 523e 5fb5 38bd 12dd 173e 0060 b0b8
000000c0: 61d2 a73c c01d 683e 244a 093c 2d06 31bd
000000d0: b1cd 2abd a998 7e3e fa39 ddbd 6393 053e
000000e0: c7ea 813e aba8 583e a005 283e 1a46 253e
000000f0: f8e8 633e c5fd 90bc d750 6b3b f6c9 753e
00000100: ea4c 4bbc 29aa 653e 2c6b 253e 02ec 423e
00000110: dad7 183c f10e 243e 429e 76bb 6153 483e
00000120: e64c 46be 02eb ffbc 0622 c8bc b63b 3a3e
00000130: 9210 273e 8609 f73c 8433 293e b3ac 4b3e
00000140: 7d4b 563e 10c1 4bbd 474d 09bd a4f2 413e
00000150: b844 643e fadb 7f3e 10bd c13e 6721 773e
00000160: ede9 da3d 2fdf 5d3e 8693 193e 347d 993d
00000170: 7045 f33c 1741 27bd 5c8e 113e ffcb 4e3e
00000180: 46d0 3c3e 5a1b 5c3e 0c26 2a3e 8c27 363e
00000190: e375 99bb 57f0 233d 3cb4 18bb 107a 373d
000001a0: bd88 3239 1b3d 853e 6362 4a3c 0701 3bbd
000001b0: 514f e2bd 0156 3b3e f7c3 eebc 7a19 cdbc
000001c0: a0f5 ca3d 043c 363e a2b8 a93d 8def 8f3c
000001d0: aa9a e33d b361 663e dce2 963c 66b8 f83d
000001e0: 80ad a53c c703 353e 602c 02bd 36cf 663e
000001f0: 7bf8 e03d 2939 3c3e 3036 36bd ab72 77bd
00000200: 6746 7cbd ad07 183c ba55 793e 656d 143e
00000210: 0ad8 263e 1bff 6c3e f269 243e 0299 5ebc
00000220: 56c5 2cbe ec0a 133e d89a f13d 4c99 6e3c
00000230: 91a8 18bd 32d1 f2bc 044f 3f3e 4ebe 5ebd
00000240: 67e2 16bd d363 973c 1eb3 913e fc46 443e
00000250: 5bc4 333e b071 c0bc 72ca ed3c 0481 563e
00000260: 0c19 ef3d 518f 333e 7833 31bd fbfa 2f3e
00000270: 0257 273e b361 c2bd 3353 6e3e 2c40 4e3e
00000280: a048 e8bc 327f 1bbd 1c66 53bd e6e2 65bd
00000290: d6ca 4a3e e438 253e 7e76 a2bc 69d6 32bd
000002a0: 2603 5f3d 2dd9 423d 3a3a 7ebc 0b73 263d
000002b0: 1ae6 d23b bdb9 553e 25a5 1e3e 37de c1bc
000002c0: 0798 483e b276 dd3d c83b 8a3e 6719 c43a
000002d0: 11fb f23d da3f e73c e98c 823e 37e4 1bbe
000002e0: cb36 323e 67af 813e 27f8 353d f359 023d
000002f0: d59c fa3c 914c 653e ab22 aabc 893f 1f3e
00000300: b7b7 11be 19dd 363e e3fb 9fbc 8d7f 5f3e
00000310: cd95 b43b 88cd fabb d638 39bd fd0a 33bd
00000320: 1406 533e 02d1 3f3c d3bf 443c 7299 d53d
00000330: 8a38 96ba edee 603d a2a9 1a3d 2309 813e
00000340: deec c23d d80f 713e 035f 4a3e bc23 fa3b
00000350: 5f99 743e da67 9a3c 0682 0d3e 5887 163e
00000360: 29d6 823c 34a7 633e 1c6e 4a3e 3c89 943e
00000370: e9dc 513e e8c6 1dbd 0d65 42bd e8df dd3c
00000380: 6a7b 11be 7837 173e 9aa5 413d b2c5 38bd
00000390: 88f2 c03b b7e2 213e 7d9d 84bc 468b 36bd
000003a0: 746d 5a3e 1bc8 1d3e 75ac 72bc fb97 2d3e
000003b0: 8fb9 5f3e 9dfa 603e ec25 31be 596d b33d
000003c0: b5e6 603e 5b45 0f3e d890 04bd 1364 543c
000003d0: c0d7 6a3e 8d92 ff3d d2c7 21bd 5099 debc
000003e0: 8dab 82bc aef8 043e 672b 4b3e 9ab8 363c
000003f0: b573 903e 7009 e03d f845 b8bd 1e24 3c3e

linear_stack.4.weight f4 [5, 400]
0.27852783 0.17355451 0.14402746 0.2228913 -0.23145558 0.2242119 0.19166628 0.1735657
-0.019856172 0.021534937 0.11634378 -0.0050570425 0.32435945 0.021614915 -0.010150918 -0.035864152
0.0138194095 0.516008 0.40568063 0.36182734 0.044784352 0.0475671 0.0004468816 -0.55710495
-0.008759707 -0.024648547 0.23745197 0.01193353 -0.033825222 0.040052887 0.036705654 -0.049299236
0.20657155 0.27049774 0.14647436 0.14338866 0.14068936 0.22993714 0.2258738 0.3292941
0.18798794 0.165141 -0.12917653 0.21786958 0.20483717 0.023655046 0.4981441 0.04336223
0.044500962 0.21310467 0.010268389 0.005851502 0.0108125275 0.19410829 -0.15561509 0.12897705
0.29177162 0.21565075 0.153872 -0.029030673 0.19978677 -0.03222003 -0.019539598 0.2520048
-0.01149628 0.15796754 0.25043115 -0.04038497 0.016698617 0.14724968 -0.013511018 0.15731837
-0.12762664 0.043366708 0.036998536 0.1408327 0.19869973 -0.03475841 0.22889122 0.18122287
0.26384237 0.015395405 -0.018465642 0.21990399 0.31645823 0.21378078 -0.41877285 0.22520688
0.16548899 -0.22781421 0.20189303 0.22434528 0.0073742988 -0.009448892 0.28905785 0.21488215
0.18251161 -0.20910096 0.052466165 0.1799537 -0.03698252 -0.004654058 -0.016933903 -0.030796444
-0.03648811 0.2932891 -0.023356138 0.023606908 -0.12735228 0.115896 0.023638314 -0.033328164
0.13263129 0.11150275 0.057196263 -0.057483107 0.15955114 0.08234705 0.010397463 0.11723806
-0.023903538 0.3130923 -0.035005808 0.20869377 0.29377958 0.16225044 0.027891785 0.04348092
-0.019974502 0.0039313138 0.29914203 0.3443578 0.14943321 0.17504016 0.3191153 -0.03453814
-0.10261432 0.116795376 0.11446283 -0.037003297 -0.04203632 0.040730592 0.23248142 -0.01299768
0.013668576 0.03681484 0.35944614 -0.15809703 0.20383738 -0.021070994 0.03896874 0.2807991
0.19601327 0.18309948 -0.045527466 0.40552697 0.2171501 -0.28316945 0.29340807 0.14549242
0.04401308 -0.031111298 -0.0049487078 4.3967204e-05 0.2817015 0.18868645 -0.031715337 -0.003078145
0.019844199 0.006850766 -0.008558506 -0.031862207 0.04234295 0.16859895 0.17998835 0.03839014
0.31696498 0.085752524 0.20581497 0.0028249563 0.27551115 0.012009666 0.268524 -0.21075916
0.32146725 0.20463017 0.011165696 0.006032936 0.0030329046 0.0024671287 0.01147245 0.19983625
-0.1354111 0.21219106 0.010903895 0.25191516 -0.042453714 -0.04308181 -0.0266564 0.04309508
0.3002539 0.00981611 -0.033245027 0.099236086 -0.025033997 -0.049402125 0.01778928 0.20308115
0.19528104 0.03782369 0.17603242 0.04068027 0.20240285 -0.024377013 0.17639191 0.15711254
-0.021036692 0.18894789 0.011981104 0.34675473 0.074650034 -0.003651253 0.008364437 -0.033359606
-0.1859484 0.26872626 -0.026750702 0.04174277 0.006802618 0.24384682 -0.03509892 0.037314594
0.2962106 0.13654271 -0.006523013 0.30252475 0.20927195 0.32917577 -0.3796891 0.09442843
0.22488368 -0.08977996 -0.0010333372 -0.037762035 0.22194684 -0.26021424 0.012784749 0.0061129034
-0.020068998 0.18418737 0.16753393 -0.030544592 0.31723565 0.17034969 -0.07024844 0.24178268
00000000: 339b 8e3e 46b8 313e ef7b 133e 9e3d 643e
00000010: b102 6dbe ce97 653e 2a44 443e 35bb 313e
00000020: 69a9 a2bc 096a b03c a645 ee3d 8cb5 a5bb
00000030: 7112 a63e c311 b13c 0950 26bc 4ae6 12bd
00000040: ce6a 623c 1a19 043f 5fb5 cf3e 6f41 b93e
00000050: cc6f 373d b8d5 423d 6f4b ea39 6e9e 0ebf
00000060: e084 0fbc c0eb c9bc 9c26 733e da84 433c
00000070: 518c 0abd 7f0e 243d ab58 163d ffed 49bd
00000080: 7e87 533e ae7e 8a3e 60fd 153e 7ad4 123e
00000090: df10 103e a474 6b3e 764b 673e 3c99 a83e
000000a0: e97f 403e b91a 293e da46 04be 3419 5f3e
000000b0: d6c0 513e 3ac8 c13c be0c ff3e 989c 313d
000000c0: a446 363d 1c38 5a3e bf3c 283c f5bd bf3b
000000d0: 0727 313c 53c4 463e 9059 1fbe 8f12 043e
000000e0: 1763 953e 8dd3 5c3e 9f90 1d3e bcd1 edbc
000000f0: e794 4c3e 26f9 03bd 8211 a0bc c606 813e
00000100: e55a 3cbc 3ec2 213e 8338 803e b66a 25bd
00000110: 8acb 883c 9fc8 163e 515d 5dbc 1118 213e
00000120: 8fb0 02be 4aa1 313d c78b 173d 7336 103e
00000130: f177 4b3e d65e 0ebd 7662 6a3e 7d92 393e
00000140: 5916 873e 023d 7c3c 4245 97bc 832e 613e
00000150: d006 a23e 59e9 5a3e 6569 d6be a29c 663e
00000160: f275 293e 2148 69be 0cbd 4e3e c5ba 653e
00000170: 1aa4 f13b 87cf 1abc 64ff 933e 110a 5c3e
00000180: 53e4 3a3e 901e 56be c3e6 563d c845 383e
00000190: fc7a 17bd 1181 98bb f8b8 8abc d348 fcbc
000001a0: 8e74 15bd fd29 963e 5f55 bfbc 4663 c13c
000001b0: a368 02be e25a ed3d 23a5 c13c 1d83 08bd
000001c0: 7fd0 073e 8e5b e43d a146 6a3d 6873 6bbd
000001d0: 6061 233e 92a5 a83d 1f5a 2a3c 821a f03d
000001e0: 5ad1 c3bc a24d a03e 4062 0fbd d2b3 553e
000001f0: 476a 963e fb24 263e 507d e43c 0d19 323d
00000200: 91a1 a3bc 40d2 803b 2529 993e aa4f b03e
00000210: 0505 193e ba3d 333e 1563 a33e dd77 0dbd
00000220: 7527 d2bd 6a32 ef3d 7d6b ea3d c590 17bd
00000230: 472e 2cbd 1fd5 263d 9c0f 6e3e 39f4 54bc
00000240: 2af2 5f3c 28cb 163d 5309 b83e 30e4 21be
00000250: bfba 503e 149d acbc af9d 1f3d e6c4 8f3e
00000260: b4b7 483e 6e7e 3b3e 027b 3abd 3ba1 cf3e
00000270: 995c 5e3e 96fb 90be 9539 963e f7fb 143e
00000280: 0f47 343d 1fdd febc c528 a2bb 6d69 3838
00000290: 2e3b 903e 0537 413e f1e7 01bd b4ba 49bb
000002a0: 4d90 a23c 647c e03b fa38 0cbc f281 02bd
000002b0: cd6f 2d3d 34a5 2c3e de4e 383e fb3e 1d3d
000002c0: 3c49 a23e 059f af3d 29c1 523e e722 393b
000002d0: cc0f 8d3e 31c4 443c fa7b 893e 40d1 57be
000002e0: 5b97 a43e 928a 513e 53f0 363c efaf c53b
000002f0: b2c3 463b 8daf 213b f1f6 3b3c e0a1 4c3e
00000300: 35a9 0abe 9d48 593e 40a6 323c 06fb 803e
00000310: f2e3 2dbd 8d76 30bd 865e dabc 7784 303d
00000320: e1ba 993e c0d3 203c f02b 08bd 4a3c cb3d
00000330: 1914 cdbc e259 4abd d3ba 913c 81f4 4f3e
00000340: c1f7 473e 03ed 1a3d d841 343e 5ba0 263d
00000350: b142 4f3e 4db2 c7bc 15a0 343e 1ce2 203e
00000360: 2455 acbc 8e7b 413e 644c 443c d689 b13e
00000370: 1ee2 983d dc49 6fbb fe0a 093c 15a4 08bd
00000380: 4269 3ebe 7d96 893e 4a24 dbbc 77fa 2a3d
00000390: 7fe8 de3b fbb2 793e e3c3 0fbd 30d7 183d
000003a0: eaa8 973e dad1 0b3e 00bf d5bb 86e4 9a3e
000003b0: 634b 563e ba89 a83e 9c66 c2be b163 c13d
000003c0: e847 663e 8ede b7bd 0b71 87ba 5dac 1abd
000003d0: 0846 633e cd3a 85be 2077 513c c04e c83b
000003e0: bd67 a4bc 9d9b 3c3e 048e 2b3e a738 fabc
000003f0: b66c a23e 2670 2e3e 6ade 8fbd e195 773e

linear_stack.4.bias f4 [5]
0.25411117 0.21269365 0.3256689 -0.18265985 -0.04333669
00000000: dc1a 823e 5dcc 593e 13be a63e 2f0b 3bbe
00000010: d081 31bd
