data/U2_new/model_UAV_4.pth (torch, 660400 bytes, 6 tensors)

linear_stack.0.weight f4 [400, 4]
000000 58 dd f7 3d 45 5d 87 bc ab 26 80 bd d5 f3 17 3f
       0.12102765 -0.016523967 -0.06257375 0.59356433
000010 15 8c 64 3e 30 b3 79 3d 09 a5 95 3e d5 6a 3f 3e
       0.22319062 0.060961902 0.29227474 0.18693097
000020 9a 25 bc bd ac ca a4 3e 5d 0f 9d 3d e3 93 28 3f
       -0.091868594 0.32185876 0.07668946 0.6585066
000030 76 ed a5 be 6e 26 85 be 74 f2 c7 3e 80 d5 5c be
       -0.3240773 -0.26005882 0.39052165 -0.21565819
000040 02 84 11 be 4f 32 c4 3e e3 8e a7 3e 54 c9 c8 be
       -0.14210513 0.38319632 0.327262 -0.392161
000050 fa 30 b2 3d 3a e0 1b 3d e9 62 7d 3e b8 a4 06 3f
       0.08700748 0.038055636 0.24744762 0.5259509
000060 20 9f 71 3e 73 c5 a6 3d 7c 6a d6 be a5 3b 99 3e
       0.23595858 0.08143129 -0.41878116 0.29928318
000070 39 1b bc bf 39 76 37 bd 74 f6 8c 3e be be 65 be
       -1.4695808 -0.04479048 0.2753178 -0.22436044
000080 5b 1f bd be e9 dd 9b 3e 96 4c 85 3e 3e fd 66 3e
       -0.36937985 0.30442742 0.26034993 0.22557542
000090 a0 76 c5 3c 68 dc d9 bd 60 5f 2b be f4 0e dc 3e
       0.024104416 -0.10637742 -0.16735601 0.42980158
0000a0 b3 4b 55 bf 39 2a 59 bf 05 57 2e 3f 50 ae aa bf
       -0.8331863 -0.8483005 0.6810153 -1.3334446
0000b0 73 ad c9 3e db 6b 11 3d eb 62 b3 bd a4 3d a9 bf
       0.39390144 0.03550325 -0.087591015 -1.3221936
0000c0 e0 35 c8 be 1f 65 b1 3e 24 82 f3 3e 23 2b 49 3f
       -0.39103603 0.34647462 0.47560227 0.78581446
0000d0 c7 a5 07 be 65 e5 f5 3e fd 51 a6 be 62 64 e5 3e
       -0.13246833 0.48026577 -0.32484427 0.44803149
0000e0 f5 3d 0b be ea f1 d2 3e ff 61 fc bd fc e4 8e 3d
       -0.13597853 0.4120019 -0.12323379 0.06977269
0000f0 d3 35 07 3f a7 28 df 3d 79 17 31 3f 90 39 c4 3b
       0.52816504 0.10896426 0.6917644 0.0059883073
000100 e3 f2 10 3e ee ec 37 3e 9e 4d b1 3e 1d d1 1e 3e
       0.14155154 0.17961475 0.3462953 0.15509458
000110 1f 82 ba be a2 ce 8a 3e 2a a8 cc bc e2 b9 70 be
       -0.364274 0.27110773 -0.02498253 -0.23508409
000120 d6 b0 e7 be 60 c3 3a bd 3c cb 81 be 10 08 8e be
       -0.45252103 -0.04559648 -0.25350368 -0.27740526
000130 08 54 4f be 7e 0b 8a be 06 dd bd 3e b0 17 58 be
       -0.20246899 -0.26961893 0.3708269 -0.21102786
000140 7e 31 a5 3e 26 6e ad 3e 99 78 d6 bd 0b b7 ae bd
       0.32264322 0.338731 -0.10472221 -0.085310064
000150 0c e0 21 be 52 e2 80 3d 27 2d 0f 3f 4a e6 2e 3f
       -0.15808123 0.06293167 0.5592827 0.68320143
000160 88 01 bb 3e 40 5b c4 3e 8f ee de bd eb 25 fe 3d
       0.36524606 0.38350868 -0.10885345 0.12409576
000170 57 16 f6 3e 99 e5 2e be 6f ee 6d bf 32 b1 b6 bf
       0.4806392 -0.17079772 -0.92941946 -1.4272826
000180 80 f8 1c bd 50 85 44 be 88 8f 8d bd 3c fd 48 3e
       -0.038322926 -0.1919148 -0.06912142 0.19627851
000190 9f 82 dd 3e 0f c0 8e 3e 6c b0 66 bc b4 50 af be
       0.43263718 0.27880904 -0.014080148 -0.3424126
0001a0 48 86 e4 3d 90 a9 f7 bd d6 7a d7 3e ec 81 01 be
       0.111584246 -0.12092888 0.42085904 -0.12647218
0001b0 b8 20 b5 3e 23 2f da 3d 62 a0 96 3e 56 53 08 3f
       0.35376525 0.10653522 0.29419237 0.5325216
0001c0 b8 cc e1 bd 78 bf d6 bd 96 29 9e 3e 28 97 c3 3d
       -0.11025375 -0.104857385 0.30891103 0.09550315
0001d0 1f 90 1c 3f 9a 03 33 3e 63 8c 06 3f 03 5b 2f 3c
       0.6115741 0.17481843 0.52557963 0.010702851
0001e0 5a e3 fd 3e 86 c9 33 bf ce fa 06 bf e9 c0 1b 3f
       0.49587518 -0.70229375 -0.5272645 0.6084123
0001f0 47 65 8d be 44 67 bb 3e f7 b3 14 be 5e 96 cf bd
       -0.2761633 0.36602223 -0.14521776 -0.10136102
000200 77 82 fc 3e bf a4 c7 3e be 63 05 3f 62 a1 30 3f
       0.49318287 0.3899288 0.5210532 0.6899625
000210 55 b6 31 be 9d 89 35 3e 42 98 b6 be 65 f2 51 be
       -0.1735471 0.17728277 -0.35663038 -0.20502622
000220 33 7a 29 bd b6 67 84 3e 35 86 b5 3e 34 5d 89 3e
       -0.041376304 0.25860375 0.35453954 0.2682892
000230 ec 07 c5 bf 67 39 c6 3d 09 4f a2 3e 91 37 8a bf
       -1.5393043 0.096789174 0.31700924 -1.0798208
000240 22 d6 69 be 71 46 6a be a0 0c a6 bf 4c 7a a2 c0
       -0.22835591 -0.22878434 -1.2972603 -5.077429
000250 cd 5d 81 3e 57 ba 0a 3f 92 de 13 3e 87 d9 88 be
       0.25266877 0.5419058 0.14440373 -0.2672846
000260 19 72 71 3e 84 ee 9b be d7 56 0a 3f f3 d6 39 3e
       0.23578681 -0.3045541 0.5403876 0.18148403
000270 5c e0 2f bd 87 70 c5 3c 40 71 00 3f ab de c3 be
       -0.042938575 0.024101509 0.50172806 -0.3825582
000280 ad bf bc 3e 84 04 73 3e ff 94 3e 3e 66 ba 89 be
       0.36864987 0.23732191 0.18611525 -0.26900023
000290 5e 16 c4 be f0 39 41 bd 00 2c b3 3b 6c f1 38 be
       -0.38298315 -0.047174394 0.0054678917 -0.18060845
0002a0 99 ff aa 3e 5a 2e 95 be 68 43 64 3e 3f cb 24 3f
       0.3339813 -0.29136926 0.22291338 0.6437263
0002b0 db ef 8f 3e 73 81 b8 3e 6c 10 07 3d 88 f3 17 be
       0.28112683 0.36036262 0.032974645 -0.14838994
0002c0 ab 24 53 be 7c 34 d7 3d 62 dd 11 be 1c c1 d1 be
       -0.20619456 0.105080575 -0.14244607 -0.40967643
0002d0 11 f9 be be 42 8a 8e 3e 68 70 4e 3e b1 27 27 bd
       -0.37299398 0.27839857 0.20160067 -0.040809337
0002e0 ec 33 7d be fc 0a d2 3e 3a f7 8d bd 9b f6 c8 be
       -0.24726838 0.41024005 -0.0693192 -0.39250645
0002f0 c8 c4 b4 3d 00 17 c6 bd 88 94 b1 bd ca b7 97 be
       0.088265955 -0.09672356 -0.08670908 -0.29632407
000300 52 31 05 bf 75 0d d4 3e 2d 03 9e 3d 74 3e f5 be
       -0.5202838 0.41416517 0.077154495 -0.4789921
000310 77 16 7a 3e 63 a6 88 be 92 ce 39 3f 17 da 13 3f
       0.24422632 -0.26689443 0.72580826 0.57754654
000320 03 8f f8 be 8c e7 b8 3e 87 99 da be 32 f4 12 bf
       -0.4854661 0.36114156 -0.42695257 -0.5740386
000330 5b 17 3f bf 3b ac 43 bf 82 3e 17 3f 03 8c e8 be
       -0.7464501 -0.7643468 0.59079754 -0.4541932
000340 16 ac 2a 3e b5 2c 69 3e a5 f7 59 3e 59 1d 84 be
       0.16667208 0.2277096 0.21285875 -0.2580364
000350 8a 5a 18 3e f8 cc 9d 3e 4b 36 c5 be fc 23 51 bd
       0.14878288 0.3082044 -0.38517985 -0.051059708
000360 cc 2b 06 bf fd 9e 12 bf 50 94 94 be 4a 10 27 c0
       -0.5241058 -0.57273847 -0.29019403 -2.6103692
000370 10 1f 94 bd 00 3a 92 3c 44 89 42 be 70 4e f0 3d
       -0.07232487 0.017849922 -0.18997675 0.11733711
000380 69 0f d1 3e 9e a1 29 3e a9 9d c5 be 0a 04 a4 be
       0.4083207 0.16565558 -0.38596848 -0.32034332
000390 36 6d b9 be 9a e9 0a 3f 54 ae bc be 10 01 a6 be
       -0.36216134 0.542627 -0.36851752 -0.32422686
0003a0 94 61 de 3e 98 b6 22 3d 3d b0 bb be cd 16 9d bc
       0.4343382 0.039724916 -0.36657897 -0.019175911
0003b0 ee 84 23 3f 57 8e ac 3d 5d a7 a9 be 58 53 e8 be
       0.6387471 0.08425587 -0.331355 -0.45376086
0003c0 8e 33 18 3f d4 40 10 3e 1e 5a f4 3e 94 35 c6 bd
       0.59453666 0.1408723 0.47725004 -0.09678188
0003d0 86 94 a9 bf 82 dc 85 bd e4 1c 1e 3f d7 b0 0c bf
       -1.3248451 -0.06536199 0.61762834 -0.54957336
0003e0 04 7b 35 bf 6d 46 11 3e 70 85 d4 3e b8 7b a9 3e
       -0.7089083 0.14187022 0.41508055 0.33102202
0003f0 45 42 d2 3e 5b 02 26 bd 47 7d 43 3e 3f 8a 66 bf
       0.41066185 -0.04052959 0.19090758 -0.90054697

linear_stack.0.bias f4 [400]
000000 6a 4a 06 bf 95 5c 4a 3f 96 f1 ce be 48 2a f6 be
       -0.52457297 0.7904752 -0.4041869 -0.48079133
000010 6c c5 1b 3f 72 31 6e 3f 45 1e 1f 3f a7 ee c2 3e
       0.60848117 0.930442 0.6215556 0.38072702
000020 87 af fe 3e 0e 17 e8 be e0 c8 4f 3f 1a 16 26 bf
       0.49743292 -0.4533009 0.81165886 -0.64877474
000030 e6 4f e3 be 77 e5 0d 3f b2 38 0b 3f 10 41 00 bf
       -0.44396895 0.5542826 0.54383385 -0.5009928
000040 d7 f7 05 3f 63 19 13 bf c0 a9 96 bd 94 b6 fd be
       0.523313 -0.5746061 -0.07356596 -0.4955336
000050 92 72 2b 3f f1 d5 8c be 4d ed 03 bf d3 76 3e bd
       0.66971695 -0.27506974 -0.5153397 -0.04650004
000060 00 2d d0 be 3f 17 1b 3f aa 20 b4 be f1 e9 aa 3d
       -0.40659332 0.60582346 -0.3518117 0.08345402
000070 b6 df ee be 9e 95 a8 be fb 3b 12 be 65 0b c0 3e
       -0.46655053 -0.3292665 -0.14280693 0.37508693
000080 03 23 d5 be ce ec 5f be 28 46 29 bf 6b a5 3c 3f
       -0.41628274 -0.21867678 -0.66122675 0.7368991
000090 3f e6 58 3e b7 33 36 3f 07 81 60 3e 5b 48 68 3f
       0.21181582 0.7117266 0.2192422 0.90735406
0000a0 cc 89 30 3e c8 3c d3 be 23 f6 1f be 04 b2 c0 3e
       0.17240065 -0.4125731 -0.15621237 0.37635815
0000b0 aa 64 03 3e 5e 11 1e bf 8b 2f d2 3e 42 b9 c4 be
       0.12831369 -0.6174525 0.41051897 -0.3842259
0000c0 72 3d eb 3e 06 45 5e 3f 8d fa 0f 3f 60 55 36 3f
       0.45945317 0.8682407 0.56241685 0.7122402
0000d0 11 c1 4e be 5e 63 2a 3f 0d d6 11 3f 30 ea ee be
       -0.20190836 0.6655787 0.5696724 -0.46663046
0000e0 85 0b f0 3e 97 ef 38 3f 35 bd 1d 3f a5 bd 06 3f
       0.4688379 0.72240585 0.6161683 0.52633125
0000f0 63 96 8c be 28 a2 2a 3f 6a 38 8b 3e 78 56 f7 be
       -0.27458486 0.6665368 0.27191478 -0.48308158
000100 b2 d5 33 3f 0a e6 ec be 7b c5 36 3e 88 69 dc be
       0.7024795 -0.46269256 0.1784877 -0.43049264
000110 d9 de be 3e 2a 7b a8 3d ce 7a b2 3e 44 4b c3 be
       0.37279394 0.08226617 0.34859318 -0.3814336
000120 18 05 2a bf 44 3c 88 3e c0 fb 60 3e b0 b0 11 bd
       -0.6641402 0.2660848 0.21971035 -0.035568893
000130 f4 20 48 be 89 0c bc 3e 6f d9 9f be 67 08 23 3f
       -0.1954382 0.36728314 -0.31220576 0.63684696
000140 6d f5 03 bf 59 ed b5 3e 86 b8 20 3e 5f 32 1f 3f
       -0.51546365 0.35532644 0.1569539 0.62186235
000150 b0 5c b8 3e ed 23 f7 3e 1a ed 91 3e b9 30 25 3f
       0.36008215 0.48269597 0.28501207 0.6452747
000160 8f b5 6b 3f cc 33 51 be 4b 86 ad 3e a8 4d 47 be
       0.9207391 -0.20429915 0.3389152 -0.19463217
000170 fe 42 ab 3d ba ed 83 be cc 9c 38 be 88 c7 84 be
       0.08362387 -0.25767308 -0.18028563 -0.2593348
000180 7a f4 e7 be 89 ab 52 be 19 1f 9d 3e 53 c7 61 3f
       -0.45303708 -0.20573248 0.30687788 0.8819477
000190 04 30 29 3f 50 ef 28 3f d3 c7 84 bc 42 17 09 bf
       0.6608889 0.6599016 -0.016208565 -0.53551114
0001a0 e8 37 88 bd 27 85 34 bc 98 63 11 3e c2 69 00 3f
       -0.06651288 -0.011018074 0.14198148 0.50161374
0001b0 14 99 b0 be a8 c5 53 3e 00 3b 52 3f 7c 13 50 3e
       -0.3449179 0.20680869 0.82121277 0.20319933
0001c0 9a b7 ed 3e e0 d8 0a bd 64 20 1a bf c3 c9 eb 3e
       0.4642914 -0.033898234 -0.60205674 0.4605237
0001d0 19 65 e1 3e 07 08 02 bf 18 d8 04 3e 78 e1 d6 be
       0.44022444 -0.507935 0.12973058 -0.41968894
0001e0 e7 41 48 be 02 84 3e 3f fb 7e 79 bd 5a 85 9b be
       -0.1955639 0.7442018 -0.060912114 -0.30375177
0001f0 d4 25 5d be dc d5 ac be 35 3d 17 3f e2 d6 7b bf
       -0.21596462 -0.33756912 0.5907777 -0.9837476
000200 51 20 0e 3f 29 03 0c 3f 25 ef b3 3f 19 db 2b 3f
       0.5551806 0.5469232 1.4057356 0.6713119
000210 ec 4c 81 3f 35 61 ae be ff c9 46 be 64 7b 8e be
       1.01016 -0.34058538 -0.19412993 -0.27828515
000220 b7 8a 27 be ee 9c 6e 3f 9c 82 35 be 08 4d 43 3f
       -0.1636151 0.93208206 -0.17725605 0.76289415
000230 78 00 36 3f e0 ee 07 bf 48 46 70 be 1e 6d c7 be
       0.71094465 -0.5309887 -0.2346431 -0.38950437
000240 38 0c ba bd 21 b4 56 be b7 d5 33 3f 95 5e 95 3d
       -0.09084362 -0.20967151 0.7024798 0.07293431
000250 2e 87 1d bf 08 92 1d be a0 ad 99 be 1c 0b 2c be
       -0.6153439 -0.15387738 -0.30015278 -0.16801113
000260 82 a0 3f be 11 f9 30 3f fc be f1 3c 94 1f 04 be
       -0.18713573 0.69130045 0.029510014 -0.12902671
000270 89 8c d6 3c c2 3f e7 3e 42 53 15 3f c6 e5 4a 3f
       0.02619006 0.4516583 0.58330166 0.79256856
000280 d6 1b e0 be d4 90 e8 be aa d1 eb 3e 63 d4 f2 3e
       -0.43771237 -0.45422995 0.46058398 0.47427663
000290 89 e8 03 3f 27 55 0f 3f 0c e8 1c be 2b 99 81 be
       0.51526695 0.5598931 -0.15322894 -0.2531217
0002a0 14 82 05 3f 33 a0 9a be 5d 53 af bd b1 ba 40 3f
       0.5215161 -0.30200347 -0.08560822 0.7528487
0002b0 b9 83 51 3e ca ba c9 be 09 ea 12 3f c9 e5 72 be
       0.20460404 -0.3940032 0.5738836 -0.23720469
0002c0 71 16 bc be b1 72 26 3f 38 65 2f bf bc c8 36 bf
       -0.3673587 0.65018755 -0.6851382 -0.71400046
0002d0 50 71 76 bd 24 88 93 be 1b 8e 23 3e 8d 01 81 3f
       -0.060166657 -0.28814805 0.15972178 1.0078598
0002e0 df 67 4b 3f ec 5a 00 3f c4 d3 94 be 48 c9 de be
       0.7945537 0.50138736 -0.29067814 -0.4351294
0002f0 2c 5a 8f be a7 f9 03 3f ba 9c 8d be 99 a9 86 be
       -0.27998483 0.51552814 -0.27658635 -0.26301268
000300 4e bc ea 3e 60 a7 45 3e f0 80 d7 bd 52 b8 c4 3e
       0.4584679 0.1930213 -0.1052264 0.38421875
000310 28 fb f1 bd 78 07 e2 3e 50 e8 06 bf ba a6 27 3f
       -0.118154824 0.44146323 -0.5269823 0.6548878
000320 d0 19 2c be 44 cd 3f 3f 47 71 a3 be d1 6a f5 3e
       -0.16806722 0.74922585 -0.3192236 0.47933057
000330 e0 e5 c2 bd ba ba ca be b1 66 18 3f 38 76 70 3f
       -0.095165014 -0.39595586 0.59531695 0.9393039
000340 76 3e 5b be 38 1d 90 be a6 f1 22 3e a7 10 6d 3f
       -0.21410546 -0.28147292 0.15912494 0.92603534
000350 3b 16 7e be 3c 8b 39 3e 0c 75 e2 be 7b c6 d4 3e
       -0.24813168 0.1811952 -0.44229925 0.4155768
000360 af 4c 6b 3f 80 cd 59 bf 63 a4 77 be 65 14 c6 3e
       0.91913885 -0.85079193 -0.24183802 0.38687435
000370 aa f0 b7 3e 5c c9 ad 3e 8a ab 16 3e a4 c1 5e 3e
       0.359258 0.33942688 0.14713874 0.21753556
000380 1a 5e fc be d6 fe 0c bf b5 5c 5b 3f 94 7c de be
       -0.49290544 -0.5507635 0.85688335 -0.4345442
000390 f8 85 0a 3e 1c b9 b9 be 62 47 60 be e5 62 6e 3e
       0.13527668 -0.3627404 -0.2190223 0.23279913
0003a0 62 93 af be 63 ab a3 be d8 3a e7 be f3 0e c6 bd
       -0.34292132 -0.31966695 -0.45162082 -0.0967082
0003b0 48 dd 1e be 57 bb 0b 3e a0 a7 cd 3e 89 b8 4c 3e
       -0.155141 0.13645683 0.4016695 0.1999227
0003c0 f6 ea b0 be cc e3 0e 3f 33 80 54 ba 8a 1d e1 be
       -0.3455426 0.5581634 -0.00081062614 -0.4396785
0003d0 e5 44 25 3f 4a 79 13 3f 42 a4 22 3f 58 de 92 be
       0.6455825 0.5760695 0.6353189 -0.2868526
0003e0 f7 83 4f 3f 74 c4 85 3f 78 c7 70 3f c5 40 0e 3f
       0.8106074 1.0450578 0.94054365 0.5556758
0003f0 69 fd 85 be 3e d6 3d 3f 96 f3 08 bd e7 62 ff be
       -0.261699 0.7415503 -0.033435427 -0.49880144

linear_stack.2.weight f4 [400, 400]
000000 c0 b3 9c bc 4b 34 46 3d 60 82 81 3c a0 93 ed bc
       -0.01912868 0.048389714 0.015809238 -0.029001057
000010 17 7f 29 bd c2 db 1a 3d 05 e2 1d 3d 73 50 fc bb
       -0.041380968 0.037807234 0.038545627 -0.00770002
000020 1a 21 ad bc 9a 0e 62 bc c0 df 4c 3c ea 69 e0 bc
       -0.021133948 -0.013797427 0.012504518 -0.027394254
000030 9a 2d 91 3a 67 77 72 bb a7 13 a9 3b 60 45 43 bc
       0.0011076212 -0.003699744 0.0051598134 -0.011918396
000040 a8 37 07 bd 00 8f e2 bb 07 13 54 3c 63 14 1c bd
       -0.033012062 -0.0069140196 0.01294399 -0.03810538
000050 83 8b 35 3d 9a 99 ba 3c d3 80 f2 bc 90 4c e2 bc
       0.044322502 0.022778321 -0.029602444 -0.027624398
000060 e7 bc a5 3b 0f 57 37 3d b3 3f 2a 3d bd dc 38 bd
       0.0050579193 0.04476076 0.041564655 -0.045132387
000070 9b cd 3e 3d 4a 95 2e bd 4a c1 93 bc 3a 98 74 3c
       0.0465828 -0.042622842 -0.018036503 0.014928872
000080 9a 85 47 bb 80 ca cf 3c 9a 48 5b 3c 4a af f2 3c
       -0.0030444623 0.025365114 0.013384009 0.0296246
000090 5b cd 02 3d c0 28 6b 3c 4d 50 19 bd 1d 53 30 bd
       0.031934123 0.014352977 -0.037430096 -0.043048013
0000a0 e7 50 ef bc 33 66 e5 3b 67 b9 0f 3b ad bf a5 3c
       -0.029213382 0.0070007085 0.0021930577 0.020233
0000b0 b0 79 b0 3c 8d 96 8d bc e0 3a 33 3c 88 f6 03 3d
       0.0215424 -0.017283702 0.01093933 0.032217532
0000c0 da be 80 bc fb ad 0f 3d 1a 2a 04 bd dd 3e 2e bd
       -0.015716005 0.03507803 -0.032266714 -0.04254042
0000d0 67 a3 f0 3b 63 73 89 bc da f0 3c bd 1a 6c 89 bb
       0.007343698 -0.016778653 -0.04612813 -0.004193795
0000e0 a7 7f ea bb 33 f3 89 b8 53 fb 26 bd 9f 47 43 bd
       -0.0071563306 -6.5779685e-05 -0.040767025 -0.047675725
0000f0 70 ec f8 3c fd eb 80 bc 33 50 ea bc b7 86 18 bd
       0.03038618 -0.015737528 -0.028602695 -0.03723785
000100 ba d8 2e bc 5d 45 11 bd ea 00 04 bd e7 0e 68 bb
       -0.010671789 -0.03546654 -0.032227434 -0.0035409273
000110 2a 09 3a bd 9a 1c 45 3c 7d 9f fb bc 00 14 dc bb
       -0.045418896 0.012030745 -0.030715698 -0.0067162514
000120 f8 db 0b 3d c5 97 1b 3d 33 4a 0c bc 27 b6 18 bd
       0.034145325 0.037986536 -0.008562612 -0.03728309
000130 83 6b d4 3c 83 33 4c 3d da ff 55 3c 33 9b 42 39
       0.025930172 0.049853813 0.013061488 0.00018559098
000140 67 06 e1 b9 8a e5 3a bd 17 8c 45 3d b8 92 05 3d
       -0.00042920114 -0.04562906 0.048229303 0.032610625
000150 7d ff 08 bd 00 20 06 3d da 70 ee 3c 35 cb 2e 3d
       -0.033446778 0.03274536 0.029106546 0.042674262
000160 4a 0d cd 3c ea c9 24 3d 2d 22 7c 3c 60 08 1c bc
       0.02503075 0.040231623 0.0153890075 -0.009523481
000170 40 39 cf 3b ca ce 92 3c 47 54 38 3d 6d 1f 43 bd
       0.0063239634 0.01792087 0.04500225 -0.04763739
000180 f3 93 fc bc e0 19 d9 bc 00 16 28 3d fa 78 93 3c
       -0.030832266 -0.026501596 0.041036606 0.018002022
000190 e0 44 04 3d 62 34 28 bd 1b ef 07 3d 93 ef c0 3c
       0.032292247 -0.04106558 0.033187013 0.023551738
0001a0 6d ff 9c bc 20 d8 4d 3c 3d c8 ae 3c 1a eb 91 3b
       -0.019164765 0.012563735 0.021335715 0.004453075
0001b0 b3 8d 9b bb 8d 48 da 3c 00 17 11 bc 27 8b 9b bc
       -0.0047471165 0.026645923 -0.008855581 -0.018987251
0001c0 b3 94 c5 3b 00 84 1d 3d d3 92 26 bd e7 ae 68 3b
       0.006029689 0.038455963 -0.040667366 0.003550464
0001d0 0d 7b 17 3d 63 a4 d1 bc 63 38 db bc 30 c7 a1 bc
       0.036982585 -0.025591081 -0.026760286 -0.0197483
0001e0 ed 7d 94 3c cd 75 b3 3b da f7 3b 3d ff a5 1f bd
       0.018126452 0.0054766894 0.045890667 -0.038976666
0001f0 40 4f ea 3c b0 c2 a2 3c a7 ba d9 3c 00 dd cf 3c
       0.028602242 0.019868225 0.02657826 0.025373936
000200 d2 1b 45 bd fd 69 e2 bc 00 0e ea 3a 4d 97 18 bc
       -0.048122235 -0.02763843 0.0017856956 -0.009313417
000210 6b 3b 1d 3d f3 1a 23 bd af 6f 31 bd 7d af f7 bc
       0.038386744 -0.039820623 -0.0433194 -0.030235047
000220 30 b9 1d 3d 9f 4c 40 bd 87 cb 8e bc b3 eb 16 bc
       0.038506687 -0.04694807 -0.017431034 -0.0092114685
000230 ed 96 ab 3c bb 52 05 bd 7d 88 90 bc 57 ac b2 3c
       0.02094599 -0.0325496 -0.017643208 0.021810694
000240 27 e5 56 3c 93 81 3c bd 0d b5 ab 3c 05 c7 1e 3d
       0.013116158 -0.04602201 0.020960355 0.03876402
000250 00 b4 3f ba fd 67 f8 3c 67 66 cd 3a 87 2c 2a bd
       -0.0007312894 0.030323023 0.0015670777 -0.04154637
000260 da 6b 04 3c a3 65 d0 3c c7 d7 ae 3c b0 36 2b 3d
       0.008082354 0.02543909 0.021343125 0.0418002
000270 e7 e0 e4 bb d2 c9 0a 3d 67 f8 00 3d b3 07 04 bb
       -0.0069848183 0.033883877 0.031486895 -0.002014619
000280 37 02 dc bc ed b0 24 bd 73 e4 e8 bc 03 c3 45 bd
       -0.026856525 -0.040207792 -0.028429246 -0.04828168
000290 2a 8e a5 3c 63 a7 df bc d7 98 22 3d 9a 1a dd bb
       0.02020939 -0.027301496 0.03969654 -0.006747556
0002a0 92 37 44 bd e0 70 e0 bc 38 21 34 bd 67 29 df ba
       -0.04790456 -0.027397573 -0.043976992 -0.0017025889
0002b0 cd 71 8d 3b 20 17 47 bd 77 04 33 3d 33 48 ce ba
       0.0043165446 -0.048606038 0.04370543 -0.001573807
0002c0 08 42 09 3d 05 40 22 3d f5 b4 2c 3d f7 88 c3 3c
       0.033510238 0.039611835 0.04216476 0.02386902
0002d0 1a 18 90 3b a0 e4 dd bc 40 5e 8a 3b 12 5b 03 3d
       0.0043974044 -0.027086556 0.0042226613 0.032069273
0002e0 5d 3d d0 bc 13 23 14 3c f7 2e 42 bd 67 95 c5 bb
       -0.025419885 0.0090415655 -0.04740807 -0.006029773
0002f0 a3 d8 2b bd bd 10 34 bd 67 7a 1d bb 9a fd 92 3a
       -0.041954648 -0.043961275 -0.0024029256 0.0011214495
000300 40 21 b9 3c d7 76 df 3c 4a 51 85 bc 2b 18 0b 3d
       0.022598863 0.027278347 -0.016274113 0.033958595
000310 f7 71 ed 3c 5d c6 e6 bc 9b e6 03 bd 1a 34 79 bc
       0.028985007 -0.028170759 -0.032202344 -0.015210176
000320 32 3f 27 3d 93 76 a7 3c e8 9a 05 3d 80 2c b8 bb
       0.040831752 0.020442283 0.032618433 -0.005620539
000330 6f 03 3b bd 62 3c 0a 3d 47 8d 0e bd 5b 80 18 bd
       -0.04565757 0.03374899 -0.0348027 -0.037231784
000340 1a d4 70 3c 8d 71 47 3c 90 fc f8 3c d3 cb 1d bc
       0.014699006 0.012173069 0.030393869 -0.009631115
000350 ba d8 83 3c 8d 68 23 bd 1b 61 01 3d 3d 53 4a bd
       0.016094554 -0.03989463 0.031586748 -0.04939579
000360 da d8 70 bc 63 96 3e 3d f3 22 c1 bc 0d 57 a5 bc
       -0.014700139 0.04653014 -0.023576235 -0.02018311
000370 f7 84 cf 3c b3 bd 61 3c fd d3 01 bd 73 ee 88 3b
       0.025331957 0.013778138 -0.03169631 0.004178816
000380 52 e7 15 3d ad 46 57 bc ef a9 4b bd fd a6 ff 3c
       0.036597557 -0.013139409 -0.04972261 0.031207556
000390 90 1b a6 3c 4f d5 00 3d 05 9c 31 3d 43 a8 16 3d
       0.020276815 0.031453427 0.043361682 0.03678156
0003a0 37 22 3b bd 2a be b3 3c a7 b7 91 bc 03 8e fe 3c
       -0.045686927 0.021941263 -0.017787768 0.031073576
0003b0 22 c7 32 3d c0 82 fe bb 67 5e 68 3c ed b7 f0 bc
       0.04364694 -0.0077670515 0.0141826635 -0.029384578
0003c0 20 57 1b bc c0 89 1b bc c3 bd b6 3c 9a 69 12 39
       -0.009481221 -0.009493291 0.022307282 0.00013962985
0003d0 b7 2d a7 3c d0 1e 02 3d 33 57 b2 bc a7 2a 03 bc
       0.02040754 0.031767666 -0.021770095 -0.008005775
0003e0 5a 67 3c 3d 1d d4 83 bc 9a 3c 6e 3b 03 67 23 3d
       0.045997 -0.016092354 0.003635204 0.03989316
0003f0 dd 9c 37 bd fa c3 0e bc e7 c1 eb bc 77 4d d8 bc
       -0.04482733 -0.008713717 -0.028778983 -0.026404126

linear_stack.2.bias f4 [400]
000000 eb 49 41 bd 66 78 34 3d 07 c2 5a 3e 45 02 d1 bc
       -0.047189634 0.044060133 0.21363078 -0.025513778
000010 30 29 46 3e 21 82 03 bd b9 e3 a2 bc 57 97 24 3e
       0.1935165 -0.032106522 -0.019883977 0.16073357
000020 cd 4a 05 bd 5d 42 0b 3e 2d f3 e6 bc ac a8 07 bd
       -0.03254204 0.13599534 -0.028192127 -0.033119842
000030 75 4e 1d 3d fe 99 58 3e 40 c8 21 3c 5e 0c 8d 3e
       0.0384049 0.21152493 0.0098744035 0.27548498
000040 1b 18 28 3e 25 35 e6 3b 8c 6c 08 bd 4f 5a bf 3c
       0.16415446 0.0070253783 -0.033306643 0.023358492
000050 22 58 48 3e cc 5b 88 3b 15 63 38 3e 7e a6 28 3e
       0.1956487 0.0041613337 0.18006547 0.16469762
000060 83 70 5f 3e f0 14 8c 3c c0 5a f1 3c 20 e9 1a 3d
       0.21820264 0.017099828 0.029462218 0.03781998
000070 ba e7 5c 3e a7 5e 74 3e bd c4 a8 bc cd c6 f2 3c
       0.21572772 0.23864232 -0.020601625 0.029635811
000080 bc 96 0e 3d 44 26 21 bc 6a 2b b6 bc bb 02 0c 3d
       0.03481172 -0.009835783 -0.022237498 0.03418229
000090 c7 e6 45 3e f7 03 3a bd dd aa f8 bc 77 32 cf 3c
       0.19326316 -0.045413937 -0.030354911 0.025292618
0000a0 8d be 35 bd 03 40 39 3d 7c 62 d6 3c 12 83 11 3e
       -0.044371177 0.045227062 0.026170008 0.14210156
0000b0 7b 95 39 3e 06 f1 4b 3e cd a4 e1 bb b3 7f 71 3e
       0.18123429 0.19916162 -0.006886101 0.2358387
0000c0 2f 50 11 3e d5 95 43 3e 33 3f ab 3a b0 d0 4d bd
       0.14190744 0.19100125 0.00130651 -0.050247848
0000d0 6c 42 69 3c 5a b9 76 3e ff 80 4a bd f3 ba cb b9
       0.014237028 0.24094144 -0.049439427 -0.00038858465
0000e0 07 4e ed bc ec 37 87 3e a0 fc b8 3c 1a 4e 72 3c
       -0.02896787 0.26409853 0.022581398 0.014789129
0000f0 b3 b4 f3 bb 46 3c 5f 3c 31 f3 3a 3d 8b 72 12 3e
       -0.0074373125 0.01362521 0.04564208 0.14301507
000100 83 5e 96 bc 7f 19 6d 3e 09 8d 6c 3e ba 63 bb 3c
       -0.018355614 0.23154257 0.23100676 0.022874702
000110 e9 fe 16 3e 0b 62 ff 3b a7 1a c3 bb 2a a6 a2 3c
       0.14745678 0.00779367 -0.005954105 0.019854624
000120 ac aa 40 3e 53 61 08 bd 01 09 b1 bd 37 73 02 3e
       0.18815106 -0.03329594 -0.086442955 0.12739263
000130 bb 10 52 3e bb aa 6c 3e b2 d5 32 3e c2 c4 58 3e
       0.20514195 0.23112004 0.17464331 0.21168807
000140 ea 43 7b 3e 4b da 52 3c 81 ef e7 3c e0 3f 17 3e
       0.24537626 0.012869428 0.028312447 0.1477046
000150 0d 21 c5 3b cf 8a 5c 3e 11 76 72 3e 43 31 28 bd
       0.006015903 0.21537326 0.23677851 -0.041062605
000160 fa 65 18 3e 5f 0e 0a 3e 98 d6 27 bd 9f 4f 55 bc
       0.14882651 0.13482045 -0.040976137 -0.013019471
000170 48 af 57 3e 83 c2 ce bc ba a1 54 3e 58 ba d8 3c
       0.21062958 -0.025239235 0.20764819 0.026456043
000180 c5 49 1a 3d 9a 29 a3 39 d3 85 16 3e 17 e2 41 3e
       0.03766801 0.00031120778 0.14699487 0.18933903
000190 4c a2 39 3e 9d 3a 07 3e 0e 5c 13 bd 29 42 d7 3c
       0.18128318 0.13205953 -0.035976462 0.026276665
0001a0 7f 8d 3f 3d 5a 33 7d bc 47 92 5d 3e c5 75 ba 3c
       0.0467658 -0.015454138 0.21637832 0.022761235
0001b0 f8 f7 5b bb ab ec 11 3d d7 ef 37 bd 7c 4e 49 bd
       -0.003356455 0.035626095 -0.044906463 -0.049147114
0001c0 10 7e 4b 3e 48 34 a9 3c c0 72 63 bc 6f 0e 98 bb
       0.19872308 0.020654812 -0.013882339 -0.0046403925
0001d0 31 7f c1 3b 5c b6 50 3e 54 84 32 bd fe 23 e4 3d
       0.005905055 0.20382065 -0.04358323 0.111396775
0001e0 29 20 a8 3e 57 78 39 3e 11 98 22 3e 23 6e b1 3d
       0.32837036 0.18112312 0.15878321 0.08663585
0001f0 be 78 69 3e aa 1b e7 bc db 95 40 3e 97 df ae 3d
       0.22799966 -0.028211433 0.18807165 0.0853874
000200 e6 bd 4b 3e c7 3a a0 bb 67 13 b8 bb 8f 7e 5a bd
       0.1989666 -0.0048898193 -0.0056175473 -0.053343352
000210 59 20 c3 3d 93 d4 2c 3c 2f 33 66 bc 8b 7c 32 3e
       0.09527654 0.0105487285 -0.014050289 0.17430322
000220 6a d1 36 3d 6f ac 6b 38 6f 4c 52 3e 20 2b 07 bd
       0.044633307 5.6188957e-05 0.2053697 -0.03300011
000230 b9 64 36 3e ee 48 4f 3e 73 ae 02 3d 4c 62 11 3e
       0.1781186 0.20242664 0.03190465 0.14197654
000240 9d 80 3e bd 9a d0 61 bd 87 f7 b9 3c df 43 77 3e
       -0.046509374 -0.05513058 0.022701038 0.24146985
000250 9f 92 35 3c 4c 39 32 3e b0 34 43 3e 6e 0a 18 3e
       0.0110823205 0.1740467 0.19063067 0.14847729
000260 07 8f 12 3e 7b a7 6c bc 92 eb 1f 3d 98 32 86 3e
       0.14312373 -0.014444227 0.039043017 0.26210475
000270 bf 55 50 3e 0e 32 a0 3e 60 c9 3f 3d df 8d 09 3d
       0.2034521 0.3128819 0.046822906 0.033582564
000280 c1 23 5a 3e 25 21 68 bd ed e0 3c bd 91 06 21 3b
       0.21302702 -0.056672234 -0.046112943 0.0024570564
000290 04 54 83 3e 0d f1 f9 bd ca 65 39 bd ad ff 23 bc
       0.25650036 -0.1220418 -0.04526309 -0.010009688
0002a0 c7 79 f1 bc 1e 7f 5f 3e 0b 4b e0 bb 13 c0 20 3e
       -0.029477013 0.21825835 -0.0068448833 0.1569827
0002b0 9f a4 88 3e 79 58 e4 bc 30 aa 23 3e 53 c9 38 3e
       0.26688096 -0.027874218 0.1598289 0.18045549
0002c0 42 b5 1c 3d c4 c7 21 be 32 05 33 3e 43 0a f0 3b
       0.0382588 -0.15798861 0.1748245 0.007325442
0002d0 46 ff 16 3e d6 56 17 3e c8 0e 0f 3e e9 ac 81 3e
       0.14745817 0.14779219 0.13970482 0.25327232
0002e0 06 2c 6f 3c d6 8f a3 3c 9a 66 11 3d e5 f8 03 bb
       0.014597898 0.019966047 0.03549824 -0.0020137366
0002f0 f7 8d 61 bd 8e a3 e7 3c 06 8f b5 bc 1f fb 29 3e
       -0.05506703 0.028276231 -0.022162925 0.16599701
000300 11 3f f0 bc aa 6d 1a 3e 63 66 98 bc 4a 1a f0 bc
       -0.029326947 0.15080896 -0.01860351 -0.02930941
000310 c2 a8 69 3c 5f 6e 7f 3c 1f 4b d7 3d 67 c4 69 3b
       0.014261426 0.015590279 0.10512375 0.0035670043
000320 10 77 8b 3e 23 f1 1c bd 84 0f 6c 3e c3 a4 42 bd
       0.27239275 -0.038315903 0.23052794 -0.04752041
000330 55 18 bc 3d 55 50 b4 3d 50 b9 31 3e 1a d0 34 3c
       0.091843285 0.088043846 0.17355847 0.011035943
000340 4a d1 bf bc e9 5d 30 3e c4 ce 11 3e 6c 03 23 3d
       -0.023415226 0.17223324 0.14239031 0.039798185
000350 a4 36 1c bd af 55 3d bc 68 29 78 3e 03 47 e8 3c
       -0.038138047 -0.011556073 0.24234545 0.028354174
000360 40 bd ef bc 34 39 85 3e 4f 3b 58 3e 1d 86 c1 3c
       -0.029265046 0.26020205 0.21116374 0.02362352
000370 6b 2f 09 bd 56 f2 38 3e ad d3 73 bd e6 08 88 bc
       -0.033492487 0.18061194 -0.05952804 -0.016605806
000380 90 9c 0d 3d c9 d4 2d 3e 65 36 ad 3d a9 9b 34 3d
       0.034573138 0.16975702 0.084576406 0.04409376
000390 52 a5 0c bd 38 1f 2e bc 5f 7e 3a bd 7c be 25 3e
       -0.03433735 -0.01062756 -0.045530673 0.16185945
0003a0 d5 3e c1 bb cc 9d 93 3e 97 62 40 3d 02 e2 82 3e
       -0.0058973827 0.28831327 0.046969023 0.25563055
0003b0 85 d4 53 3e 24 0d 8f 3e a0 4b 0f 3d e7 5f 2a 3e
       0.20686539 0.27939713 0.03498423 0.16638146
0003c0 62 9f 18 3d 13 15 c6 3b 5f 82 58 3e b5 3f 06 3c
       0.037261374 0.0060449927 0.21143483 0.0081939
0003d0 04 87 00 3a 54 0c 34 3e 64 f9 1f bd f5 0f 40 bd
       0.00049029314 0.17582828 -0.039056197 -0.046890218
0003e0 51 ab 37 3e f8 3e 00 3d 3f 66 87 3e b0 ee 1f 3e
       0.17936446 0.03131005 0.26445195 0.15618396
0003f0 58 62 1a bd 98 80 42 bd 40 34 99 bc 57 0a 63 3e
       -0.037691444 -0.047485918 -0.018701673 0.22171913

linear_stack.4.weight f4 [5, 400]
000000 3d 84 ff bc 14 04 00 bd c5 4d 03 3e 09 a6 12 bc
       -0.031190986 -0.03125389 0.12822635 -0.008950719
000010 f7 24 37 3e df 97 d7 bc 59 a0 ce bb 54 0a 27 3e
       0.17885195 -0.026317535 -0.006305736 0.16312534
000020 8a af d5 3c 2d c9 5b 3e 8d 0d 32 3d bb 02 f1 bc
       0.02608468 0.21463461 0.043469954 -0.029420247
000030 cd ee a0 3b bb 30 6a 3e 42 e1 2a 3d c3 00 c3 3e
       0.00491128 0.22870152 0.04171873 0.3808652
000040 c5 dd d1 3d 73 68 fe 3b 6b f6 a2 bc 86 8b 0a bd
       0.10247377 0.007763916 -0.019892892 -0.033824466
000050 42 28 48 3e 0b 0d 5e 3b ef ff 62 3e 5a e8 4e 3e
       0.19546607 0.0033882286 0.22167943 0.20205823
000060 0e 4f 2c 3e 1a 10 43 bb 3b 14 46 bd 7c 5d 8e bb
       0.16827032 -0.0029764236 -0.048359137 -0.0043446403
000070 15 6c c9 3e 34 35 24 3e 8d 0d 09 3d 20 82 0b 3c
       0.39340273 0.1603592 0.03346019 0.008514911
000080 35 f6 05 bd 1a 4d b4 bc e1 bd e5 bc 42 13 24 bd
       -0.032705504 -0.022009421 -0.028044643 -0.04005743
000090 82 4e 62 3e 0a 2e d3 3c fc ba 44 bc 80 f8 7e bb
       0.22100261 0.02577879 -0.012007471 -0.0038905442
0000a0 87 fd 89 bc bc f2 a9 3c 94 7d fc 3c 68 31 89 3e
       -0.016844524 0.020745628 0.030821599 0.26795506
0000b0 64 56 01 3e 8d dd b4 3d 52 04 26 bd ff 62 2e 3e
       0.12630612 0.0883132 -0.040531464 0.17029952
0000c0 b1 a2 78 3e 37 f6 74 3e c5 dc 27 3d e1 ff fb 3c
       0.24280812 0.23922049 0.040982027 0.030761661
0000d0 3c f4 73 3d 66 10 23 3e d1 b8 19 bd a3 c2 3f bd
       0.059559092 0.15924224 -0.03752977 -0.04681648
0000e0 b2 69 2d bd 7e 34 04 3f 00 ee 15 bd 87 65 f3 bc
       -0.042337127 0.51642597 -0.036603928 -0.029711498
0000f0 f6 c7 56 bc 1a 3c 6d 3b b8 8e 0c 3d 59 ca cd 3d
       -0.013109198 0.0036199153 0.034315795 0.100483604
000100 dd 1e 14 bd 22 5a e6 3d a5 9e 18 3e 73 98 34 3d
       -0.036162246 0.1124766 0.14904268 0.0440907
000110 4e 9d 28 3e 41 4b 98 bc ca 5d a2 bc da c2 a3 3c
       0.16466257 -0.018590571 -0.019820113 0.019990373
000120 4b 55 50 3e 07 97 8e 3c a1 20 2c be b5 32 11 3e
       0.20345037 0.017406 -0.16809322 0.141795
000130 87 25 7b 3e 5b 39 11 3e 79 f6 87 3e cb cd b4 3d
       0.24526034 0.14182036 0.2655523 0.088283144
000140 41 53 00 3e 6d e0 2a 3c 52 4e 6b 3c 88 04 65 3e
       0.12531759 0.010429484 0.014361935 0.2236501
000150 ba 07 16 bc 3e 53 0a 3e 9a 6b 16 3e f3 63 2f bc
       -0.009157116 0.13508317 0.14689484 -0.010704982
000160 05 5b ed 3d d0 49 dc 3d d3 ea 4a 3c f3 c8 b9 38
       0.11589626 0.10756266 0.012385088 8.858917e-05
000170 41 99 03 bf 77 bf f1 bc 05 a0 2a 3e e1 ca d9 bc
       -0.5140572 -0.029510243 0.16662605 -0.026585998
000180 f7 23 03 bc a3 1c a1 3c f9 d7 7c 3e fc 0f a3 be
       -0.00800418 0.019666975 0.24691762 -0.31848133
000190 4f e8 4a 3e cf 75 a0 3d 42 88 91 bc a8 1a 07 3d
       0.19815181 0.0783497 -0.017765168 0.032984406
0001a0 3d 1e b6 bc 93 8c de 3c f6 74 bc 3d 96 f6 ab 3c
       -0.022231216 0.02716664 0.09201996 0.020991605
0001b0 eb 06 f9 bc 67 e0 4f 3b ea 80 ab bc af d3 15 bd
       -0.030398807 0.0031719448 -0.020935494 -0.03657883
0001c0 4f 8f 93 3e 75 9a 42 bd c0 29 88 bc a4 06 27 3d
       0.28820273 -0.047510583 -0.01662147 0.040777817
0001d0 e3 a9 9a 3c 27 c4 73 3d 4b 32 d6 3d a3 9d 2c 3e
       0.018879836 0.059513237 0.10458811 0.16857009
0001e0 67 18 08 3e 52 62 30 3e 33 7d 12 3e ed 21 f8 be
       0.13290559 0.17225006 0.14305572 -0.48463383
0001f0 94 17 81 3d ed 6b 02 3d 9d 76 35 3e b8 87 05 3d
       0.06303325 0.031841207 0.17721029 0.032600135
000200 9a fc 81 3e ca 2c 42 bd e0 20 e4 bc b6 0b 0c 3e
       0.25388032 -0.047405995 -0.027847707 0.13676342
000210 e6 39 e1 3d d0 52 48 bd 24 dc 04 bd 05 83 42 3e
       0.109973714 -0.0489071 -0.032436505 0.18995292
000220 f7 fc c8 3c b8 b0 4f bc 33 fd 1c 3e 3a 85 26 3d
       0.024534686 -0.01267641 0.15330963 0.0406544
000230 9a bc 4e 3e 25 53 dd be 00 3c 60 bb 88 b5 68 3e
       0.20189133 -0.43227497 -0.003421545 0.22725499
000240 0d 9f 91 bb 69 05 15 3d d2 13 d0 bc 94 04 69 3e
       -0.004444009 0.036382113 -0.025400076 0.22755653
000250 cd 92 fd 3b 5f 2e 7b 3e 42 c5 f6 3d 93 45 0e 3e
       0.0077384473 0.24529408 0.12049343 0.13893728
000260 ac ee 33 3e ec c3 c4 bc 87 84 04 bc 39 55 64 3d
       0.17571515 -0.024019204 -0.008088238 0.055745337
000270 60 23 95 3e 66 26 26 bf 70 12 45 3d 55 a5 0b bd
       0.2912855 -0.6490234 0.048113286 -0.03409322
000280 5f fd 34 3e 83 5d b9 39 23 64 38 bd 64 47 38 bd
       0.17674778 0.0003535562 -0.045017373 -0.04498996
000290 f4 35 13 3e e3 ab ea bd 1a ab 0b 3b f0 2a f2 3c
       0.1437605 -0.11458566 0.0021311701 0.02956149
0002a0 ff b5 19 bd 16 e8 25 3e 33 c7 b0 bc 74 ca 22 3e
       -0.03752708 0.16201815 -0.02157936 0.15897542
0002b0 9c c2 95 3e fa 89 2b 39 df 78 d9 be 6e bc b7 3d
       0.29250038 0.00016359231 -0.4247503 0.08971487
0002c0 1a cd c5 3c 6b 0b 65 bd c1 b1 57 3e 56 f5 0f 3d
       0.024145652 -0.055919092 0.21063901 0.03514608
0002d0 9e a1 37 3e 0a 65 21 3e f5 8d 39 3e 0f f6 ab 3e
       0.17932746 0.157612 0.18120559 0.33586165
0002e0 50 2e 30 3d cb 70 1c bd 1a c2 bf bc 7e 4c 2b bd
       0.043012917 -0.038193505 -0.023407985 -0.041820996
0002f0 9f c5 37 3d 6d b8 01 bd c2 90 32 bd a1 86 57 3e
       0.0448662 -0.031670023 -0.043595083 0.2104745
000300 5d b2 1d bd 21 13 d7 3d b3 35 33 bb 10 13 84 bc
       -0.03850018 0.105016954 -0.002734524 -0.016122371
000310 00 e5 00 3d ff 3b 55 bc 27 de 6b 3d 58 82 21 bd
       0.03146839 -0.013014792 0.057584908 -0.039430946
000320 47 78 42 bd 00 84 8f 3c 8b 0e f9 3e cd de 16 3c
       -0.047477987 0.017518997 0.48643908 0.009208393
000330 72 a5 09 3e 41 50 9c 3e e9 f1 d1 3d 40 2f 5c bc
       0.13442019 0.3052998 0.10251219 -0.013439
000340 ad 15 d2 bc ce 95 58 3e 9d 9d 68 3e 5f 76 35 3d
       -0.025645101 0.21150896 0.22716375 0.04430234
000350 fa 28 e6 bc 53 5b 6f bc 92 50 36 3e 64 2c ba bb
       -0.028095711 -0.014609176 0.17804173 -0.0056815613
000360 5a 4b cb 3c e3 26 ae 3e 27 19 cc 3d 80 09 ff 3c
       0.024816204 0.34014043 0.09965735 0.03113246
000370 49 50 04 bd 90 3e 59 3e 7a b9 c5 3c ad 80 8b bb
       -0.03230313 0.21215272 0.024136294 -0.0042572827
000380 57 aa ac bc c5 97 10 3e fe 07 08 3e d9 bf 1c bd
       -0.021077318 0.14120395 0.13284299 -0.038268898
000390 e7 77 79 3c dd ec 4f 3d fd 64 21 3d f2 b3 c0 3d
       0.015226341 0.050763 0.03940295 0.09409322
0003a0 3d b5 fc bc ed 1d 53 3e ad fc 79 bc 91 61 e5 3d
       -0.03084814 0.20616885 -0.0152579965 0.1120025
0003b0 3f b9 62 3e dd c6 6e 3e b3 39 70 bb e1 74 22 3d
       0.22140978 0.23318048 -0.0036655485 0.039662246
0003c0 ab 6b ff 3b 81 6e ad bc e2 f5 8c 3e 5b a9 e4 bc
       0.0077948174 -0.021170856 0.27531344 -0.027912786
0003d0 53 83 20 bc 5f d4 68 3e 9c 0b bc 3c ba 8e 7f 3c
       -0.009796935 0.22737263 0.022954755 0.0155979935
0003e0 33 f2 1d 3e 16 08 ee bc 1b b3 c4 3e 8e aa 0e 3e
       0.15424423 -0.02905659 0.38417897 0.13932249
0003f0 80 05 4f bc 30 fd 67 bc d3 30 31 bc f0 c9 bd 3e
       -0.012635589 -0.014159486 -0.010814863 0.3706813

linear_stack.4.bias f4 [5]
000000 f2 03 19 3e 91 f3 96 3e 02 bc 5e bd 54 3a 71 3e
       0.14942911 0.294827 -0.054378517 0.23557407
000010 c3 48 ac bc
       -0.02103079
