data/U2_new/model_UAV_1.pth (torch, 660400 bytes, 6 tensors)

linear_stack.0.weight f4 [400, 4]
000000 cb e2 76 be d6 14 8b 3e db d7 ce 3e 04 1d dd 3d
       -0.24109952 0.27164334 0.4039906 0.1079655
000010 d1 9d 7e bd 58 24 fb 3d e6 2e 0e be a1 e6 bf 3e
       -0.062162224 0.122627914 -0.13885078 0.37480643
000020 3c 79 72 3e e6 c9 26 3e 93 04 35 3f 99 8e d9 bd
       0.2367906 0.16287956 0.70710105 -0.106229015
000030 1e f6 80 3e 90 6c 58 bd cd 4b 38 3e 8e 81 83 3c
       0.25187773 -0.05283791 0.17997666 0.016052987
000040 41 25 77 bc a9 c3 a8 3d 7a d2 68 bd 30 5d 3b bd
       -0.015084566 0.08240444 -0.05684135 -0.045743167
000050 d2 4f 8c 3e c8 d1 25 3e bc 05 98 3e e5 9f 8d 3d
       0.27404648 0.16193306 0.29691875 0.06915263
000060 bf 89 9b be 25 60 13 3f 87 5d 0b bf 0d fb 13 3d
       -0.3037853 0.5756858 -0.54439586 0.036128093
000070 7d fb ed be e1 ab cc 3e 0f b2 0b 3f db 05 04 bf
       -0.46480933 0.39974883 0.5456857 -0.51571435
000080 28 e2 a2 3e 23 22 36 3e d9 45 1c bf 46 28 92 be
       0.3181317 0.1778646 -0.6104408 -0.2854635
000090 57 95 ae 3e 11 b2 70 3d e7 a8 89 3e ac 2c 18 3f
       0.34098312 0.058763567 0.26886675 0.59443164
0000a0 0e bf b0 3d 3a 49 20 3e 24 52 d6 3d ac 25 14 be
       0.08630191 0.15652934 0.10464886 -0.14467496
0000b0 66 c4 ff be f0 62 06 be 93 ef c1 bf 64 13 e1 3f
       -0.49954528 -0.13123679 -1.5151237 1.7584043
0000c0 66 45 fd bd f9 a6 2c 3e be 63 d7 3d e3 87 7b bd
       -0.12366752 0.1686057 0.10517071 -0.06140889
0000d0 a0 ac aa 3e 52 01 b8 be 57 10 c8 3d db f6 64 3f
       0.33334827 -0.35938507 0.097687416 0.8943917
0000e0 2a 7a 01 bf f5 77 c4 bd 9d 81 53 3f 6f 0f 40 3f
       -0.5057703 -0.095931925 0.8261965 0.7502355
0000f0 00 5c d5 bc 80 51 37 be 98 13 da bd ee d8 98 be
       -0.026044846 -0.17902184 -0.106482685 -0.29853004
000100 60 f0 4b be 00 8c 5f 3b 00 dd 72 bd 80 e7 72 3c
       -0.19915915 0.0034110546 -0.059292793 0.014825702
000110 ae 86 e5 be 16 09 9a 3d de e5 c3 be 4e da 83 be
       -0.44829315 0.07521264 -0.38261312 -0.2575249
000120 d2 1e f9 be c8 ba d1 bd 88 01 95 3e 20 57 c6 3d
       -0.48656327 -0.10240704 0.2910273 0.096845865
000130 42 4f 12 bf f1 cc e1 bc 8c 51 8a 3f c2 cd 3c bf
       -0.5715219 -0.027563544 1.0806136 -0.7375146
000140 3c 2b cb bd 98 ed ed ba 10 eb 3f 3f d9 2e 12 3d
       -0.09920356 -0.0018152473 0.7496805 0.03568921
000150 d1 a6 a3 3e 0e ab aa be ff 17 ea 3e ca 3c de 3e
       0.31963208 -0.3333363 0.45721433 0.43405753
000160 38 af 75 bd 03 3b 84 bd aa 8c 82 be 8d 11 03 be
       -0.059981555 -0.06456568 -0.25497943 -0.12799664
000170 a3 f6 43 bd 66 aa 62 3b c9 5d 47 3e 98 25 60 3f
       -0.047842633 0.0034586429 0.1946937 0.87557364
000180 34 b3 db 3e 6e ff 9b bd 0e 56 12 be 51 08 c3 3e
       0.4291016 -0.07617079 -0.1429064 0.38092282
000190 12 b5 04 be ef 4e 8d bd 83 70 8f be 37 ec b9 bf
       -0.12959698 -0.06899821 -0.28015527 -1.4525212
0001a0 e7 4a fc 3c 56 a1 f8 3e b5 fe 5c be 00 16 c1 be
       0.030797435 0.4856059 -0.21581538 -0.37712097
0001b0 cb 75 7a 3e bf 1c a1 be 89 e5 5a 3f 89 32 ff 3e
       0.24458997 -0.31467244 0.8550649 0.49843243
0001c0 e9 e2 eb 3d 78 f7 e6 bd 03 60 3b be 13 bd 16 3e
       0.11517889 -0.1127767 -0.18298344 0.14720564
0001d0 96 56 94 be 72 96 36 bd 9c 7b 01 3f 98 a1 c9 be
       -0.2897231 -0.04457707 0.5057924 -0.393811
0001e0 fd 35 68 3e 45 04 bc 3d 8b 74 ed 3d 43 b5 6f 3e
       0.22676845 0.09180502 0.115944944 0.2340899
0001f0 dc 41 3e 3c 8f 0b 85 3c 42 72 f6 3d 4b 32 e7 3e
       0.011612382 0.016240863 0.12033512 0.45155558
000200 2f 21 5c 3e 6d b9 77 be 04 82 9c be fe 03 e0 3e
       0.21497034 -0.24191828 -0.30567944 0.43753046
000210 7e 14 bd be f2 89 42 3e 3a c9 12 3f 3a 38 85 3f
       -0.36929697 0.18997934 0.573383 1.0407784
000220 23 b4 c2 be 00 d1 a9 3e af 5d 26 3f 84 39 7d bf
       -0.38028058 0.33167267 0.649867 -0.98915887
000230 d5 6d cf 3d 1c cb f9 3e 55 9a 44 bc 9a 67 ab 3e
       0.10128371 0.48787773 -0.011999686 0.3347748
000240 c5 07 68 3e 74 3e 3e be aa 88 e3 3e d2 26 0e 3e
       0.22659214 -0.18578511 0.44440204 0.13881996
000250 a4 4f f2 3d 17 c3 6c bf 7d a8 18 3f 5a 2e cb be
       0.118315965 -0.92485183 0.5963209 -0.396838
000260 40 c8 8b be dc e0 a9 be bc c7 d3 be 90 ac 98 be
       -0.27301216 -0.33179367 -0.41363323 -0.29819155
000270 0d 87 66 bf 40 06 64 bf 63 b6 73 bd e3 52 8d 3f
       -0.9004982 -0.89072037 -0.05950011 1.104092
000280 30 b4 c3 3e 06 56 d1 be 37 19 b1 3e 17 0b 25 3f
       0.3822341 -0.40885943 0.3458955 0.64470047
000290 11 eb 53 3e 89 de 65 3e 8c 46 d8 3d 2f cb 01 bd
       0.2069514 0.22448172 0.10560331 -0.03168791
0002a0 46 6e 41 be 23 ab 06 3f 5b 38 0d 3f 1e 21 9a bd
       -0.18889722 0.52604884 0.55164117 -0.07525848
0002b0 00 71 e4 be 50 0e b0 be 48 cd dc 3e f2 5d e6 be
       -0.44617462 -0.3438592 0.43125367 -0.4499355
0002c0 77 9a 5c bf 4a 13 d5 be 2d 65 a4 3e db ab 26 40
       -0.86173195 -0.4161628 0.3210844 2.6042392
0002d0 0f 52 80 3e fc 91 12 3f 57 92 1f bd 8e b9 8d be
       0.25062606 0.57254004 -0.03895792 -0.2768063
0002e0 c7 15 cc 3d 53 ba e0 3d 87 0c b9 bd 54 73 69 be
       0.09965091 0.109730385 -0.090355925 -0.227979
0002f0 11 dc c9 3e 10 38 30 be 7a b8 5d be a2 0d c4 be
       0.3942571 -0.17208886 -0.21652403 -0.3829165
000300 33 91 80 3e 67 89 88 3e 47 44 97 3e 96 56 2f be
       0.25110778 0.2666733 0.2954428 -0.17122874
000310 76 76 83 be a6 da fb 3d bd 34 fb be ed 10 63 3f
       -0.25676316 0.12297563 -0.49063674 0.886977
000320 55 2c b9 bf 21 fd b7 bc 8b 98 0f 40 d0 82 aa bf
       -1.4466654 -0.022459568 2.2436855 -1.3321171
000330 6a ac 89 be 26 d0 dc be 18 18 fa 3e c0 e4 96 3d
       -0.26889354 -0.43127555 0.48846507 0.07367849
000340 8e ff 7e bd 6f ff 17 3e d5 1e 50 be 26 ad b9 be
       -0.062255435 0.14843534 -0.20324261 -0.36264914
000350 03 37 f9 3d 42 f6 42 be e1 30 ea bd 33 a7 12 3f
       0.12168696 -0.19039252 -0.11435104 0.57286376
000360 b1 ee 6a 3e 30 f9 21 3e 70 59 1f be 8e a6 11 3f
       0.22942616 0.15817714 -0.15561461 0.5689477
000370 0c 55 ec 3e 9b 79 ce bd 87 cf 90 be 6f 0a 84 3e
       0.46158636 -0.10081788 -0.2828333 0.2578921
000380 cd 90 9e 3e c3 3a d7 3c a8 90 a5 3e 67 3e e9 be
       0.3096985 0.026273137 0.32336926 -0.45555422
000390 ef 89 5f bf 70 f7 69 bd b2 f8 aa 3f ce cd 6d bf
       -0.87319845 -0.05712074 1.3357146 -0.9289216
0003a0 42 b9 f3 3d eb 7d bf 3d 67 3d d8 be ca b5 cc be
       0.119005695 0.09350189 -0.42234346 -0.39982444
0003b0 a5 3f 40 be 23 1e 12 3e 2b e4 b6 3d 26 f4 89 3e
       -0.18774278 0.14269309 0.08930238 0.26944083
0003c0 08 c2 9e be c9 4c 66 3e 71 86 ab bd 92 18 0e be
       -0.3100741 0.22490229 -0.08375252 -0.1387656
0003d0 85 f6 83 be d5 c7 0d 3f fd 3e 39 bf 1a ce ed 3e
       -0.25774017 0.55383044 -0.7236174 0.46446306
0003e0 0f a7 dd bc 44 2f 27 bf d5 c7 9e 3e c0 ad b5 3f
       -0.027057199 -0.65306497 0.31011835 1.4193649
0003f0 ff 34 8a bf 3b 0c 89 bf b5 54 69 bf 29 a2 9c 3f
       -1.0797423 -1.0706857 -0.9114488 1.2236987

linear_stack.0.bias f4 [400]
000000 44 48 b7 be ad 92 4c bf 8d 64 e4 be 17 69 0c bf
       -0.35797322 -0.7991131 -0.44607964 -0.54847854
000010 a8 5d 0b bf 9d c2 2d 3f 2f 2d 98 be a5 4d 35 bf
       -0.54439783 0.6787508 -0.29721972 -0.708216
000020 b9 db 4f 3f 5c fe 27 3f 9b 09 d5 3e f5 b0 22 3b
       0.81194645 0.65622497 0.4160889 0.0024824713
000030 eb b1 6d bf c3 f7 bb 3e 60 32 7b 3f 40 ac 1a be
       -0.92849606 0.36712465 0.9812374 -0.1510477
000040 c0 22 59 be 6a 25 17 bf d8 65 9f be 6a 3d 8b 3e
       -0.21204662 -0.59041464 -0.31132388 0.27195293
000050 fd 52 bb bd 97 4a 04 3f cf 39 30 3f de b6 9c be
       -0.09146688 0.51676315 0.6883821 -0.30608267
000060 f3 a5 16 3f 29 c5 4f 3f 11 ee 1f 3f af 34 4a 3c
       0.5884697 0.8116022 0.62472636 0.012341662
000070 23 ad 25 3e 8b e1 da 3e 14 0f 8e be c9 51 24 bf
       0.16179328 0.427502 -0.2774588 -0.64187294
000080 6d b9 34 bf ee 1e 03 3e 32 53 33 bf 1a 74 01 3f
       -0.7059544 0.12804767 -0.7004882 0.5056778
000090 57 f2 d0 3e dc bd a9 3e 0c f3 11 be 97 fd 54 3f
       0.4080989 0.33152664 -0.14252871 0.8319945
0000a0 6a ec 6e 3e 23 76 42 3e 00 f5 18 3f 4e b1 a5 be
       0.23332372 0.18990378 0.5974884 -0.32361835
0000b0 51 53 54 3f f0 eb 42 3f 56 18 ea be b2 8e 0c 3f
       0.8293963 0.7614126 -0.45721692 0.54905236
0000c0 9c e3 10 3f c6 1e 79 3f b8 b2 37 3e d4 89 2b be
       0.56597304 0.9731258 0.1793927 -0.16751796
0000d0 a5 7d e2 be f5 fa c6 3d 4d 15 18 bd ce c2 02 3f
       -0.44236484 0.09715835 -0.03712969 0.510785
0000e0 f8 23 27 3f 20 ca 11 3f 2f 1e 5f bf c8 7c 29 bf
       0.6528926 0.56949043 -0.8715543 -0.66206026
0000f0 e1 5c eb be fb 1e 80 be 31 0f 2b be 77 8b 7f 3f
       -0.45969298 -0.25023636 -0.16705014 0.9982218
000100 94 44 c7 3d 8c 56 e3 3e 65 73 86 be d0 14 07 3f
       0.09729877 0.44401968 -0.26259914 0.5276613
000110 a5 62 66 3f 3b 43 3e 3f 7a 23 1f 3f 3e 6c a8 be
       0.8999427 0.74321336 0.6216351 -0.32895082
000120 61 44 ee 3e 6a 9c 15 3f 30 45 d8 3d a2 43 19 3f
       0.46536544 0.58441794 0.105600715 0.59868824
000130 91 d9 81 bd 53 cb fe be da 5b 0a bf 6f be bf 3e
       -0.063403256 -0.497645 -0.54046404 0.37449977
000140 f7 d7 9e 3f 86 6e b6 bc 24 9d ba 3e 88 ee 94 3b
       1.2409657 -0.022269499 0.36448014 0.0045450367
000150 96 6a 12 3f f9 47 0c 3d da 87 06 bf c0 f1 56 bd
       0.5719389 0.034248326 -0.52551043 -0.052476645
000160 a8 bb f6 3e 90 4c e7 3e 88 18 ff 3e ea 00 20 3c
       0.48190045 0.451756 0.49823403 0.009765843
000170 8f a5 b5 3d e0 17 69 3f f5 90 01 3f e6 11 66 3f
       0.088694684 0.91052055 0.5061181 0.8987106
000180 f6 d2 10 3f 58 03 bc be 0f 62 0e 3f fe 40 12 bf
       0.565719 -0.367213 0.55618376 -0.5713042
000190 50 a3 cd bd 2e 82 90 3f 11 1d 04 bf 46 48 ec 3e
       -0.10040915 1.1289728 -0.5160685 0.4614889
0001a0 3f f0 a8 bc d8 f5 8a be af c3 13 3f bc 0d 56 3f
       -0.02062237 -0.2714069 0.57720464 0.83614707
0001b0 48 20 7a be 78 50 29 bb 96 01 0b 3f c8 cb 1d bd
       -0.24426377 -0.0025835317 0.54299295 -0.03852442
0001c0 70 9a 29 be 7f 95 00 bf 38 62 10 3f 09 0f 33 bf
       -0.1656282 -0.5022811 0.5639987 -0.69944817
0001d0 1d 09 16 3f 3e f4 aa be be 39 8e 3f d5 3e 84 be
       0.58607656 -0.33389467 1.1111372 -0.25829187
0001e0 62 54 e4 3e 39 c2 f8 3e 41 70 29 3f 35 89 3a bf
       0.4459563 0.4858568 0.6618691 -0.7286561
0001f0 a6 b9 4b 3f bf 1c 21 3f 68 14 20 3e 9e 55 cf be
       0.7958015 0.6293449 0.15632784 -0.40495008
000200 fa c0 70 be 36 6a 91 be 51 2a 10 3f 82 26 95 be
       -0.23511115 -0.28401345 0.5631457 -0.29130942
000210 03 f5 0c 3f 73 c1 d7 3e 23 22 61 3f ef 12 d0 3e
       0.5506136 0.42139778 0.87942713 0.40639445
000220 20 cf 86 3f 4c 16 08 bf 99 78 99 3e b4 06 01 bf
       1.053196 -0.5315902 0.2997482 -0.50400853
000230 25 d5 1f bf 6e 67 4d bf ab 96 91 3e 54 48 22 be
       -0.6243461 -0.80235946 0.28435263 -0.15847903
000240 69 3c 3b 3e 7d a8 2e 3f a4 e2 bb be 06 b5 99 be
       0.18284763 0.6822584 -0.3669635 -0.30020922
000250 5d ae 3f bf 3c eb 33 bd 7d 04 71 3f 9a 5d 6f 3f
       -0.7487543 -0.04392551 0.94147474 0.935022
000260 cf 7c 31 3f 34 05 08 3f 18 d3 d4 bd 62 56 6d 3f
       0.6933107 0.5313294 -0.103918254 0.92709935
000270 27 7d 37 3d 26 38 48 bd b7 1b 50 3f 5f 6e 36 bf
       0.04479709 -0.048881672 0.8129229 -0.7126216
000280 ef a2 41 3f 42 04 bf bd 2f fb 36 3f 6c 43 2c bf
       0.7563924 -0.09326984 0.71477026 -0.6729038
000290 b1 b0 b6 3e e3 d3 cc be 00 85 00 be 2c 3d fe 3e
       0.3568168 -0.40005407 -0.12550735 0.49656045
0002a0 76 7f e7 bd 0b 87 2c bf 62 c9 aa be 3e 96 74 3f
       -0.11303608 -0.6739356 -0.33356768 0.9554175
0002b0 16 12 4e bc 20 82 09 bd c3 9c aa bd a2 ea 80 3d
       -0.012577554 -0.033571362 -0.08330681 0.06294753
0002c0 14 8e d8 be 2f b0 06 3f b0 ab 5a be c2 c1 2f 3f
       -0.42295897 0.52612585 -0.21354556 0.68655026
0002d0 cb 8b 4b bf a1 ef 3f 3f 9d ba 56 3f f0 f8 05 3f
       -0.7951018 0.7497502 0.838785 0.52332973
0002e0 10 8a 03 3e 77 35 8b 3f 58 ad 3a 3f 2d cd 60 3f
       0.12845635 1.0875691 0.7292075 0.87813073
0002f0 5c 31 0d 3e eb 58 93 3f 06 d1 a0 be 0c 75 16 bf
       0.1378836 1.1511511 -0.31409472 -0.5877235
000300 bd 6a 0f be 1b a8 22 3f 58 11 b2 be d2 ca ab be
       -0.14005561 0.6353776 -0.34778857 -0.33553177
000310 86 05 c3 be a8 e6 c0 3e a2 89 69 3e d8 fc 02 3f
       -0.38090152 0.37675977 0.22806409 0.5116706
000320 26 c3 c4 be fb 8d a9 3e 02 24 ad be 3e c0 35 3f
       -0.38430136 0.33116135 -0.33816534 0.70996463
000330 77 f7 cf 3e 45 84 c2 bc 52 5c e1 3d 9d 4e 31 bf
       0.40618488 -0.023744712 0.11003937 -0.6926058
000340 e1 d6 89 3f 9c 9b bd 3d bc 57 37 3f c8 dc 86 3e
       1.0768701 0.09258196 0.7161825 0.26340318
000350 1a a0 0c be 6f dd 90 be 84 9a a1 bd 94 d0 18 be
       -0.13732949 -0.2829394 -0.078908 -0.14923316
000360 08 d4 1b 3f 5f 22 0e 3f 56 18 71 3f 58 5b 18 be
       0.6087041 0.55521196 0.9417776 -0.14878595
000370 88 58 3d bf 4d a5 93 3f 5a 0e 60 bf 5f a8 34 bf
       -0.7396321 1.1534821 -0.875219 -0.70569414
000380 82 96 b6 3e b8 67 45 3f 48 5a f2 bd f6 2a b4 be
       0.35661703 0.7711139 -0.11833626 -0.35189027
000390 2e 28 5e bc c5 83 41 bf 3a 56 8a 3e d2 b3 2f 3f
       -0.013559384 -0.7559169 0.2701891 0.6863376
0003a0 65 21 6d 3f 99 6b 5a 3f 3c e7 28 bc 74 75 20 bf
       0.9262908 0.8532043 -0.010309037 -0.6267922
0003b0 85 e3 93 3f a3 e9 33 3f 9d dc b4 be 03 28 0b bf
       1.1553808 0.70278376 -0.35324565 -0.5435793
0003c0 de 09 e6 be b5 45 2c bf 69 76 cb 3e 03 c2 3d 3f
       -0.44929403 -0.67293864 0.39738777 0.74124163
0003d0 bf 89 21 3f 09 2e 15 bf d5 4d 14 3f c4 42 23 3f
       0.6310081 -0.5827337 0.5793126 0.6377375
0003e0 24 19 82 3f 53 02 ee 3e a4 2a 09 3f 1c 1e 8e 3e
       1.0163922 0.46486148 0.5358069 0.27757347
0003f0 7a 28 03 3f 64 8d 8a 3f 6c e2 f7 3e 04 17 54 bf
       0.5123364 1.0824399 0.48414934 -0.8284762

linear_stack.2.weight f4 [400, 400]
000000 c0 f8 15 bd cd bc 9e bc 00 c6 b1 ba b5 aa d1 bc
       -0.03661418 -0.019377137 -0.0013563037 -0.025594095
000010 d4 0c 18 3d 9c c0 29 3c 50 08 84 3c b7 ef 9b 3c
       0.03712161 0.010360863 0.016117245 0.019035203
000020 17 65 86 bc ad ea 2e bd 0e f7 1e bd cb b9 29 3c
       -0.016405625 -0.042704273 -0.03880983 0.010359238
000030 20 90 4e bc 16 1f d2 bc 1f 24 cc bc 5b 37 00 3d
       -0.012607604 -0.025649589 -0.024919568 0.03130279
000040 03 7f 8b bc 39 23 8b 3c 40 41 22 bc 8c dd 80 3c
       -0.017028337 0.016984569 -0.009903252 0.015730642
000050 32 ed 28 bd 0b db 61 3c 16 aa 07 3c 9b 07 e2 3b
       -0.041241832 0.013785134 0.008280298 0.0068978793
000060 8d 98 eb 3c 58 05 34 bd 86 4c 10 3c 61 ce ae 3c
       0.028759265 -0.04395041 0.008807307 0.021338644
000070 ec 21 41 3c 95 8e 2f 3d 31 f6 19 bd 7e 36 19 3d
       0.011787873 0.042860586 -0.037588302 0.037405483
000080 09 f5 6c 3c 00 ef 0a 3b 67 47 ca bc e7 2e ff 3c
       0.014462718 0.0021199584 -0.02469225 0.031150294
000090 89 b1 11 3d 62 a2 45 3d 2d e2 fb 3c 42 62 67 3c
       0.0355697 0.048250563 0.030747497 0.014122548
0000a0 12 4a 06 bd ae a1 5f bb c3 f1 04 3d 33 7f 5e ba
       -0.032785483 -0.0034123468 0.032457124 -0.0008487582
0000b0 5b 64 93 bc c9 61 19 3d 51 33 99 39 35 22 df bc
       -0.01799219 0.03744677 0.00029220668 -0.02723799
0000c0 36 9f 88 3b 6c b3 1b bd 87 c0 2a bd e7 b9 59 3b
       0.00416937 -0.038012907 -0.041687515 0.0033222379
0000d0 bd 64 11 3c bc cb 14 3d f5 92 17 3d 43 ef 4a bd
       0.0088741155 0.03632711 0.037005384 -0.049544584
0000e0 a7 8c 6a bc e0 5a e8 3c ce 9e 63 3c 40 5e b2 3b
       -0.014315761 0.028363645 0.013892842 0.0054433644
0000f0 5e 64 44 bd 4f fb 1d bd 05 3f c8 bc 48 aa 33 3d
       -0.04794728 -0.038569745 -0.024444113 0.043863565
000100 70 f2 8a 3c ec c8 bd bc d3 1e c0 bc 09 d8 6a 3b
       0.016961306 -0.023167096 -0.023452198 0.0035834333
000110 b8 2c 64 3c b1 dd 82 bb 10 72 f5 bc 17 23 88 3c
       0.013926677 -0.003993713 -0.029961616 0.016618295
000120 6e 19 fc 3c c5 a2 28 3d 0e d9 be ba ae e3 ee 3c
       0.030773845 0.041170854 -0.0014560537 0.0291613
000130 a8 de fe bc 9a 04 f0 bc d0 23 87 3c 48 51 a1 3c
       -0.03111203 -0.02929907 0.016496569 0.019692078
000140 3a ea 25 3d cc 8c 7d bc 44 be 26 bd e1 78 16 3d
       0.04050658 -0.015475463 -0.040708795 0.036736373
000150 24 c0 fe bc b4 54 59 bd a7 d9 e5 bc 7d f1 a5 bc
       -0.03109748 -0.053059295 -0.028057886 -0.020256752
000160 23 5d 2d 3d ad 99 15 3b 79 97 1e 3c 03 6d 46 bd
       0.04232515 0.0022827194 0.009679669 -0.048443805
000170 f3 5f 85 3c b7 49 11 bd ee 06 3e bd 10 13 de ba
       0.016281104 -0.03547069 -0.046393327 -0.0016942937
000180 d1 db ae 3c 60 2b 6b 3c 64 55 23 bd b9 64 5d bd
       0.021345051 0.014353603 -0.039876357 -0.054051135
000190 80 25 76 3c 2b 55 1f bd bb 9a 43 3d fb dd cb ba
       0.015023589 -0.038899582 0.047754984 -0.0015553826
0001a0 e2 03 19 bd c0 3c 3e bc ac 3e 38 bd 04 43 2c bd
       -0.03735722 -0.011611164 -0.044981644 -0.0420561
0001b0 85 d2 06 bd 09 4f a1 3a 5a d8 ce 3b 12 ae 73 3b
       -0.03291561 0.001230688 0.006312412 0.0037182611
0001c0 7e ea 2e bc 46 54 28 3c 2f b7 b3 bc 68 ea d0 3c
       -0.0106760245 0.010273999 -0.021937935 0.025502399
0001d0 12 f3 fc 3c e7 e8 ec 3c 73 57 3a bc 67 d6 a5 bb
       0.030877624 0.02891965 -0.011373389 -0.005060959
0001e0 5c 78 d6 bb 46 7f 0c bd d3 67 19 bb d3 43 26 3c
       -0.0065451097 -0.034301065 -0.0023407831 0.0101480065
0001f0 a9 6f bc bc 9c ef e8 3c 4b 26 03 bc 96 e8 c6 3c
       -0.023002462 0.028434567 -0.008004735 0.024280827
000200 a5 d2 cf 3c 9a 6a 2a 3d 81 f1 26 3d 67 55 85 bc
       0.025368998 0.04160557 0.04075766 -0.016276075
000210 80 34 8c 3c 75 46 11 3d 13 cb 3a 3b 30 bd 0d 3d
       0.017114878 0.035467584 0.002850239 0.03460425
000220 9d 89 5a 3c da 77 86 bc a5 08 43 3c 97 01 25 3d
       0.013338474 -0.016414572 0.0119039165 0.04028472
000230 87 be a9 3c a7 02 2a 3c ce 08 46 bd 5a de bf bb
       0.020720733 0.010376609 -0.04834824 -0.005855364
000240 10 bd d4 bc c2 29 8e 3c b0 66 d1 bc 9f e0 28 bd
       -0.025969058 0.017353896 -0.02556166 -0.04122984
000250 6a fa 1a 3d e1 55 03 3d 72 2f 9b 3c b2 5a f0 3c
       0.03783647 0.032064322 0.018943522 0.029340122
000260 d4 54 11 bd 15 30 12 3d 1d dc e5 bc a1 8e 27 bd
       -0.03548129 0.035690386 -0.02805906 -0.040907506
000270 d3 3f d7 bc ca 4b 9c bc 31 7f a7 bc 7b bd 31 bc
       -0.026275551 -0.019079108 -0.020446392 -0.010848398
000280 26 1f a8 3c a7 be 50 3a 44 f5 39 3d 73 34 44 bc
       0.020522665 0.000796298 0.04539992 -0.0119753955
000290 e8 1d 32 bc 8d 3d 96 bc 4a 69 12 bd 52 74 15 bd
       -0.010871388 -0.018339897 -0.035744943 -0.036487885
0002a0 e3 03 d7 3c da eb f5 bc 67 44 8d 3b fd 08 07 bd
       0.02624697 -0.03001969 0.0043111327 -0.032967556
0002b0 17 b8 1f bc f0 ca e2 bc 3e 47 0e bd 2a aa 40 3c
       -0.00974848 -0.027684659 -0.03473591 0.01175932
0002c0 b3 0a f4 bc eb 63 6c 3c dd 39 ba bb e2 4e 4b bc
       -0.029790258 0.014428119 -0.0056831674 -0.012408944
0002d0 b3 8c fa bb c2 f8 ee bc dd 6e e3 bc ab f3 88 3c
       -0.007646167 -0.029171351 -0.027762825 0.016717752
0002e0 e3 75 c6 bc 17 51 0a 3d 86 2f 6a 3c 92 c7 1a 3d
       -0.024226135 0.03376874 0.014293557 0.03778798
0002f0 b9 8d 76 3c df 63 bf 3c 33 78 d8 bb 38 a9 26 3d
       0.015048438 0.023363052 -0.0066061257 0.040688723
000300 1b 2c 49 3d 01 09 b9 3c 03 95 16 bd 2d eb 24 bd
       0.049114328 0.022587301 -0.036763202 -0.040263344
000310 40 6e 9e 3b 8f 09 e3 bc 45 c3 f8 bc d9 de 52 bd
       0.00483492 -0.027714519 -0.03036655 -0.051482055
000320 d0 6e c6 bb fc c7 15 3d 07 ac 2c 3c b6 25 b4 bc
       -0.0060556903 0.036567673 0.010539061 -0.021990638
000330 8f bd f5 bc df df 24 bd 0a 9a e1 3c d6 16 99 bc
       -0.029997615 -0.040252563 0.027539272 -0.018687647
000340 fe 8c 85 bc 3e 0e 27 3d f3 d2 af 3b 68 54 1b bd
       -0.016302582 0.040785067 0.0053657233 -0.037922293
000350 ea 66 8b 3c 78 6d 0f bd b3 8c 6a 3c 57 0d 8b bc
       0.017016847 -0.035016507 0.014315772 -0.016974134
000360 62 e0 e7 3c d0 0c 29 3d ea c3 a8 bc 13 8f 19 3c
       0.028305236 0.041271985 -0.020601232 0.00937249
000370 93 7e aa 3c df 0c 1b 3d 3a 43 f2 3b a6 7e 0c bc
       0.020812308 0.03785407 0.007393268 -0.008575117
000380 e6 b4 a4 3b 93 86 0f bd c8 d5 40 3d 67 a3 bd 3c
       0.0050264476 -0.03504045 0.047078878 0.023149205
000390 7c ce 0a 3c 0a 21 09 3d 6d da 43 3d 91 0f 00 3d
       0.008472081 0.033478774 0.04781573 0.031264845
0003a0 1e 09 89 bc 31 25 53 bd 3c 78 d2 bc cf ec 0e bd
       -0.01672798 -0.05154914 -0.025692098 -0.034893807
0003b0 fb 29 16 3d 4f db c8 bb fd e5 e0 3c 16 ff 1a bd
       0.03666113 -0.0061296592 0.027453417 -0.037840925
0003c0 b8 5e 13 bd cc 65 98 bc b8 51 31 bd e4 a8 ba 3b
       -0.035979003 -0.018603228 -0.043290824 0.005696403
0003d0 d9 67 99 3c 80 a0 46 bd c2 75 95 3c b5 dd 86 bc
       0.018726276 -0.04849291 0.018244628 -0.01646314
0003e0 cc a2 39 3d 89 17 9c bc b5 91 03 bd 59 15 6b 3b
       0.04532127 -0.019054191 -0.03212138 0.0035870878
0003f0 10 f1 35 bc 84 19 f0 3c 08 1c 03 3c 48 69 1c bc
       -0.011104837 0.029309042 0.008002289 -0.009546585

linear_stack.2.bias f4 [400]
000000 66 28 4b bd 18 a5 03 be de 25 13 bd f9 17 7c 3c
       -0.049599074 -0.12855947 -0.035924785 0.015386575
000010 da 1d 6e 3e cb ca 0a 3e c5 94 58 be 79 94 39 3e
       0.23253575 0.13553922 -0.21150501 0.18123044
000020 b8 6b bc ba 75 ea 81 3c 2a 0a 1d 3d 54 8c 1e 3e
       -0.0014375364 0.015858868 0.03833977 0.15483218
000030 3d 8c 90 bc bc 85 aa 3e 9f a6 41 3e b6 15 83 3e
       -0.017644996 0.33305156 0.18911217 0.25602502
000040 42 19 73 3e 2e 33 d1 bc fd 83 29 3d 8c 23 04 3e
       0.23740104 -0.0255371 0.04138564 0.12904185
000050 df 38 68 3a a7 1b b8 3c 8a 41 92 bd 34 62 5a be
       0.0008858572 0.022474123 -0.07141407 -0.21326524
000060 f9 a6 b6 3d 2e 70 6c 3e 66 66 d8 3c df 9e 24 3e
       0.08918566 0.23089668 0.026416015 0.1607623
000070 05 04 28 3e 51 a8 27 3e df ee de 3d a2 5c 93 3e
       0.16407783 0.16372801 0.10885405 0.2878161
000080 47 b0 84 3c d3 e1 2e be b7 2a 3e 3d 4b 03 69 3e
       0.016197337 -0.17078333 0.046427455 0.22755162
000090 d1 76 24 3e 09 0b 4f 3e fa 94 52 be 7b ed 78 3e
       0.1606095 0.20219053 -0.20564643 0.24309342
0000a0 d1 5e 2e 3e 47 2b 04 bc ab 38 19 3e 73 3f ae 3c
       0.17028357 -0.008066959 0.14963023 0.02127049
0000b0 e9 90 5f 3c fe 6d e5 3d a6 c9 61 bb 2e 9a 6f 3e
       0.013645389 0.1120262 -0.0034452467 0.23398659
0000c0 59 53 8d 3e fc 56 54 3e ef bf ac b9 80 14 6b be
       0.27602652 0.20736307 -0.00032949398 -0.22957039
0000d0 bf 4e b3 bc d3 77 2d bd 27 82 44 3e 6c a8 7a 3e
       -0.021888135 -0.0423506 0.19190274 0.2447831
0000e0 3e a6 2e 3e f4 6a 11 bd ab 98 1e be 38 e2 84 3e
       0.17055604 -0.03550239 -0.15487926 0.2595384
0000f0 28 3c 4b bd 87 7c 08 3e 30 0a c8 bc c8 96 17 3d
       -0.049617916 0.13328753 -0.02441892 0.03700903
000100 ed 0f 21 3d c0 00 5b 3e 08 25 5d bd 26 fc 62 3e
       0.03932183 0.21387005 -0.053990394 0.221665
000110 1c d0 67 3e 7f ac 88 bb 7a 8f 37 3d 18 9b 5a be
       0.22637981 -0.0041709538 0.044814564 -0.21348226
000120 6c 81 4d 3e 37 f9 33 3d e6 2c e5 3c 0f e9 25 be
       0.20068902 0.04393884 0.02797551 -0.16202186
000130 67 8a 3a 3c 69 0e 00 be d8 1e 22 bd 83 3b 18 3e
       0.011385537 -0.12505497 -0.039580196 0.14866452
000140 76 50 45 bd 43 ab e4 3c 39 24 d5 3c bb 23 26 3e
       -0.048172437 0.027913695 0.026018249 0.16224568
000150 06 25 70 3e ec 2b c5 bc f7 62 21 3e a4 b4 15 bd
       0.23451623 -0.024068795 0.15760408 -0.036549225
000160 ca 56 80 3e 29 27 3b bd 04 d3 37 be 86 ee 6d 3e
       0.25066215 -0.045691643 -0.1795159 0.2323552
000170 ef 0f 10 3e d7 81 64 3e f1 3e 07 be 7f 0e 5e 3e
       0.14068578 0.22315155 -0.13207604 0.21685217
000180 52 17 34 bd 5f e4 04 3d f1 f4 8e 3e ed ab 1d 3d
       -0.043967552 0.032444354 0.2792125 0.03849404
000190 50 c4 c6 3c 6f 9d 37 3c 7c 95 48 3e 4b b9 ff ba
       0.024263531 0.011206969 0.19588274 -0.0019510178
0001a0 06 9f 48 be ce 2e 65 3e 59 63 18 be 5a 1f 85 3b
       -0.19591913 0.22381136 -0.14881648 0.0040625753
0001b0 bf b6 e4 3d 65 f3 11 bd 44 95 13 3e e3 f1 7a ba
       0.111676686 -0.03563251 0.14412409 -0.0009572787
0001c0 75 6f 5a 3e a9 6c 81 3e da 6e 0a bc d8 08 06 3e
       0.2133158 0.25278214 -0.008449281 0.13089311
0001d0 70 e9 cd bc d2 04 6e 3e b5 82 4b 3e ba d1 86 3e
       -0.025135726 0.23244026 0.1987408 0.26331884
0001e0 90 26 5f 3e 7c 3c 15 be c0 a9 34 3e 46 d1 84 3e
       0.21792054 -0.14573854 0.1764288 0.25940913
0001f0 d2 84 5f 3e 09 44 3f 3e bf 8d 37 3e 9a 5f 5c 3c
       0.2182801 0.18678297 0.17925166 0.013450528
000200 5a 0b 83 3e 0d 28 c1 bc 83 e2 a9 3c 0c 46 79 bc
       0.25594598 -0.023578668 0.020737892 -0.015214454
000210 43 93 bb 3d cc 51 bf 3d 4d dc 04 3b 76 9d ee bd
       0.09158947 0.093417734 0.002027291 -0.11651127
000220 9b 83 27 bd a4 8b 54 3e 17 ab cd 3c 62 18 1e 3e
       -0.040896993 0.20756394 0.025105996 0.15438989
000230 60 a2 18 bd 61 6e 63 3e d9 2e 61 3e 46 49 1e bd
       -0.037264228 0.22210075 0.21990527 -0.038644098
000240 2a 24 51 3e 85 c9 3b 3e 57 f7 d5 bc f4 dc 52 3c
       0.20423952 0.18338592 -0.026118917 0.012870062
000250 ad 2f 7a bc 0c d6 df bc 68 17 44 3e 97 c3 6d 3e
       -0.015270156 -0.027323745 0.19149554 0.23219143
000260 3a a5 40 3e 2b 74 58 3e 31 14 5e 3e 11 ee 6f 3e
       0.18813029 0.21138065 0.2168739 0.23430659
000270 a1 56 42 3e ef ea 69 3e aa bd 46 be 13 df 54 bd
       0.18978359 0.22843526 -0.19408289 -0.051970553
000280 38 37 8b 3d d3 c1 09 3e 17 5a 34 3e 28 c3 39 3d
       0.067976415 0.13452844 0.17612492 0.04535213
000290 8e 42 e2 bd 83 a3 52 3e bd 97 df 3d a0 35 2f 3e
       -0.110478505 0.20570187 0.10917614 0.171103
0002a0 65 ae da bc 82 85 4c 3e 8d 84 03 3e 73 7e 04 bd
       -0.026694486 0.19972804 0.12843533 -0.032347154
0002b0 61 94 25 bd c9 5e 7f 3e 72 aa 67 be f2 94 05 bd
       -0.04042471 0.24938501 -0.22623613 -0.03261275
0002c0 65 67 60 3e 99 e0 31 3e 60 60 47 be fe df 54 3e
       0.21914442 0.17370833 -0.19470358 0.20788571
0002d0 d9 ce 5a bb eb 13 20 3e 65 79 53 3e f8 04 47 3b
       -0.003338745 0.15632598 0.20651777 0.0030367952
0002e0 4c 91 40 3d bd c2 19 3e 4f 1f 16 bd e7 a1 3c 3e
       0.047013566 0.15015693 -0.036650952 0.18421136
0002f0 2a ce 35 3e ef 68 4f 3e 0a 6f 1b bd ba cf 4c bd
       0.17754427 0.20254873 -0.037947692 -0.05000279
000300 cd 06 1e 3e 4c 22 12 3c 3b 4b e6 ba 02 9c 81 3e
       0.15432282 0.00891931 -0.0017570028 0.25314337
000310 82 a5 b1 3d 50 51 e7 bc 9a 8f 60 3e fc a3 f0 bd
       0.08674146 -0.028237015 0.2192978 -0.117500275
000320 c2 71 22 bd 09 81 45 3e b2 fa 0e 3e a4 99 3d 3e
       -0.03965927 0.19287504 0.1396282 0.1851564
000330 3d 81 d0 bc ad b5 44 3e e2 e1 81 3e f6 89 6d 3e
       -0.02545225 0.19209929 0.25367647 0.23197159
000340 ca e3 91 3d c3 6d f2 3c ff 3f 02 3c 19 aa 32 3e
       0.071235254 0.029593354 0.007949828 0.174477
000350 8c b7 42 3e af c0 05 bd cd 29 4b 3b 0a 80 40 be
       0.1901533 -0.03265446 0.0031000257 -0.18798843
000360 a5 06 33 be 76 3d 5b 3e 07 9d 48 3c ca 04 62 3e
       -0.17483003 0.21410164 0.0122444695 0.2207214
000370 5d 2b 44 3d de ee 2f 3e 9d 96 43 be 2a f4 d0 3c
       0.047892917 0.17180964 -0.19100423 0.025507051
000380 05 b4 54 3e a7 aa 5a 3e fe da f3 bd c2 1b 28 bd
       0.20771797 0.21354161 -0.11907004 -0.041042097
000390 67 ea 21 3c b7 df c0 3a 58 5a 35 be ce 80 61 bb
       0.009882546 0.001471511 -0.17710245 -0.003440905
0003a0 2d 4b 36 bd 57 01 54 3e a4 71 63 3e aa 95 e9 bc
       -0.044505287 0.20703636 0.22211319 -0.028513748
0003b0 68 37 24 3e b5 65 7a 3e 17 01 47 3e 78 9b 2d bd
       0.16036761 0.2445286 0.1943401 -0.042384595
0003c0 e5 94 9a bc b0 33 88 3e 40 e0 30 3e 80 ef 1a 3d
       -0.018869827 0.26601934 0.17273045 0.03782606
0003d0 eb 7f 55 3e e0 5b d8 bb a6 51 04 bd e8 00 22 3e
       0.20849578 -0.006602749 -0.03230443 0.15820658
0003e0 4c 2d f7 3d aa 22 a3 bc ad ce 58 be 2f af 87 3e
       0.120691866 -0.01991399 -0.2117259 0.26500842
0003f0 bd fe 25 3e a1 ed 4d 3e f2 7d 40 3e d2 19 8b 3e
       0.16210456 0.2011018 0.18798044 0.27168137

linear_stack.4.weight f4 [5, 400]
000000 0c 03 1d 3d 66 60 8b bd 49 a2 3d 3d 63 f5 37 bd
       0.038332984 -0.06805496 0.046297345 -0.044911753
000010 f5 99 2f 3e 92 7d 86 3f d7 bf 4c be 75 8c 6c 3e
       0.17148574 1.0507071 -0.19995056 0.23100455
000020 5a 2e 58 bc 30 14 0c bc 33 8d 0f ba 84 96 e2 3e
       -0.013194645 -0.008549735 -0.00054760574 0.4425546
000030 fb 01 9b 3c a1 59 43 3e 20 65 02 3e db 14 bb 3d
       0.018921843 0.1907716 0.12733889 0.09134837
000040 2e 8b 7d 3e 8f 90 25 3d 50 0e c8 bc c2 33 34 be
       0.24760124 0.040421065 -0.024420887 -0.17597869
000050 27 87 f6 3b a3 4b 3e 3b a4 21 c4 3d 54 45 4f be
       0.0075234356 0.0029036782 0.09576729 -0.2024129
000060 7c 48 07 3e 22 0a f2 3d 87 66 19 bd ba 1e 7a 3e
       0.13211244 0.11818339 -0.037451293 0.24425784
000070 94 d9 31 3d ea 44 2d 3f 63 14 55 3f 18 42 fe 3d
       0.04342039 0.6768328 0.8323423 0.1241495
000080 80 a2 55 bb 74 da 7e be e7 f5 32 bb cf 94 c7 3e
       -0.0032598078 -0.24888021 -0.0027307214 0.3898072
000090 92 5e 0d 3e c0 aa 4f 3e ae 0b 85 3d ff 14 f6 3d
       0.13805607 0.2027998 0.06496368 0.120157234
0000a0 c5 28 43 3e ed 7d d0 bc 65 d2 29 3e 4a a5 4c bd
       0.19058521 -0.025450671 0.16584165 -0.04996232
0000b0 25 1f 57 bc d4 da 1f 3e 80 b4 3b bd a0 c9 53 3d
       -0.013129984 0.1561082 -0.045826435 0.051705956
0000c0 01 5d 94 3e 73 06 20 3e 89 43 35 3c 0a 96 89 be
       0.28977206 0.1562746 0.011063465 -0.26872283
0000d0 82 b1 3a bd 7d 48 26 bd 9e 84 19 3e ab 75 de 3e
       -0.04557944 -0.040596474 0.14991996 0.4344915
0000e0 64 4f 00 3e a4 d0 ad 3c 14 52 99 3d 97 d8 c7 3d
       0.12530285 0.021217652 0.07486358 0.09758108
0000f0 03 df 37 bc 83 e6 80 3d c0 d5 09 3d cd 77 e9 bc
       -0.011222604 0.062939666 0.033651114 -0.028499508
000100 a0 b3 c8 3c fe 2d e8 3e 4d 9e 70 3b 6d 80 41 3e
       0.024499714 0.4534759 0.0036715448 0.18896647
000110 33 da 18 3e 1e 4f 1a 3d ad c7 72 bc bb e0 4e be
       0.14926986 0.03767311 -0.014818114 -0.20202915
000120 a2 a1 3b 3e 57 20 db bc 14 dc 22 bd ce c5 91 be
       0.18323377 -0.02674882 -0.039760664 -0.28471226
000130 0d 5a c3 bc 43 08 ca 3e 99 6d 19 bc 20 57 1a 3e
       -0.02384665 0.39459428 -0.009364509 0.15072298
000140 ae e5 23 bc 99 78 fa ba 5b 9b 29 bd dc 8c 34 3e
       -0.01000349 -0.0019109427 -0.041407924 0.17631859
000150 e6 85 26 3e 65 89 dc 3b 3c b8 fe 3d e0 6b 27 bd
       0.16262016 0.006730246 0.12437484 -0.040874362
000160 8e 0c 15 3e d3 f3 e7 bc c6 32 78 3d 1b b9 06 3e
       0.1455557 -0.028314507 0.060595296 0.1315655
000170 ea f7 2a 3e 5e bf 1d 3e 9d aa 8e 3e 2a b3 56 3e
       0.16696134 0.15405032 0.27864543 0.20966783
000180 70 0e 17 3d 07 f5 2b 3c 95 ab f9 3d 4c 74 1e bd
       0.036879003 0.010495431 0.1219093 -0.038685128
000190 b7 13 c5 bc 00 7a e4 3a 46 7e ac 3e 25 eb f4 bb
       -0.024057252 0.0017431378 0.3369009 -0.0074743205
0001a0 0b b3 41 be 34 c4 5c 3e c3 fd 28 be bb 1a 00 bd
       -0.18915956 0.2155922 -0.16503052 -0.031275492
0001b0 8f 07 cb 3e c2 44 76 bb f7 25 1f 3e 81 79 03 bd
       0.39654204 -0.0037577604 0.15541826 -0.032098297
0001c0 79 29 10 3e 6c a3 cb 3e 9c 8e 4e bd 0d 69 f9 3e
       0.1407832 0.39773118 -0.05042897 0.4871296
0001d0 ff 9b 03 bd 43 37 09 3e 71 f3 80 3e c1 f0 3f 3e
       -0.03213119 0.13399987 0.2518573 0.18744184
0001e0 9d b9 07 3f 91 59 d7 3d 29 01 1e 3e 04 b4 0c 3f
       0.530176 0.1051513 0.1543013 0.5496218
0001f0 9d 83 b7 3d c4 5a 2e 3e d6 7a 3a 3e 72 63 28 3d
       0.0896065 0.17026812 0.1821092 0.041110463
000200 7b 25 84 3e c7 92 b1 3c 92 92 c5 ba f5 6b 84 3c
       0.25809845 0.021676434 -0.0015073589 0.01616476
000210 5e 4c 45 3e 1c 19 03 3e 33 6a fd bc 8f 80 02 3e
       0.19267413 0.12802547 -0.030934429 0.12744354
000220 b3 8f 9c 3b 66 86 3a 3e c0 e8 7f 3c 8b d8 1d 3e
       0.0047778725 0.18215331 0.015619457 0.15414636
000230 c7 70 94 3c 86 eb 46 3e f6 b7 25 3e c7 6c 43 bb
       0.018120183 0.19425783 0.16183457 -0.0029819475
000240 cf ca 20 3e 4a 5f a6 3d e2 c4 2f bd 79 6c 30 3d
       0.15702365 0.08123644 -0.04291237 0.043072198
000250 40 8e b1 3b 1e ab 20 bd f9 12 8b 3e b9 f2 05 3e
       0.005418569 -0.03922569 0.27162912 0.13080873
000260 2c 2c 1f 3e 3a f2 d6 3e ba 0d f9 3d db 53 04 3f
       0.15544194 0.4198168 0.12160821 0.51690453
000270 91 41 29 3e c0 ec 1c 3e ee e7 2c be ed 6d f5 3c
       0.16528918 0.15324688 -0.16885349 0.029959643
000280 06 2e 9d 3d 64 6a 0a 3e 22 a6 65 3e 0d c7 28 3d
       0.07674794 0.13517147 0.22426656 0.041205455
000290 81 25 52 3e 79 4c 0c 3f 4e 20 8d bc ea 13 44 3e
       0.20522119 0.5480419 -0.017227318 0.19148222
0002a0 06 81 1d 3d 1e ed 83 3d 1b ca 03 3f 4a 9c 0b 3d
       0.038453124 0.06441711 0.51480263 0.034084596
0002b0 29 e4 e7 bc a8 67 17 3e 20 ae 08 be b3 5b 11 3d
       -0.028307037 0.14785635 -0.13347673 0.03548784
0002c0 93 a3 0e 3e 2e 24 6f 3e 56 3e 09 be 44 f3 7c 3e
       0.13929586 0.23353645 -0.13402686 0.24702173
0002d0 33 35 2d bb 3c d6 5d 3e 9a 96 3d 3e ad c8 16 bd
       -0.0026429414 0.21663755 0.18514481 -0.036812473
0002e0 a3 c0 e4 3c bd f4 49 3e 68 48 15 3d e0 3d bc 3d
       0.027923888 0.19722266 0.036446005 0.09191489
0002f0 b3 2a df 3e 14 d4 3c 3d 67 32 71 3b b3 14 18 bd
       0.43587264 0.04610069 0.0036803724 -0.037129115
000300 12 27 f4 3d 60 09 94 bc 86 fa 36 bc 18 95 12 3e
       0.119215146 -0.018070877 -0.011168128 0.14314687
000310 f3 46 ee 3e 65 af 14 bd 82 79 bb 3e a8 64 3c be
       0.46538505 -0.03630008 0.3661614 -0.18397772
000320 9f 20 db bb 8f 90 51 3e 98 74 6d 3e 6c 32 a9 3d
       -0.0066872383 0.20465301 0.23189008 0.0826157
000330 c2 3d 09 3d e3 4f 46 3e d1 5b 03 3e 10 49 9e be
       0.033506162 0.19366412 0.12827994 -0.30915117
000340 8a df f6 3d 06 fe 31 bd d3 96 1c bd da 1b 6b 3c
       0.120543554 -0.043455146 -0.038229775 0.014349902
000350 26 41 fa 3d 85 02 14 bd 85 32 c2 bb c0 42 a8 3e
       0.12219457 -0.036135215 -0.0059264326 0.32863426
000360 3e 5c 52 be a7 1a 50 3e 99 4b 80 bc 57 aa f4 3e
       -0.20543 0.20322667 -0.015661048 0.4778621
000370 5b 28 4b 3e d0 0a 29 3e ad 27 c3 be 60 ad 2f 3d
       0.19839613 0.16508031 -0.38116208 0.042889953
000380 be ae bb 3e 59 1b eb 3d 30 1e 2e 3f 80 e6 b7 bb
       0.36656755 0.114798255 0.6801481 -0.0056121945
000390 83 34 1d 3d f7 92 f8 bc 9c 37 8b bd ac 20 1b 3d
       0.038380157 -0.030343516 -0.06797716 0.037872955
0003a0 b0 1b 31 bd 4d 78 22 3e 2d f1 a9 3d c4 ba 41 3d
       -0.043239295 0.15866204 0.08297954 0.047297254
0003b0 ca 64 40 3b 1c 48 04 3e c1 9a f9 3d 01 d9 9b 3d
       0.002935695 0.12918133 0.1218772 0.076097496
0003c0 b8 47 56 bc 2e 03 56 3e a7 74 2a 3e c7 1b 00 3c
       -0.0130786225 0.2089965 0.16646062 0.007819123
0003d0 77 17 39 3e 00 07 11 3d cb 93 57 bd 9e c7 31 3e
       0.18075357 0.035407066 -0.05263118 0.17361304
0003e0 1b 37 4a 3e c3 dc a1 bc 02 34 36 be 44 16 4c 3e
       0.19747584 -0.019758588 -0.17793277 0.19930369
0003f0 09 d6 33 3e 0c 70 16 3e 2e da 90 3e 91 1d 4d 3e
       0.17562117 0.1469118 0.28291458 0.2003081

linear_stack.4.bias f4 [5]
000000 4f a9 54 3e 00 70 99 3e e6 d5 3a 3e b9 28 87 be
       0.20767711 0.29968262 0.18245658 -0.26398256
000010 77 ee e7 bc
       -0.028311951
