data/U3_new/model_UAV_2.pth (torch, 660400 bytes, 6 tensors)

linear_stack.0.weight f4 [400, 4]
000000 3c 94 19 3e 4d 17 43 bd ca b4 ec 3e 00 d2 4d be
       0.14997953 -0.047629643 0.4623168 -0.2009964
000010 0a 25 40 3e cd fb 66 3d 14 9c d3 3e af 09 bd bd
       0.1876413 0.05639248 0.41330016 -0.092303626
000020 d9 5b e5 bb bf 51 d2 3d 30 79 9d 3e 30 01 6d 3e
       -0.0069994745 0.10269498 0.3075652 0.23144984
000030 29 cf 94 3d 1a b3 2f be ac f9 ee be 94 4b dd 3d
       0.07266075 -0.17158166 -0.4667486 0.10805431
000040 4e 8a 8e 3c 70 62 93 3e 2d b1 c8 3e 7c 71 17 3e
       0.017399933 0.2878604 0.39197674 0.14789385
000050 93 95 bc 3e e3 10 37 3e 37 3c cf 3e 18 80 45 3e
       0.36832866 0.17877536 0.40475628 0.19287145
000060 e7 2e f1 3e 55 3e c4 be 45 6e 14 3f 1f 64 66 be
       0.47106096 -0.38328806 0.5798076 -0.2249913
000070 f2 bb c7 be f1 54 08 3f 87 3b 28 3f 31 d6 3b bf
       -0.39010578 0.5325461 0.6571583 -0.73373705
000080 a7 2c 36 bf 43 7a f7 3d 57 d8 40 3d 0d 7b 93 be
       -0.71161884 0.120838664 0.047081318 -0.28804818
000090 32 48 14 3e 58 6e d6 be 4a 73 5c be 15 e0 42 3f
       0.14480665 -0.4188106 -0.21528354 0.7612317
0000a0 c8 db eb 3e ed 6e e8 be 33 e3 56 3d 76 f3 a9 be
       0.46066117 -0.4539713 0.052462768 -0.33193558
0000b0 14 fd ce 3e 87 09 c4 3e 5c 0b 37 be ce c4 bd be
       0.40427458 0.3828852 -0.17875427 -0.37064213
0000c0 7a a7 1b bf 2d 2e 76 3e ba 64 45 3e c8 e5 06 bf
       -0.60802424 0.24041052 0.19276705 -0.5269437
0000d0 48 7e d5 3e c0 38 c4 3e 0a ef 30 bd 74 a4 44 3e
       0.41697907 0.38324547 -0.043196715 0.19203359
0000e0 7b 2a fb 3d a5 b8 18 3c 4e 53 60 3d 3a 5e 8a be
       0.12263962 0.009321366 0.054766946 -0.27025014
0000f0 22 2f 1e bf 54 4c 44 be 7a e1 6b 3f 5f 52 c4 3e
       -0.6179067 -0.19169742 0.92140925 0.38344094
000100 0a 3d 4a be 40 ff e5 3d 9d d9 8a bf 4f ef 45 bf
       -0.19749847 0.11230326 -1.084766 -0.7731828
000110 9c ff c6 3e 1e f4 1b bf 4d ad 32 bf 07 20 77 bf
       0.3886689 -0.6091937 -0.69795686 -0.96533245
000120 a4 5d c9 be 64 bc 8d be 36 d4 bd be bc c1 1e be
       -0.39329255 -0.27682793 -0.37075967 -0.15503591
000130 e5 39 94 be 60 a0 fd be b1 0f ae 3e 9c 49 a2 bf
       -0.2895042 -0.4953642 0.33996347 -1.2678714
000140 80 dc f0 bb 60 6e c9 be 88 54 85 3d c2 25 e5 be
       -0.0073505044 -0.39342022 0.06510264 -0.4475537
000150 50 07 2a bd 70 a0 7c bd 18 a4 4a be 14 5a a4 be
       -0.04151088 -0.061676443 -0.1978916 -0.32099974
000160 c5 b1 d4 3e 99 3c 91 be 63 45 d3 3d 19 ec 5d 3f
       0.41541877 -0.28366545 0.10315969 0.8668838
000170 69 57 56 bf 1e 8d 18 3e c2 41 89 bd dc 83 a7 be
       -0.8372713 0.14897582 -0.067019954 -0.32717788
000180 70 e7 61 bd a8 f5 9c bd a0 a7 9b bd 58 b2 94 bd
       -0.055152357 -0.07664043 -0.07600331 -0.07260579
000190 2d 61 ae be 52 1a 6c 3e 0d 87 10 bd 61 e1 12 3f
       -0.34058514 0.23056915 -0.035285044 0.5737515
0001a0 5f 03 fe 3e 89 af 5b 3d 4b 1e d8 3e f3 ae 5a be
       0.49611947 0.0536342 0.42210612 -0.213558
0001b0 1e ad e9 3e 79 ed a7 be c4 77 40 3e 34 e8 0c 3f
       0.4563989 -0.32798365 0.18795687 0.55041814
0001c0 51 0f 33 be 5b d6 1d 3e 27 d2 29 3f cb b1 6c 3f
       -0.17486311 0.15413801 0.6633629 0.9245879
0001d0 a4 10 8a 3d 1d 61 a9 3e db 82 87 3d 12 f0 c4 be
       0.06741455 0.33081904 0.066167556 -0.3846441
0001e0 cd a1 e8 bc f2 ec c7 be eb 91 78 3e 6e 50 8d be
       -0.028397465 -0.39047962 0.24274413 -0.27600425
0001f0 60 3f ba 3e 23 0e 28 bd 38 65 46 3d 25 11 8c bc
       0.36376476 -0.041029107 0.048436373 -0.017098019
000200 54 da 9b be f2 c1 b1 3e d3 4d eb bc 70 eb 83 3f
       -0.3044001 0.3471828 -0.028723633 1.0306225
000210 02 3d d4 3e 92 63 1a 3e 69 f8 93 3e 12 86 24 3f
       0.41452795 0.15077046 0.2890046 0.64267075
000220 1f c4 34 3e 6d 6c a8 3e 69 5c 0b 3f 2b 9e a6 be
       0.1765294 0.32895222 0.5443788 -0.32542548
000230 27 da 78 3e 1e 98 b0 3d df 91 2e 3e d6 c3 e4 3c
       0.24301969 0.08622764 0.17047833 0.027925413
000240 da 4e 9c be 98 0b fe bd 90 4b 67 bd a8 7b 77 be
       -0.3052891 -0.12404555 -0.056468546 -0.24168265
000250 84 72 92 bc 81 cf 76 3e af 30 20 3c 4b e6 e4 be
       -0.01787687 0.24102594 0.009777232 -0.4470695
000260 60 71 e4 3c b8 06 86 be 76 2a e0 3e 20 da 3d bd
       0.027886093 -0.26177 0.43782395 -0.0463506
000270 67 72 7a 3e 55 03 22 bf 00 c6 9a bf db ae 11 bf
       0.24457704 -0.63286334 -1.2091675 -0.56907433
000280 10 14 29 3e 77 74 65 3d be 8f 99 be 2a 46 b4 3e
       0.1651156 0.056019273 -0.2999248 0.3520978
000290 c5 7e 76 3e ee 69 76 3e 27 d6 f2 bc dc 01 03 3f
       0.24071796 0.24063846 -0.029643131 0.5117471
0002a0 9c f2 c9 be 8e 20 81 3e f6 f0 9d be 08 b6 f3 bd
       -0.3944291 0.2522015 -0.308479 -0.11899954
0002b0 a3 2e ba 3e 2b f7 6d 3e 63 d0 45 be 86 5d a6 3d
       0.36363706 0.23238818 -0.19317774 0.08123307
0002c0 a0 72 89 3e bc 42 98 3e 36 51 0c 3f 75 e6 36 3e
       0.26845264 0.29738414 0.5481142 0.1786135
0002d0 b9 a1 3a be 63 c0 07 be 45 d5 28 3f 41 de 86 3f
       -0.18225755 -0.13256983 0.65950423 1.0536577
0002e0 60 e8 68 bd 1c 69 37 be 2c de 7d 3e 0e 97 95 3e
       -0.056862235 -0.1791119 0.24791783 0.29216808
0002f0 4f 71 4e 3e a1 1d 84 3e 26 6e eb 3e 1c af 2c 3e
       0.20160411 0.25803855 0.45982474 0.16863674
000300 6f 2b 8b be 8f 98 8d 3e 61 2f bb 3e 05 69 ee 3d
       -0.27181575 0.27655455 0.36559585 0.11641125
000310 33 d9 52 bf 1f 05 fb bd 65 2d 35 3f a1 0a b2 bf
       -0.8236267 -0.12256836 0.7077239 -1.3909494
000320 fa c9 e5 3d 7a 68 bd 3d c2 e9 a7 3b a7 85 cd be
       0.112201646 0.09248443 0.0051243016 -0.4014103
000330 e2 1a af 3c b0 55 31 3e dc a6 f1 3e cb 84 56 3f
       0.021375123 0.17317843 0.47197616 0.83796376
000340 d7 1c f0 3e 1f dc d8 3e e9 e7 2e 3f 94 44 ae 3e
       0.46897003 0.4235544 0.68322617 0.34036696
000350 67 f3 98 3d cb 40 7f 3e 4a e8 04 3e 8e b0 b9 be
       0.074683 0.2492706 0.12979236 -0.36267513
000360 1c f0 d7 3e 05 85 04 bf c3 a7 ae 3d 44 1b 5e 3f
       0.42175376 -0.5176547 0.08528092 0.86760354
000370 07 aa 1f bf f2 8c c1 3e 65 2b 38 bf fe 86 b6 3f
       -0.62368816 0.37802845 -0.71941215 1.4259946
000380 d2 a8 47 be 5a 8d 0f bd fa 01 ec be 2d b1 be 3f
       -0.19497994 -0.035046913 -0.46095258 1.489782
000390 18 ae 20 be 46 ce 5d 3e 4c 1d 22 3e cd cc d1 3e
       -0.15691411 0.21660718 0.15831488 0.40976563
0003a0 90 10 de be 68 5b ca bd 76 cb ac 3e b8 5d b3 be
       -0.4337201 -0.098807156 0.33748978 -0.3503244
0003b0 70 1f 09 bf aa 18 de 3e 10 fb 28 bf 7b 45 31 3f
       -0.53563595 0.43378192 -0.6600809 0.69246644
0003c0 61 2c 44 3e 9c 1d af 3e 1e f9 09 bd aa 99 81 be
       0.19157554 0.34202278 -0.033684842 -0.2531255
0003d0 a4 ac 4f bf 89 90 e8 bd 31 d2 5d 3f 2d 26 88 bf
       -0.81122804 -0.11355693 0.8664885 -1.063665
0003e0 e3 bc 9d 3d 8c 8e bc 3d 4a 92 47 be 92 f2 d1 3e
       0.07702043 0.09206876 -0.19489399 0.4100538
0003f0 eb a8 c3 3e e1 87 3e bd 74 ce 7d 3e 27 01 1a bf
       0.38214812 -0.046516303 0.24785787 -0.6015801

linear_stack.0.bias f4 [400]
000000 8f 4b 53 3f c3 47 18 bf ea cd 08 3f ec ca 4d 3f
       0.8253717 -0.594845 0.534392 0.8038776
000010 27 3e 36 bf cd 5f d2 be fb 56 8b bd 0c 52 00 3e
       -0.71188587 -0.41088715 -0.068036996 0.12531298
000020 16 52 b3 3e 65 c9 99 be bc 5a c0 be ed 62 1f 3f
       0.35023564 -0.30036464 -0.37569225 0.62260324
000030 c3 70 66 3e e0 6a 0a 3f 71 1b 1b bf 82 67 24 3f
       0.22503953 0.5406933 -0.6058875 0.6422044
000040 fe 0a 19 3f f2 e3 4b 3e c8 fc 95 bd 2b b1 00 3f
       0.597824 0.19911173 -0.07323605 0.50270337
000050 c0 b1 36 bc 34 46 6b be 48 fb 01 bf 1d a0 ef 3e
       -0.011150777 -0.22975999 -0.5077405 0.46801844
000060 90 66 f2 be bc dd 34 3f 81 c4 2d bf 6d 36 24 3f
       -0.47343874 0.7065084 -0.67877966 0.6414555
000070 11 9f 04 3d 8f 84 4c 3f 0e ab 37 3f 02 08 e0 3e
       0.03237826 0.7988977 0.71745384 0.4375611
000080 0b c5 10 3e 9a 46 09 bf 7a 00 41 bf c1 07 33 3f
       0.14137666 -0.53623354 -0.7539135 0.69933707
000090 a2 bf da be ec d7 3a 3f da 61 cb be 06 70 04 be
       -0.4272433 0.7298572 -0.39723092 -0.12933359
0000a0 7c e1 46 3f 7a 9c 98 3e da c8 26 3e b3 7a 97 3e
       0.7768781 0.29806882 0.16287556 0.295858
0000b0 a4 15 07 bf 17 fc 91 3d da 38 97 be 57 55 38 3e
       -0.52767396 0.071281604 -0.29535562 0.18001305
0000c0 bd d0 08 3f 8d 51 8b 3f 8b e8 d8 3e a2 0c 23 bf
       0.5344351 1.0884262 0.42364916 -0.6369115
0000d0 ba 74 08 bf ec 30 42 3f eb 20 02 bf 70 bf b3 3e
       -0.5330311 0.758559 -0.5083148 0.35106993
0000e0 8a 6e a8 3a 84 b7 39 be 1c cf bf be 84 58 9e 3d
       0.0012850326 -0.18136412 -0.374627 0.07731727
0000f0 d2 82 87 be 9d 30 73 3f d9 c6 12 bf 27 e4 96 3e
       -0.26466995 0.94996053 -0.5733467 0.2947094
000100 aa 78 20 3e 78 73 67 be 2c cc 2e be de 24 f3 3e
       0.1567103 -0.22602642 -0.17070073 0.47489065
000110 70 3d 0b bd 15 2a a7 3e c5 b1 4a bd e8 2e 80 bc
       -0.03399414 0.32649294 -0.04948594 -0.015647367
000120 67 6f b1 3e 84 da 6f b8 06 85 2e bf 10 c5 22 3f
       0.34655306 -5.718555e-05 -0.6817173 0.63581944
000130 02 60 93 be 20 2a c9 be cb 9d 2e 3f db 26 fe 3e
       -0.28784186 -0.3928995 0.6820952 0.4963902
000140 55 66 33 3f 9f 81 83 3d 86 d9 93 3d ed 5a 93 3e
       0.7007802 0.06421208 0.07219224 0.28780308
000150 56 87 34 3f 34 9b e1 be 16 85 32 be 54 d5 c7 3e
       0.70519006 -0.44063723 -0.17433581 0.39029944
000160 42 b4 1b 3e 2f a7 36 3f 68 01 ee be 45 73 48 3f
       0.15205482 0.7134885 -0.46485448 0.7830089
000170 d2 d4 39 bf 35 04 c5 be 5b 32 87 3f 96 4c ae bc
       -0.72590363 -0.38479772 1.0562242 -0.021276753
000180 4a 01 ff 3d 98 61 d6 bd c2 6b 1a 3e 6f e1 b1 be
       0.12451418 -0.10467833 0.15080169 -0.34742305
000190 e3 95 24 3f 0c e1 19 3f 9c 6e 34 bf 52 b8 84 be
       0.6429121 0.6010902 -0.70481277 -0.25921875
0001a0 af af ba 3e 02 ac 07 3f 5c b1 26 bf a9 08 76 3e
       0.3646216 0.5299684 -0.6511438 0.24026741
0001b0 5f 96 97 bd 40 9c 0b 3f a6 a6 2d 3e 60 c3 19 3f
       -0.07401728 0.54535294 0.16958103 0.60063744
0001c0 ca 53 51 be ba 69 08 3f 76 67 4e 3e c6 97 e2 3e
       -0.20442119 0.53286326 0.20156655 0.4425642
0001d0 2c 18 17 be be 61 dd be 64 88 03 3f 0d fa 48 be
       -0.14755315 -0.43238634 0.5137999 -0.19626637
0001e0 0d 40 49 3e b9 ac 4d 3f fa 2b d4 3e 9e 04 29 3f
       0.1965334 0.8034168 0.414398 0.6602267
0001f0 a8 d0 39 bf 40 95 f7 be 4c 93 5b 3f 74 20 3e 3f
       -0.7258401 -0.48356056 0.8577163 0.7426827
000200 48 96 14 3f bb d3 b1 3e 06 12 92 3d a2 ff 6b 3e
       0.5804181 0.3473185 0.07132344 0.23046735
000210 e2 00 af be 7d 5b 20 3f 5c d4 04 3f f8 bc c2 bd
       -0.3418036 0.626396 0.51886535 -0.09508699
000220 fd 46 b8 3e 08 0a e2 be 12 5e 9a be 7d 3d e0 3e
       0.3599166 -0.44148278 -0.30149895 0.43796912
000230 0c 1a 51 3f 57 9f 3a 3f 84 06 a8 bb e9 91 dc 3e
       0.8168037 0.72899383 -0.00512773 0.4308007
000240 d5 16 62 3e c4 92 77 be 5d 21 12 bf 56 72 3c 3f
       0.22079022 -0.2417708 -0.5708216 0.7361196
000250 4a ac 2f 3f 78 60 5f be c8 f6 cd 3e 73 40 20 3f
       0.6862227 -0.21814144 0.40227342 0.6259834
000260 74 70 46 be 2f 12 34 bf a6 bc 91 be 8b 5e a8 3e
       -0.19378835 -0.70340246 -0.2846424 0.3288463
000270 b4 73 02 bf f8 c0 26 be a7 72 b6 3e 2e 88 48 3f
       -0.509578 -0.16284549 0.35634348 0.78332794
000280 01 5b 4d 3f 12 bd ca 3e 83 86 42 bf 3b 94 b4 be
       0.80216986 0.39597374 -0.759865 -0.3526934
000290 27 34 7f 3d e8 d8 9a bd a7 fd 15 bf 74 37 ba 3e
       0.062305596 -0.07560903 -0.5859017 0.36370432
0002a0 ae 51 23 be 6f 16 ba 3e 42 6e 2c 3f 3f 21 a3 3e
       -0.15949127 0.3634524 0.6735574 0.31861302
0002b0 d5 b5 29 bf 80 78 ec bd fa fe 72 3d 03 42 cc 3e
       -0.6629308 -0.11546421 0.059325196 0.39894113
0002c0 e5 34 f9 3d 9e 6f 52 3f ba 7e d9 be c9 f7 fc be
       0.12168292 0.82201564 -0.42479497 -0.49407795
0002d0 78 42 1d be bf 48 d2 bc 5c 91 41 3f 62 42 3c 3e
       -0.15357387 -0.025669454 0.75612426 0.18384698
0002e0 12 05 a6 be 26 d8 b6 be 3d da 25 bf 8d 18 cd be
       -0.32425743 -0.35711783 -0.6478613 -0.40057793
0002f0 73 39 34 3f 4b 27 59 bf 95 65 bc 3e 10 10 3f bf
       0.7040016 -0.8482558 0.3679625 -0.74633884
000300 4e 37 d9 be 5c 49 05 be 37 ca b9 3d 69 56 03 bf
       -0.42425007 -0.13016266 0.090717725 -0.51303726
000310 23 ac 7a 3f 64 00 0d 3f 64 3c 09 bf a5 3d 1e 3f
       0.9791891 0.5507872 -0.53607774 0.6181281
000320 4d eb b8 3e 9e f3 92 bd b9 f2 82 3e d8 9a fe be
       0.3611702 -0.071753725 0.25575808 -0.4972751
000330 03 2e ac 3c 21 9d 99 3e f3 14 0e 3f 76 13 47 3f
       0.021018034 0.30002692 0.55500716 0.7776407
000340 e0 bb d4 bc 7c c8 d0 3e 18 d5 15 3f 58 a9 e5 3e
       -0.025968492 0.40777957 0.5852828 0.44855762
000350 da c4 3f 3f 13 d0 93 3e cf 31 2f 3e 59 90 74 3f
       0.74909747 0.28869686 0.17108844 0.9553276
000360 32 da 0d 3f 0f be c3 3c 70 b6 f7 bd e8 3a 3b 3c
       0.55411065 0.023894338 -0.12095344 0.011427619
000370 6d 91 f4 be f7 00 f4 3e b1 85 53 3f 8a 96 24 3e
       -0.477672 0.47656986 0.8262587 0.16073051
000380 16 78 5b 3f 71 80 4a bf 2a e9 8d be 1a 46 c3 3d
       0.8573011 -0.79102236 -0.27716953 0.09534855
000390 9b 8c e9 be c6 65 01 3f 0e dc 7b 3f 59 13 32 3f
       -0.45615086 0.5054592 0.9838265 0.6956077
0003a0 c4 33 39 3e 05 6e 4a be 6a 5d 22 bf 02 7f bd be
       0.18086153 -0.19768532 -0.6342379 -0.37010962
0003b0 33 4d 48 3f 67 67 fd 3d c1 69 c0 be 4e 24 fd be
       0.78242797 0.12373238 -0.37580684 -0.4944176
0003c0 ce 5c f6 be 13 b0 82 be e9 a1 d4 3e c7 1f 1b 3f
       -0.4811768 -0.2552496 0.41529778 0.60595363
0003d0 15 f2 50 3f 8b 1b c6 3e f2 e9 45 3f c6 cc 08 3f
       0.8161939 0.3869289 0.773101 0.5343746
0003e0 f8 e0 cf be f0 68 3c 3f f9 24 0c bf 4b c3 2d bf
       -0.40601325 0.7359762 -0.54743916 -0.6787612
0003f0 18 80 8a be 32 74 01 3f a7 44 4c bf 8b 88 d8 be
       -0.27050853 0.50567925 -0.79792255 -0.42291674

linear_stack.2.weight f4 [400, 400]
000000 91 8e 5a bd 9a ef 8f 3a 1a 17 62 bd 87 33 ef bc
       -0.05335862 0.0010981441 -0.055197813 -0.029199375
000010 05 93 77 bd 30 04 3b bc 07 be 5d bc 6e aa 7d bc
       -0.060442943 -0.011414573 -0.013534076 -0.015482528
000020 3e eb 47 3c e3 8e 02 bd a2 4c 28 3d 88 5e 60 bc
       0.012202082 -0.03187455 0.041088708 -0.013694413
000030 a4 ae 0a 3d 57 16 6d ba 4f 20 9f ba 93 80 40 bd
       0.033857957 -0.00090441614 -0.0012140366 -0.046997618
000040 6c eb 8c 3c 13 27 7f 3c 7a b7 16 3d 70 08 25 bd
       0.017202102 0.015573281 0.03679607 -0.04029125
000050 8d be 6e 3c 4d ee 0d bb 20 b1 40 bc a7 09 0f 3d
       0.014571798 -0.002165693 -0.01176098 0.034921315
000060 47 62 9f bc 9d bd d5 3c a0 72 58 3c da b8 39 3d
       -0.019456042 0.026091391 0.0132109225 0.045342304
000070 43 ba e0 bc 5a 48 9e bc cd 0c f5 39 41 36 19 3d
       -0.027432567 -0.01932161 0.0004673958 0.037405256
000080 dc e6 46 3c f4 22 cc bc 2e b1 62 bd 1a 20 76 bd
       0.012140002 -0.02491901 -0.055344753 -0.06008921
000090 0d 92 43 bd 64 44 02 bd 0d a7 f2 bc fa da 10 bc
       -0.047746707 -0.031803504 -0.029620672 -0.008841271
0000a0 44 2b b0 bb d7 19 a6 3c 48 33 95 bc 20 e3 17 bd
       -0.0053762514 0.020275993 -0.01821293 -0.037081838
0000b0 a9 fe 52 bd 4a 6d ee 3c c5 1f 09 3d a1 c8 0d bd
       -0.051512394 0.029104847 0.033477563 -0.034615163
0000c0 1f ce 05 bc 73 2f 82 3b 04 f0 c8 3c 4c a5 1f bd
       -0.008166819 0.0039729415 0.02452851 -0.038976
0000d0 eb c6 1a 3c 87 94 43 ba 57 b7 de 3c 95 c3 36 bc
       0.00944684 -0.0007460792 0.027187033 -0.011155029
0000e0 67 0f 39 bd ca 26 da b9 83 9b 40 bd fb 3c 77 bd
       -0.045180704 -0.000416091 -0.047023308 -0.06036089
0000f0 ab 99 d4 bc 87 67 ec bc cc 16 c9 3b 52 d1 1f bd
       -0.02595218 -0.02885796 0.006136751 -0.039017983
000100 0b b4 22 3d 60 62 21 bd ff e1 06 bd e7 75 68 bc
       0.039722484 -0.03940046 -0.03293037 -0.014188266
000110 dd 2c 35 bd f5 ea 06 bd a6 76 34 bc bd 52 92 bc
       -0.044232238 -0.032938916 -0.011014616 -0.017861718
000120 bc 0c 2e bd 48 9a 53 bd 3e be 12 3d a9 13 36 bd
       -0.042492613 -0.051660806 0.03582596 -0.044452343
000130 bd ba cb 3c aa 27 22 3d c7 01 e1 3c 0a 74 97 3c
       0.024869317 0.039588608 0.027466668 0.018487949
000140 f2 91 54 bd b9 17 d3 3b 32 a9 2f bd 3b 92 0f bc
       -0.051896997 0.006442037 -0.042885967 -0.008762891
000150 e7 99 17 3d 23 77 05 bd 82 b7 08 bd 70 c5 fa bc
       0.037012007 -0.03258432 -0.03337813 -0.030611724
000160 67 8b 3d 3d 0a bc 0e 3b 5a 10 de 3b 52 70 3f bd
       0.046275523 0.002177956 0.0067768516 -0.046737976
000170 c8 4b f7 3c 73 13 7b 3c da 43 61 bc 00 5f 9a bb
       0.030187503 0.015324461 -0.013749087 -0.004711032
000180 0d 8c 14 bd 8d 1d 41 bd 1a 8b 2f bd 33 75 7a 3a
       -0.036266375 -0.047147322 -0.042857267 0.0009554207
000190 03 2a be bc 5f b4 78 3c ea 9b 8f bc 1d 97 93 bc
       -0.023213392 0.015179723 -0.0175304 -0.018016392
0001a0 1f f8 8e 3c 57 c4 d0 bc 05 70 56 3a 40 22 0e bd
       0.017452298 -0.025484247 0.00081801444 -0.034700632
0001b0 bf dc db bc c7 e6 32 bd ea 95 a2 3c 93 65 1b 3d
       -0.026838658 -0.043677118 0.019846875 0.037938666
0001c0 33 e8 18 3d 54 ac 60 bc 7b ff 8d 3c 93 10 32 3d
       0.037330817 -0.013712961 0.017333737 0.043472838
0001d0 8d ee 04 3c 6a 85 03 bd 10 6b 0a bd 6d ad ae 3c
       0.008113516 -0.032109655 -0.03379351 0.02132293
0001e0 16 ce 75 bd 63 b1 ce bc a7 31 14 bc 42 63 19 bd
       -0.060010992 -0.025231069 -0.009045041 -0.037448175
0001f0 a6 72 7b bc 57 e7 cc bc 83 e6 13 bd e3 b8 0d bd
       -0.015347159 -0.025012655 -0.036108505 -0.03460015
000200 45 b5 09 bd c0 4d 4b 3d cd 1a 72 bc 0e 2d cd bc
       -0.033620138 0.049634695 -0.014776898 -0.025045898
000210 38 d5 eb bc f2 7e 3b bd 0e 09 57 bc d8 fd 45 bc
       -0.028788194 -0.04577536 -0.013124717 -0.012084447
000220 d3 0a 95 3c d0 f7 a8 bc 38 ce 04 3d 10 4f ee 3c
       0.018193638 -0.020625979 0.032423228 0.029090434
000230 69 d4 83 bb 47 79 13 3d 43 69 92 3c d2 ff 1b 3d
       -0.004023124 0.03600433 0.017872458 0.038085766
000240 35 f1 d2 ba 80 bf f8 3b 46 23 24 bd 02 b5 10 bd
       -0.0016093614 0.007591188 -0.040072702 -0.035328873
000250 be 76 94 3c f4 17 27 bd 81 98 d7 bc f9 3e 15 bd
       0.018123027 -0.040794328 -0.026317837 -0.03643701
000260 20 30 b6 bc 83 05 51 bd 2d 8a 0c bc 08 0c 87 3c
       -0.022239745 -0.051030647 -0.008577866 0.01648523
000270 c8 72 2f bd 9a 31 1f b9 de 9d 12 bd bc 88 42 bd
       -0.042834073 -0.000151819 -0.035795085 -0.04749368
000280 91 e4 4c bd bf 49 2e 3d d5 bf ec 3c 81 db 29 3c
       -0.050022665 0.0425508 0.028900066 0.010367275
000290 00 ee 78 bb b0 44 8a 3c fa 4a 16 bd 00 9a 19 bd
       -0.0037983656 0.016878456 -0.036692597 -0.03750038
0002a0 88 69 02 bd fd db e4 3c 56 c5 89 bb d3 7f d5 bc
       -0.031838924 0.02793693 -0.0042044325 -0.026061928
0002b0 c1 72 cb bc ed 27 30 bc 48 92 2c 39 ca f8 21 bc
       -0.024834992 -0.010751707 0.00016457692 -0.009885976
0002c0 ea 06 32 bd 04 9c e2 3c 23 ff e6 bc 2d 10 86 bc
       -0.043463625 0.027662285 -0.02819783 -0.016365135
0002d0 0c d2 4e bd 88 bc 3b 3d 9d 61 b9 bc 8f 15 28 bd
       -0.050493285 0.045834094 -0.022629553 -0.041036185
0002e0 f0 f9 b4 bc c3 a2 33 3c 58 2d cb 3c 00 91 aa bc
       -0.022091836 0.010964098 0.024801895 -0.020821095
0002f0 b3 cf cc bb cd 8c 34 b9 50 16 4c 3c bd bf 01 3d
       -0.0062503456 -0.0001721859 0.012456492 0.031676996
000300 9a 1c af ba 2b ff 5f 3c dd 77 c0 3c f3 cd 51 3c
       -0.0013359964 0.013671677 0.023494655 0.01280545
000310 e5 83 47 3d 47 ff 0a 3c 25 5d 07 3d fd 68 2f bd
       0.04870977 0.008483714 0.033047814 -0.042824734
000320 fa 8b af 3c 02 ac 30 3d 72 e8 d6 3c 30 89 3c bd
       0.02142905 0.04313279 0.026233885 -0.04602927
000330 a1 90 12 bd 67 d8 0e 3b 5a 8b 57 bd 8f da 04 bd
       -0.03578246 0.0021796466 -0.05262313 -0.032434996
000340 b5 98 3d 3d 47 49 af 3c 93 46 11 3d 47 ac 51 bc
       0.04628821 0.021397246 0.035467695 -0.012797422
000350 15 7e 4e bd ff f9 20 bd 33 6d 32 3b 42 94 34 3d
       -0.05041321 -0.039300915 0.0027225732 0.044086702
000360 0d 05 40 bd 02 3c 42 3c a7 0e 0d 3d 2a 54 cf bc
       -0.046879817 0.011855127 0.0344378 -0.025308687
000370 9e 77 1c 3c d6 bf 4c bd 00 94 b2 bb a1 b2 3c bc
       0.009550003 -0.049987637 -0.005449772 -0.011517198
000380 07 d1 a7 3c db 87 23 bd 67 59 64 bc dc 18 a9 bc
       0.020485414 -0.039924484 -0.013937331 -0.020641737
000390 c7 6d 0f 3d f8 da 31 3c 66 5e ba 3a 3d 27 05 3d
       0.0350168 0.010855429 0.0014218807 0.032508124
0003a0 11 ee fa bc 17 bd 56 bd aa 05 11 3d 00 84 27 3d
       -0.030631097 -0.052426424 0.035405792 0.04089737
0003b0 f0 c8 9f bc 62 04 b6 3c 5d 4c a2 bc 1a 8b 81 3c
       -0.019504994 0.022218887 -0.019811803 0.0158134
0003c0 0d 25 1f 3d e7 55 2e bd 0a 5c 78 bd 99 a7 79 bd
       0.038853694 -0.04256239 -0.06063465 -0.06095085
0003d0 08 51 07 bd 91 6f f3 bb a5 4d 14 bd af 42 0d bd
       -0.03303626 -0.0074290712 -0.03620686 -0.034487423
0003e0 4a 7e dd 3c 96 d7 b4 3b 5b 82 5a bd 31 d6 e0 3c
       0.027037758 0.005518864 -0.053346973 0.027445884
0003f0 40 d4 33 bc 5a 65 2a 3c b9 38 64 bc b2 3a 9a 3c
       -0.010975897 0.010400141 -0.013929539 0.018826816

linear_stack.2.bias f4 [400]
000000 03 0d 23 bd 65 9d 84 3e ad 5b 3f bd d5 ae 6b 3e
       -0.03980733 0.25901332 -0.04671829 0.23015912
000010 87 b2 82 3e 2b e7 b3 3e fe 4b 8a 3e 05 ff f8 3d
       0.2552683 0.35137305 0.27011102 0.12158016
000020 dc 34 87 3e c9 ab 86 bc 42 70 28 bd 8a 54 81 bc
       0.26407516 -0.016439335 -0.041122682 -0.015787382
000030 ed 9b 7d bc 3b 71 8f 3e 67 c0 2b bc 35 74 56 3e
       -0.01547907 0.28016075 -0.010482884 0.20942767
000040 dc 9c 89 3e 62 ba 85 bc 99 00 84 3e 7f 44 11 bd
       0.26877487 -0.016324226 0.25781706 -0.035465714
000050 00 e7 25 bb 18 e1 43 bd c5 7f 5f 3e 4f 24 91 3e
       -0.0025314689 -0.047822088 0.21826084 0.28348014
000060 83 35 07 3e 02 3c 37 bc 09 b2 82 3e 75 af 4d 3e
       0.13204007 -0.011183741 0.25526455 0.20086463
000070 9c c8 27 3e c2 0b b6 be 0a 6a 97 bc dd 7e bc bc
       0.1638512 -0.35555845 -0.01848318 -0.023009712
000080 33 0b 94 3b 32 01 92 3e f4 66 50 3e 6b 27 93 3e
       0.0045179366 0.28516537 0.20351774 0.2874101
000090 cf f8 1d 3e 40 c4 3e bd d9 9d 21 3e b3 eb 99 3e
       0.15426944 -0.046573877 0.1578287 0.30062637
0000a0 46 cc 48 3e 7e b4 67 3e b7 74 fa ba 21 6d 24 3e
       0.19609174 0.22627446 -0.001910827 0.16057254
0000b0 16 5d 92 3e f0 9a 73 bd 59 a5 2f 3e ff 7b 56 3e
       0.28586644 -0.05947393 0.17152919 0.20945738
0000c0 38 5b 67 3e 6c 3c be 3d 62 80 20 bd f7 72 03 bd
       0.22593391 0.09288868 -0.039184935 -0.03209206
0000d0 f7 4b 5d 3e 22 ef 2c 3e c8 43 37 3e b3 a5 10 3c
       0.2161101 0.16888097 0.1789695 0.008828568
0000e0 ed 57 41 3c 2d 01 f9 3c 25 61 92 3e eb ae 2a 3e
       0.011800748 0.030396068 0.2858974 0.16668288
0000f0 ba 93 14 bd e9 26 ae 3d a2 ba 6d 3e ee 63 f8 3d
       -0.036273696 0.08503515 0.23215726 0.12128435
000100 a4 57 8f 3e 11 09 95 3e d2 45 9a 3e e3 ea 67 bc
       0.27996552 0.2910848 0.30131394 -0.014155122
000110 91 d5 8d 3e 86 0e 4d 3e 55 e3 2a bd c5 37 81 3e
       0.27702 0.20025072 -0.041720707 0.2523786
000120 5d 7e d9 bc 20 a4 02 bd 92 be 36 bd bc 9e 6e 3e
       -0.026549513 -0.031894803 -0.044615336 0.2330274
000130 01 6f 89 3e ad 91 36 3e 29 09 75 3e ba 47 3f bd
       0.26842502 0.17829008 0.23929276 -0.046699263
000140 5a fe 3f 3e 9f ec 88 3e 0a 5d 27 bd e6 35 60 3e
       0.18749371 0.26743028 -0.040860213 0.2189556
000150 f2 f3 9d 3e f3 88 e8 3b fb be 48 3e 60 06 0d 3e
       0.30850178 0.0070964037 0.19604103 0.13771963
000160 4a c9 11 bd 2f e0 86 3e d4 ec 52 3e 78 9d 0b bd
       -0.035592355 0.26342914 0.20598155 -0.03408572
000170 e5 b8 1f 3e 41 a1 39 3b 4c ad 8b 3e d9 10 50 bc
       0.15597875 0.0028324875 0.27280653 -0.012699329
000180 98 05 05 bd e5 38 52 bd 45 8b 1b 3e fa b6 12 3e
       -0.032476038 -0.05132379 0.15189846 0.14327613
000190 ea 52 7e 3e 9f 18 67 3e 51 88 1d 3e 8a 30 b7 bc
       0.24836317 0.22567986 0.15384032 -0.022362012
0001a0 68 7c 83 3e b1 e9 88 3e dd 28 6f 3e c6 04 84 3e
       0.25680852 0.26740792 0.23355432 0.25784892
0001b0 75 7f 46 3e 6d da e1 3c 9f 15 01 bd 05 9f c2 bb
       0.19384558 0.027569974 -0.03151476 -0.0059393668
0001c0 fb 54 8a 3e 64 bc 0d bd f8 18 bc ba 09 ff 53 3e
       0.2701796 -0.03460349 -0.0014350703 0.20702757
0001d0 a7 94 57 3c ab c6 82 3e 78 60 36 bd 20 9e 4b 3d
       0.013158 0.25542197 -0.044525594 0.049711347
0001e0 64 86 80 3e a7 be d2 3b 06 4c 38 3e dc a7 68 3e
       0.25102532 0.006431419 0.1799775 0.22720283
0001f0 cd a7 11 bd 1e d2 7e bc cb 14 5e 3e b5 f6 81 3e
       -0.035560418 -0.0155530255 0.2168762 0.25383535
000200 ed be 12 3e 4b b6 e2 ba 01 18 47 bd 4d 6f 85 3b
       0.14330645 -0.0017296759 -0.048606876 0.004072106
000210 b0 d3 46 3e 97 91 11 3e ab e5 61 3e aa 01 53 3e
       0.1941669 0.14215694 0.22060268 0.20606104
000220 4e a5 3c 3e 42 7f cf 3c a5 0d 5b bc b0 e4 07 bd
       0.18422434 0.025329236 -0.013369952 -0.033177078
000230 03 e9 28 3d d7 be a1 3e a1 86 1d 3e 65 65 74 3e
       0.041237842 0.31590912 0.15383388 0.23866804
000240 70 04 56 3e a8 17 63 3e 82 64 a6 bc b4 d3 23 bd
       0.2090013 0.22176993 -0.020311598 -0.039996818
000250 7d b5 36 bd e3 61 ad bc 82 f7 09 bd dc 5e 42 3e
       -0.044606674 -0.02116484 -0.033683307 0.18981498
000260 ff 2a 70 3e 4d 17 64 3e f9 73 7e bd af 8c cf 3e
       0.23453902 0.22274514 -0.06212232 0.4053702
000270 30 81 81 3e 04 e6 93 3e 07 75 a9 3e 0a 04 3e 3e
       0.25293875 0.28886425 0.33097097 0.18556228
000280 28 58 5f 3e 47 c2 95 3e 5c 68 74 bb 73 0d 3b 3e
       0.21810973 0.29249784 -0.0037293648 0.18266849
000290 49 7f 88 3e 21 50 01 3e b8 5f 5c 3e 4f d9 3f 3e
       0.2665961 0.12628223 0.21520889 0.1873524
0002a0 cd df b2 bc 62 a0 38 3d 12 b6 f9 3d c9 d7 4d 3e
       -0.021835232 0.045074828 0.1219293 0.20101847
0002b0 f2 8f 47 3e d2 24 05 3e 5f b9 22 3e 17 0d 8a 3e
       0.19488505 0.13002327 0.15891026 0.26963112
0002c0 1b f5 39 bd a3 3e 59 3e f3 19 9b 3e 7d b2 88 3c
       -0.045399766 0.212153 0.30293235 0.016686672
0002d0 84 a6 14 bd 0f 9f 54 3e 38 a5 7f 3e ce c9 89 ba
       -0.036291614 0.20763801 0.2496537 -0.0010512413
0002e0 e9 88 45 bd 67 65 20 3e 63 c8 e4 bc 20 0c 2b 3e
       -0.04822627 0.15663682 -0.027927583 0.16703844
0002f0 fc e8 3b 3e cc 6c 31 3d c3 9d 4d 3e 5a 4d 36 3e
       0.18350595 0.043316647 0.20079713 0.17802945
000300 20 bb 3d 3e 87 da 02 3d 6b 4a 08 3d a0 62 1c 3e
       0.18528414 0.031946685 0.033274096 0.15271997
000310 ef d6 8a 3e 3a f4 59 bc a3 e1 01 bc 7d 05 27 3e
       0.27117106 -0.013302857 -0.007927331 0.16310687
000320 50 1a 18 bc ca bc 62 3e 77 b5 85 3e b8 94 97 3e
       -0.009283617 0.2214233 0.2611501 0.2960565
000330 17 85 a9 bc 75 d0 98 3e 4e b9 18 3e 7b 8e 27 bd
       -0.020693345 0.2984654 0.14914438 -0.040907364
000340 d6 32 46 3e ef a2 42 3e 50 05 68 3e 23 bf 21 3d
       0.1935533 0.19007467 0.22658277 0.039488923
000350 a6 89 15 3e 8a d6 8d 3d 4d 06 3d 3c 30 7f 8a 3e
       0.1460329 0.06925686 0.011537147 0.2705016
000360 e9 bc a1 bc b0 cf 69 3e b0 f8 f3 39 b4 8e 2f 3e
       -0.0197434 0.22833133 0.00046533858 0.1714428
000370 5d ac 97 bc 63 d0 ff 3c c4 15 7f 3e 19 72 3b 3e
       -0.018514806 0.031227296 0.24910647 0.18305244
000380 9d 63 e9 bc f8 4b 01 bd 6e 6d e1 3d fc b7 5c bd
       -0.028489882 -0.03156659 0.110072 -0.0538864
000390 c6 34 84 3e a0 c9 18 3e a9 23 95 3e 44 70 55 3e
       0.25821513 0.14920664 0.2912877 0.20843607
0003a0 8d 10 cb bb 9c 6a 8c 3e 5c 2e 64 3e f6 86 62 3e
       -0.0061970414 0.27425086 0.2228331 0.22121796
0003b0 bf ed 6c 3e fa 66 aa 3e bd 98 11 bd ea c8 9c 3e
       0.23137568 0.3328169 -0.035546053 0.30622035
0003c0 a7 19 a4 3b 3b 5f 34 3c e2 c7 3d 3e 20 bd 30 bd
       0.005007941 0.011009033 0.1853328 -0.043149114
0003d0 3c 1f 42 3e e1 0b 8c bb 10 93 e5 3c 22 34 81 3e
       0.18957227 -0.004273877 0.028024226 0.25235087
0003e0 97 e0 f4 3c bc c8 6f 3e b3 06 6b 3e ef f5 6e 3e
       0.029892249 0.23416418 0.22951774 0.23336004
0003f0 a4 75 7d 3e c3 3e bd bd 97 c8 7e 3e f2 24 21 3c
       0.24751908 -0.092404865 0.24881206 0.009835469

linear_stack.4.weight f4 [5, 400]
000000 fb 37 e7 3c c8 c9 be 3d a4 e2 f7 bc f2 c2 cf 3d
       0.028224936 0.093158305 -0.030259438 0.10144605
000010 43 32 2e 3e 21 d3 6e 3e d3 d7 9c 3d 36 df 8a 3d
       0.17011361 0.23322727 0.07658353 0.06780855
000020 6a 79 c6 3d 04 7d d8 bc 53 c7 43 bd 63 29 ee bc
       0.09691127 -0.0264268 -0.047797512 -0.02907247
000030 50 d7 86 3c 05 85 1e 3d e2 18 03 bd 43 52 42 3e
       0.01646009 0.038701076 -0.032006152 0.18976693
000040 0a fb 08 3e 53 22 1d bc 4d eb 43 3e e0 11 e0 bc
       0.13377014 -0.009590703 0.19132729 -0.027352273
000050 00 50 31 bd 18 67 72 3c b3 14 6a 3e 1d b0 ca 3d
       -0.043289185 0.014795087 0.22859459 0.09896872
000060 93 9b ab 3d 67 4b 2a bb 12 36 17 3e 8b 0b 87 3d
       0.08379283 -0.0025984885 0.1476672 0.065939985
000070 ab ad 8c 3e ba 77 31 bf 73 ac aa 3c 5a 79 6f 3c
       0.27476248 -0.69323313 0.020834183 0.014616335
000080 5a b4 25 3d ec 86 00 3e 43 3f 05 3e d5 e3 03 3e
       0.0404552 0.12551469 0.13012414 0.1287988
000090 68 24 25 3e 9a f2 3a 3c ab 2e 42 3c 32 7b 22 3e
       0.16127169 0.01141038 0.011851947 0.15867308
0000a0 a1 34 cd 3d b0 bc a1 bd a9 37 a1 3b b6 ea 08 3e
       0.10019804 -0.078973174 0.0049199653 0.13370785
0000b0 cc cc 50 3e 0d 99 59 3e 17 b9 22 3e dc 5e 42 3e
       0.20390624 0.2124979 0.15890919 0.18981498
0000c0 a7 79 32 3e 69 9d bb 3c 62 6d 09 3d 10 0e 2a 3d
       0.17429219 0.022902207 0.03355158 0.041517317
0000d0 0c 11 f9 3d 6a 47 3f 3d a5 d1 80 3d 13 0f e1 3c
       0.121614546 0.046698965 0.062899865 0.027473008
0000e0 d3 06 07 bc 52 28 10 bd e8 0b 03 3e 3a a1 98 3d
       -0.008241373 -0.035194702 0.1279751 0.074526265
0000f0 80 d8 f7 3b 1b bf de 3d 84 9f b2 3d f3 89 2b 3d
       0.0075636506 0.10876294 0.087218314 0.041879606
000100 e3 fb 09 3e 05 cd 54 3e 46 1d d0 3d aa 02 c8 bc
       0.13474993 0.20781334 0.101618335 -0.024415333
000110 5b 1e e1 3d ec ba cc 3d bf 22 49 bd 71 66 17 3e
       0.10992118 0.0999659 -0.049105402 0.14785172
000120 6a c5 3d bd 33 a8 b5 3b e7 9f 1f bb c0 4c 30 3d
       -0.046330847 0.0055437325 -0.0024356784 0.043041945
000130 49 1e a7 3d 5d 0c cc 3e af e6 2b 3e d7 1f 04 bd
       0.08160073 0.39853182 0.16787218 -0.032256927
000140 1a a4 7e 3e cb 42 40 3e 1a 87 04 bd 62 49 4e bf
       0.24867287 0.1877548 -0.032355405 -0.80580723
000150 29 79 5c 3e 5a ac a8 3c 38 d4 85 3d ee 55 3f 3d
       0.21530594 0.020589996 0.06534618 0.04671281
000160 b3 53 4b bd 2b 80 e2 3d 65 b4 f6 3d d3 d8 39 bd
       -0.04964037 0.11059602 0.12046126 -0.045372795
000170 5d 56 88 3e 26 df 8b 3b ae 23 4c 3e 13 40 f6 bc
       0.2662839 0.0042685447 0.19935486 -0.03005985
000180 75 94 f3 3c 2b 91 35 bd f3 e5 94 3d 32 91 93 3d
       0.029733876 -0.044327896 0.07270422 0.07205428
000190 e2 a5 b1 3d 3c 0d 18 3e 80 3a 2e 3e dd f2 8b 3c
       0.08674218 0.14848799 0.17014503 0.01708358
0001a0 e6 53 87 3e cb a0 f9 3d c4 dc ff 3d 85 60 36 3e
       0.26431197 0.12188872 0.124932796 0.17810257
0001b0 6e cb c4 3d 12 95 0e 3d b3 15 2c bd 83 af bd bc
       0.09609114 0.034810133 -0.04201288 -0.02315498
0001c0 05 86 ea 3d 65 6e db b9 65 63 0d 3d 8b 97 03 3e
       0.114513434 -0.00041853185 0.034518618 0.12850778
0001d0 eb f5 00 bd aa 57 e9 3d 7a 7f 22 bc 02 34 14 bd
       -0.031484526 0.11393674 -0.009918088 -0.03618241
0001e0 5d 4f 7f 3e 0b ca 14 bd 1f d9 04 3e fe ab 8b bd
       0.24932618 -0.036325496 0.1297345 -0.06819914
0001f0 da d5 19 3d d3 12 3e bb 92 1d 2c 3e 34 5f b5 3e
       0.03755746 -0.002900292 0.16808155 0.35424197
000200 e5 e1 02 3e 71 d7 b2 3b 80 cc 92 bb 40 a8 e1 3b
       0.12781484 0.0054578115 -0.0044799447 0.006886512
000210 29 4e 95 3d 9a 8a c4 3e ee b6 2e 3e 95 18 da 3d
       0.072902985 0.38386995 0.1706197 0.1064922
000220 33 fe 80 3e de b6 1a bd 53 b6 a6 3c 53 5b c9 3c
       0.2519394 -0.037772052 0.02035061 0.02457968
000230 27 2a 5a bc 50 0a e6 3d 2b 3b 4b 3d 2b 7a 0b 3e
       -0.013315714 0.11232436 0.049616974 0.13620822
000240 ca 17 70 3e 9d 9b 41 3d db 68 44 3d c4 e5 5d 3c
       0.23446575 0.047267545 0.04795156 0.01354355
000250 ac d8 03 3d e7 df e9 bb c0 da 19 bc 21 4c 1f bd
       0.032189056 -0.007137287 -0.009390533 -0.03889096
000260 56 45 44 3e 99 0c b7 3d 4d 44 4b bc aa a2 10 bd
       0.19167075 0.0893795 -0.012406421 -0.03531138
000270 89 cb f0 3d 8b eb 40 3e 10 ec 03 3e 4e b8 1a 3e
       0.11757571 0.18839853 0.1288302 0.15109369
000280 6c 86 31 bf ba a7 da 3c e2 2d cb bc ed 70 cc 3d
       -0.69345737 0.026691306 -0.024802152 0.099824764
000290 a7 64 ce 3d 98 55 af bd 8a 2b ab 3d e4 47 2e 3e
       0.10077792 -0.085612476 0.08357914 0.17019612
0002a0 f7 fe e9 bc 16 e6 39 ba 03 27 8a 3d 50 68 8c 3d
       -0.02856396 -0.00070914754 0.06745722 0.068558335
0002b0 2e 32 c8 3d 1e aa b4 3e bf 4c d7 3d 1e 67 24 3e
       0.09775196 0.3528604 0.10512685 0.16054961
0002c0 e9 99 32 bd 73 ce fb 3d 16 78 f2 3d ad db 32 bc
       -0.04360381 0.122952364 0.11839311 -0.010916633
0002d0 ae ca 05 bd ea be 7e 3e 1f 01 35 3e 69 9c f2 3b
       -0.032663994 0.24877515 0.17676209 0.0074038994
0002e0 0f 37 31 3d 78 1a 20 3d d3 3d 8f bb 1f d9 1a 3d
       0.0432654 0.039087743 -0.0043713837 0.03780472
0002f0 9e d8 4f 3e 7e 7d c7 bc 0c f0 6c 3e 7a b9 2c 3e
       0.20297477 -0.024351832 0.23138446 0.16867629
000300 26 96 1d 3d c3 35 d1 bc c0 53 fc bb ea 77 d3 3d
       0.03847327 -0.02553833 -0.0077004135 0.10325606
000310 92 63 dc 3d 68 16 1d 3d cb 22 a6 bc 20 9e 83 3e
       0.10761179 0.038351446 -0.020280262 0.25706577
000320 8d b1 d8 3b 57 49 87 3d 6f ac 5b 3e f8 49 44 3e
       0.0066129626 0.06605785 0.21452497 0.19168842
000330 33 42 89 bc 1e 05 16 3e fd 8c ae 3d b4 1d eb 3c
       -0.016755199 0.1465039 0.08522985 0.028700687
000340 d5 5e 05 3e 17 55 11 bb 28 0d 34 3e 3d 3d cc 3c
       0.13024457 -0.0022175962 0.17583144 0.024931544
000350 f3 2e d1 3d d0 70 3e 3c a0 4e d5 bc c7 73 d5 3d
       0.10214033 0.011623576 -0.026038468 0.104224734
000360 ee 4e fd bc 55 f0 ca 3d c5 20 e2 bb 53 59 0f 3e
       -0.030921426 0.09909121 -0.006900879 0.13998918
000370 ee ee 2b 3d 53 a3 7f bc a4 83 f9 3d 09 3e e1 be
       0.041975908 -0.015602904 0.121833116 -0.43992642
000380 23 69 23 3d 3f a7 f9 3b a0 f1 62 bd 80 82 56 3c
       0.039895188 0.0076188142 -0.055406213 0.013092637
000390 2a 50 32 3e 2a 04 b6 3d f6 90 96 3d ca 6f f0 3d
       0.17413393 0.08887513 0.07351868 0.11740072
0003a0 fd 05 94 3c 22 69 44 3e 88 7b 0f 3e c0 d0 ef 38
       0.018069262 0.1918073 0.14011967 0.00011435291
0003b0 91 ed ef 3d 1e 74 6a 3e b3 4a 16 3b 49 f6 cf 3d
       0.11715234 0.22895858 0.0022932708 0.10154397
0003c0 f0 21 48 3d d4 24 0b bd f3 dc 1e 3e 78 e0 4a 3d
       0.04886049 -0.03397067 0.15513973 0.049530476
0003d0 e9 e6 18 3e 4c a8 5a b9 aa 35 99 3c de ac 9d 3d
       0.14931835 -0.00020852796 0.018702347 0.076989874
0003e0 88 3a 03 bd bc a0 b6 3e 65 80 ed 3d fd cc 21 3e
       -0.03203824 0.35669506 0.11596755 0.15800853
0003f0 67 e3 0a 3e 2f 53 86 3c 27 21 b3 3d 66 c9 b9 bb
       0.1356331 0.016397087 0.08746558 -0.0056697605

linear_stack.4.bias f4 [5]
000000 6d 64 53 3e d3 36 01 3e fe b5 72 3e c3 b7 89 3e
       0.20643778 0.1261857 0.23702237 0.26898012
000010 53 47 6a bc
       -0.014299232
