data/U3_new/model_UAV_1.pth (torch, 660400 bytes, 6 tensors)

linear_stack.0.weight f4 [400, 4]
000000 4d 2b 9a bd 94 8b c4 3e 61 06 cc 3e 9b 35 48 3e
       -0.0752779 0.3838774 0.39848617 0.19551699
000010 55 ca b5 3d 6a 58 b3 3e 36 ed 3a be 03 3d 63 3e
       0.088764824 0.35028392 -0.18254551 0.22191243
000020 cf 4c c2 3e e3 82 a6 3e 3c e2 20 3f dd d4 85 be
       0.37949225 0.32521734 0.62845206 -0.26138964
000030 7e ce fd 3e ca 3c 33 3e cb a3 a3 3e 93 1e 17 bd
       0.49571604 0.17503658 0.31960902 -0.036894392
000040 9b c1 a9 3d ca b7 9b 3e b2 7b 56 bf 05 80 5d bf
       0.082888804 0.30413657 -0.83782494 -0.8652347
000050 65 19 e9 3d 14 d0 28 bd b2 a1 dd 3e e0 33 1a 3e
       0.11381797 -0.041214064 0.43287426 0.15058851
000060 55 93 98 be 59 b8 a1 3e bb 26 49 3e 45 8d 85 be
       -0.29799905 0.3158596 0.19643681 -0.26084343
000070 30 ae de be 34 34 a8 3e 99 41 33 bf 60 37 11 bf
       -0.4349227 0.32852328 -0.7002197 -0.5672512
000080 95 26 01 3e fc c2 47 bd 94 7f 05 bf a8 93 91 be
       0.12612374 -0.048769936 -0.52147794 -0.28432965
000090 a5 cd 17 bf d1 15 49 bd 30 44 a1 3e 4c 4e 2a 3f
       -0.59298164 -0.04909307 0.31497335 0.6652572
0000a0 d0 f2 04 3d 57 4a 00 3e e5 5e 26 3e 0b 16 23 be
       0.032458127 0.12528358 0.16247137 -0.15926377
0000b0 c6 c7 82 be f3 f2 ca bd 4c 35 45 bf 51 3d 87 3f
       -0.2554304 -0.0990962 -0.7703445 1.0565587
0000c0 02 77 4b be 16 99 84 3e c9 9f c5 bd 1c 2c 83 bc
       -0.19869617 0.25898045 -0.09649617 -0.016012244
0000d0 52 37 5a 3e f9 c7 fe be 81 e4 59 3e 41 96 6b 3f
       0.21310166 -0.49761942 0.21278574 0.92026144
0000e0 49 79 d0 bd ae 52 ef bd cd 13 a2 3d d7 50 3e 3f
       -0.10179383 -0.11685692 0.07913933 0.743421
0000f0 00 5c d5 bc 80 51 37 be 98 13 da bd ee d8 98 be
       -0.026044846 -0.17902184 -0.106482685 -0.29853004
000100 60 f0 4b be 00 8c 5f 3b 00 dd 72 bd 80 e7 72 3c
       -0.19915915 0.0034110546 -0.059292793 0.014825702
000110 f5 71 c7 be 9c 6f 1e 3e 30 c6 f9 3d c9 32 22 bf
       -0.3895413 0.15472263 0.121960044 -0.6335874
000120 d2 1e f9 be c8 ba d1 bd 88 01 95 3e 20 57 c6 3d
       -0.48656327 -0.10240704 0.2910273 0.096845865
000130 c1 0c 16 bf 1d d0 f7 bc c0 ef 5a 3f ec 1f 87 be
       -0.5861321 -0.030250603 0.8552208 -0.26391542
000140 9a 7a a3 bc 4b c7 04 3d 64 ff ee 3e 13 1f c1 be
       -0.019955922 0.032416623 0.46679223 -0.3771902
000150 36 34 c0 3e 06 45 4d be f7 df e9 3e ba 02 f8 3e
       0.37539834 -0.20045862 0.45678684 0.4843958
000160 b9 f0 e1 be a6 bf 87 bd 30 f4 cc 3a 3d 75 3f be
       -0.4412897 -0.06628351 0.0015636738 -0.18697067
000170 cf 6c 96 3d 21 70 09 3e ef 28 b0 3d 7c 36 43 3f
       0.07344972 0.1342168 0.086015575 0.7625501
000180 c6 14 c5 3e 91 6c 6d bd ee e4 a2 bd ce 15 d7 3e
       0.3849241 -0.057964865 -0.07953821 0.42008823
000190 e3 61 4b bd 1d 91 34 bd c9 8a b7 be 40 21 7e bd
       -0.0496539 -0.044083703 -0.35848072 -0.06204343
0001a0 ca 2d ec bc 0e 97 d6 3e 51 91 8d bd ab 30 8f be
       -0.028830428 0.4191212 -0.069124825 -0.27966818
0001b0 d3 02 e4 3e d8 12 2c be f5 34 24 3f 9a c6 31 3f
       0.44533405 -0.16804063 0.64143306 0.69443667
0001c0 7d d4 53 3e b7 c7 1b be 94 46 b0 3d 3a 0a d1 3e
       0.20686527 -0.15212904 0.08607212 0.40828115
0001d0 1d 31 72 be 29 76 4b bd 63 1d 5d 3e 67 e2 f6 bd
       -0.23651548 -0.049673233 0.21593241 -0.120549016
0001e0 8b 85 a5 3e f4 f5 52 3e 92 21 2b 3e e7 fb 2e 3d
       0.32328448 0.20601636 0.16712025 0.0427207
0001f0 a1 29 60 3e 15 87 4e 3e 9d 68 d7 3e 69 b5 45 3f
       0.2189088 0.20168717 0.42072 0.77229935
000200 ed eb b4 3e e0 5b c4 bd 54 51 01 bf 68 c8 8b 3e
       0.35336247 -0.09587836 -0.5051472 0.27301335
000210 ff ef a4 be 87 0f 7d 3e 3a 72 fd 3e 5d 44 ea 3e
       -0.32214352 0.24712954 0.4950121 0.45755282
000220 e1 04 81 be 4f 7b bf 3e 8e a5 93 be e0 fe 4c bf
       -0.25199035 0.37398764 -0.28837246 -0.8007641
000230 f1 ef 4c 3d 9e 79 ee 3e af 5d 92 3d dd ec 9d 3e
       0.050033513 0.46577162 0.07146775 0.30844775
000240 44 87 30 3e 9a 74 14 be 21 95 46 3f 9c 0d 65 3e
       0.172391 -0.14497605 0.775713 0.22368473
000250 73 79 8d 3e 1a 74 02 bf 48 00 bf bf 09 4c 28 3f
       0.2763172 -0.50958407 -1.4921961 0.6574102
000260 40 c8 8b be dc e0 a9 be bc c7 d3 be 90 ac 98 be
       -0.27301216 -0.33179367 -0.41363323 -0.29819155
000270 87 59 a8 be de ad 48 bd b0 54 22 3c fa 58 03 be
       -0.32880804 -0.048993938 0.009907886 -0.1282691
000280 7e f3 cb 3e b5 f9 97 be 81 a0 a6 3e 86 67 26 3f
       0.39834207 -0.296827 0.3254433 0.65001714
000290 0d 91 b2 3e 4a af cd 3e 84 1d 53 3e 78 5e 1a be
       0.3487629 0.40172797 0.20616728 -0.150751
0002a0 c1 82 65 be 48 9f f7 3e 9e 63 e8 3e b3 cf 92 3d
       -0.2241316 0.4836371 0.45388502 0.07168522
0002b0 00 71 e4 be 50 0e b0 be 48 cd dc 3e f2 5d e6 be
       -0.44617462 -0.3438592 0.43125367 -0.4499355
0002c0 06 3c 18 bf 07 6c b1 bd 7f df d9 3e bf d3 2a 3f
       -0.5946659 -0.08663183 0.42553326 0.6672935
0002d0 c3 f3 74 bd f1 72 7c 3e 4a 0d 46 3e ea ee ce bd
       -0.05980278 0.24653222 0.19341007 -0.10104163
0002e0 c6 44 b0 3e f6 51 a1 3e 2c 4b 17 3b 1f c4 9d be
       0.3442747 0.31507844 0.0023085577 -0.3081369
0002f0 d8 c0 99 3e c8 b9 47 be e6 2e 08 bf 39 44 76 bf
       0.3002994 -0.19504464 -0.5319656 -0.9619785
000300 15 57 81 3e 94 5a a3 3e 8a 15 b2 3e ba 59 62 be
       0.2526175 0.31905043 0.34782058 -0.2210454
000310 fc e6 86 be 2a af a6 3c 19 57 0d bf 9e 84 b1 3e
       -0.26348102 0.020347197 -0.55211025 0.3467149
000320 7f b2 3b bf 18 dd 00 3e 43 c9 88 3e 66 c1 6d bf
       -0.7331924 0.1258434 0.2671605 -0.9287323
000330 6a ac 89 be 26 d0 dc be 18 18 fa 3e c0 e4 96 3d
       -0.26889354 -0.43127555 0.48846507 0.07367849
000340 ff 96 59 3e 2f 80 c3 3e 45 f3 6a be e8 18 04 bf
       0.21249007 0.38183734 -0.22944362 -0.51600504
000350 01 f8 c5 3d fe cf a1 bd 66 a1 6b be f2 ca 6d 3f
       0.096664436 -0.079009995 -0.23010787 0.92887795
000360 93 a3 11 3e 17 bd 21 3e e4 73 49 be 52 e5 bc 3e
       0.14222555 0.15794788 -0.19673115 0.36893708
000370 34 5a e7 3e 2f b5 26 bd 1f 74 87 be 03 02 44 3e
       0.45186007 -0.040700134 -0.2645578 0.19141392
000380 60 fc 41 3e 81 f7 97 bd 79 57 fc 3e 0f 0c bd be
       0.1894393 -0.074202545 0.49285486 -0.36923262
000390 b5 97 5e be 82 ae 52 bd 2e cb 22 3f 22 f7 37 be
       -0.21737559 -0.051435955 0.6359128 -0.17965367
0003a0 e8 07 cf 3e 77 dc a8 3e 74 ce c7 be 39 9a d7 be
       0.4043572 0.329807 -0.390247 -0.4210985
0003b0 76 96 06 be bf b6 73 3e a4 97 b2 be 37 8e 81 be
       -0.13143334 0.23800181 -0.34881318 -0.25303814
0003c0 a2 02 97 bd 8d 56 eb 3e cc 40 27 bd 5a 55 8c bd
       -0.07373549 0.4596447 -0.04083328 -0.06852217
0003d0 c4 3b f7 be 56 14 bb 3e 7d 3d 2e bf 7c 71 9e 3e
       -0.48287785 0.36538953 -0.68062574 0.30945957
0003e0 b9 49 ce be b3 40 4e bf 40 20 43 3d 43 30 a8 3f
       -0.4029062 -0.80567473 0.047638178 1.3139728
0003f0 65 54 3c bf 7a 0d a6 bc 5a f8 41 3f 78 7b 2f 3e
       -0.73566276 -0.020270098 0.7576958 0.17136943

linear_stack.0.bias f4 [400]
000000 ab 33 9e be 4b 22 30 bf f8 d8 a7 be 20 72 ef be
       -0.30898795 -0.68802327 -0.32782722 -0.46766758
000010 c0 4f 42 bf 60 0a 37 3f a2 04 0c bf 73 18 4a bf
       -0.7590294 0.71500206 -0.5469457 -0.78943557
000020 15 c0 53 3f 9d 97 10 3f 34 49 f5 3e b3 50 0b bd
       0.8271497 0.56481344 0.47907412 -0.034012508
000030 6e 8b 87 bf 17 aa ff 3e 1c 20 81 3f 40 ac 1a be
       -1.0589426 0.49934456 1.0087924 -0.1510477
000040 c0 22 59 be 59 03 c6 3e d8 65 9f be 42 0a 12 3e
       -0.21204662 0.3867443 -0.31132388 0.14261726
000050 fa 24 36 3c 69 6e 0d 3f bb 46 2b 3f c0 69 87 bd
       0.011117214 0.552466 0.669048 -0.06611967
000060 45 ff 28 3f e6 92 44 3f 8f 3c 31 3f d5 68 44 be
       0.6601451 0.7678665 0.6923303 -0.19180615
000070 a8 1a ec bc f2 95 32 3f d8 8b 9f be 6e c2 bd be
       -0.028821304 0.6976005 -0.3116138 -0.370624
000080 c8 82 08 bf 39 64 a5 be d7 1a 00 bf dd 2f 13 3f
       -0.53324556 -0.32303026 -0.50040954 0.5749491
000090 51 ea 0d 3f d9 06 68 bc 0c f3 11 be 7b 38 fc 3e
       0.55435663 -0.014161789 -0.14252871 0.4926184
0000a0 50 25 9a 3e 8b 12 8f 3e 4d f7 23 3f 4e b1 a5 be
       0.30106592 0.27943835 0.64049226 -0.32361835
0000b0 cb 94 4b 3f 27 e9 4f 3f ed 40 e4 be 65 9b f9 3e
       0.79523915 0.8121514 -0.44580784 0.4875137
0000c0 47 23 20 3f 95 47 33 3f 30 ca ba 3e d4 89 2b be
       0.6255383 0.700311 0.36482382 -0.16751796
0000d0 ff 20 00 bf 04 d8 a9 3d 62 d4 3d bd 83 35 03 3f
       -0.5005035 0.08293155 -0.046345122 0.5125353
0000e0 29 ae 37 3f 50 3f 15 3f d3 9f 59 bf 5b 72 7a bf
       0.7175012 0.5829973 -0.850095 -0.9783074
0000f0 e8 7d de be 59 c4 02 bd b5 f8 ad bd 4b 32 0a 3f
       -0.43455434 -0.031925533 -0.08494703 0.5398299
000100 7e 16 94 3c 15 fd bf 3e fa 87 83 be 83 97 d4 3e
       0.018077131 0.37497774 -0.2568968 0.41521844
000110 dc 5d 59 3f 8b 6c 4c 3f ef fd 3c 3f 3e 6c a8 be
       0.84908843 0.79853123 0.7382497 -0.32895082
000120 a4 71 04 3f d6 92 1e 3f e6 ba 9c bd 14 d3 09 3f
       0.517359 0.61942804 -0.076528355 0.53837705
000130 95 bc 1f 3d ed 3a 3e bf bb 8f fa be 7b 55 ae 3e
       0.038998205 -0.74308664 -0.48937783 0.3404959
000140 70 bb 60 3f c3 d8 0b 3c 28 33 0f 3f 17 1f d3 bc
       0.87786007 0.008535567 0.55937433 -0.02577166
000150 73 ee 21 3f dd 2e a6 3c c0 82 04 bf c3 28 af 3e
       0.6325447 0.020286018 -0.5176201 0.34210786
000160 8d f0 f0 3e 61 46 4f 3f 39 86 04 3f bd 9c 94 be
       0.47058526 0.80966765 0.5176731 -0.29025832
000170 11 d5 30 3e eb a6 20 3f c0 36 28 3f cb cf 2e 3f
       0.17268778 0.62754697 0.6570854 0.68285817
000180 27 53 3e 3f 58 03 bc be d7 ee 18 3f b5 55 1c bf
       0.7434563 -0.367213 0.5973944 -0.6106828
000190 50 a3 cd bd 48 cc 63 3f 9e 6b 25 bf 1e e7 13 3f
       -0.10040915 0.88983583 -0.64617336 0.5777453
0001a0 bf 69 01 3e d8 f5 8a be a0 9f 1f 3f ef 21 1f 3f
       0.12637995 -0.2714069 0.62352943 0.62161154
0001b0 48 20 7a be 69 1e 43 be 27 7d 00 3c 0f 43 fa 3e
       -0.24426377 -0.1905457 0.007842339 0.48879287
0001c0 e6 e9 90 be dc 2e d1 be 6b 25 35 3f a9 99 2c bf
       -0.2830345 -0.40856063 0.7076022 -0.67421967
0001d0 3d bf 25 3f 3e f4 aa be 7d 18 c8 bd 3e 52 1d be
       0.6474493 -0.33389467 -0.09770296 -0.15363404
0001e0 d9 ae 01 3f a4 6c 0a 3f 01 21 14 3f b1 cb 2a bf
       0.5065742 0.5407202 0.5786286 -0.6671706
0001f0 75 bd 3f 3f f1 3d bb 3e 00 e4 28 3f 91 67 bf be
       0.74898463 0.36570695 0.659729 -0.37383702
000200 24 8c 5a be 36 6a 91 be 36 a0 29 3f 82 26 95 be
       -0.21342522 -0.28401345 0.6626009 -0.29130942
000210 7e 40 35 3f 64 5b d4 3e 40 05 4c 3f d2 bc bb 3e
       0.7080153 0.41475976 0.7969551 0.36667496
000220 ea 5b 58 3f 4f f3 57 bf 07 4f 18 3f 7e 16 21 bf
       0.8451525 -0.84355634 0.59495586 -0.62924945
000230 57 82 13 bf 60 19 3c bf eb 7a 79 3e 54 48 22 be
       -0.5762076 -0.7347622 0.24363296 -0.15847903
000240 e6 a1 66 3e 4d 81 47 3f a4 e2 bb be 06 b5 99 be
       0.22522697 0.7793167 -0.3669635 -0.30020922
000250 4e 05 72 be 14 1c 2b bd 6e 08 46 3f a1 38 8b 3f
       -0.23634836 -0.041774824 0.7735661 1.0876657
000260 ef 14 04 3f f3 e3 13 3f 18 d3 d4 bd e9 0c ad 3f
       0.5159444 0.577697 -0.103918254 1.3519565
000270 4e ed 02 be ac 64 31 3e 3e 0d 1f 3f a4 4a 25 bf
       -0.12785837 0.1732356 0.6212958 -0.6456702
000280 2a 12 18 3f 9f 06 b5 be 57 72 45 3f 20 7f e6 be
       0.59402716 -0.35356614 0.77127594 -0.45018864
000290 42 02 ba 3e 1a e0 76 bf 00 85 00 be dc c3 12 3f
       0.36329848 -0.964357 -0.12550735 0.5733011
0002a0 63 bc 5c 3e 61 3d f1 be 7d 80 71 bd 14 4e 8d 3f
       0.21556239 -0.4711714 -0.058960427 1.1039453
0002b0 45 6e 9b bb 20 82 09 bd d2 15 50 bd 9c 01 e5 bc
       -0.0047433698 -0.033571362 -0.05080206 -0.027954869
0002c0 27 2c d3 be 96 77 e4 3e cb 8e 00 bb b0 be 18 3f
       -0.41244623 0.44622487 -0.0019616361 0.59665966
0002d0 80 76 77 bf 47 a3 49 3f 7a 44 08 3f 0b d1 18 3f
       -0.9666519 0.78764766 0.53229487 0.59693974
0002e0 1a 79 73 3e a3 6a 36 3f f3 a4 39 3f 13 31 41 3f
       0.23776665 0.71256465 0.7251732 0.75465506
0002f0 50 ac 59 3e 31 46 5a 3f 5c a1 4b be 81 1f ca be
       0.21257138 0.85263354 -0.19885772 -0.3947716
000300 51 8d d9 be 07 6a 39 3f 20 c2 f5 bd b9 2f 01 bf
       -0.42490628 0.7242741 -0.11999917 -0.50463444
000310 86 05 c3 be 56 29 e1 3e 8a 5d 90 3e 6e 21 15 3f
       -0.38090152 0.4397685 0.28196365 0.58254135
000320 fd ea 29 be 63 f0 cd 3e 02 24 ad be 07 7a 20 3f
       -0.16593547 0.40222463 -0.33816534 0.626862
000330 47 02 e6 3e f4 ab a6 bc 2a 6c d3 3d f1 1b 27 bf
       0.44923612 -0.020345666 0.10323365 -0.6527701
000340 93 d8 92 3f 93 69 b0 3c bb 4b 58 3f 79 10 e4 3e
       1.1472343 0.021534717 0.84490556 0.44543818
000350 19 4e 37 be b5 39 7a bd 27 f0 dd 3e 94 d0 18 be
       -0.17900886 -0.06109019 0.43347284 -0.14923316
000360 b6 73 22 3f c1 76 1c 3f f4 56 7a 3f b3 62 1a be
       0.6345781 0.61118704 0.9778893 -0.15076713
000370 56 0f 80 be 26 10 2b 3f 8f 2a 86 bf 5e 78 22 bf
       -0.250117 0.66821516 -1.0481738 -0.63464916
000380 b9 d7 b6 3e 02 df 06 3f 3a 36 e5 bd f6 2a b4 be
       0.35711458 0.5268403 -0.111919835 -0.35189027
000390 7e 3b d3 3d ac cf 2d be 0b 62 cd 3d 02 a1 f8 3e
       0.103140816 -0.16973752 0.10028466 0.4856034
0003a0 85 cf 30 3f 87 46 48 3f 2f a8 60 3c cc 07 14 bf
       0.6906665 0.78232616 0.013711973 -0.578244
0003b0 8e 6e 21 3f f6 93 40 3f ae a8 01 bf cd ce a9 be
       0.6305932 0.7522577 -0.5064801 -0.3316559
0003c0 de 09 e6 be 6f 13 11 bf 1a 1f d6 3e e4 43 78 3f
       -0.44929403 -0.5667028 0.41820604 0.9697859
0003d0 42 0b 22 3f 12 55 cf be be f5 ef 3e 57 0c 3f 3f
       0.6329843 -0.4049459 0.46867174 0.74628204
0003e0 d5 09 30 3f b7 72 01 3f dc f5 17 3f ed 87 af 3e
       0.68765 0.50565666 0.59359527 0.3428339
0003f0 89 9d 14 3f 0a e3 74 3f 06 ea 0e 3f 06 60 46 bf
       0.5805288 0.95658934 0.5582584 -0.7749027

linear_stack.2.weight f4 [400, 400]
000000 fd a2 ee bc 27 df 42 be 39 aa 21 bb 44 89 32 bd
       -0.029130453 -0.19030438 -0.002466811 -0.043587938
000010 30 9f 36 3e 67 ec ca 3d 22 f6 0a 3e 78 7c 01 bd
       0.17834163 0.099083714 0.13570455 -0.031612843
000020 49 c9 06 3e 64 57 9c be 1d 0a 3b 3d 07 ca b5 3f
       0.13162722 -0.30535424 0.04566394 1.4202279
000030 7c aa 2a bd dc 76 fb bd 81 39 44 3e 5b 37 00 3d
       -0.041666493 -0.1227853 0.19162561 0.03130279
000040 03 7f 8b bc 37 e4 87 3e 40 41 22 bc 3a 8c 77 bd
       -0.017028337 0.26541302 -0.009903252 -0.060436465
000050 f6 31 0e bd f2 56 02 3d ad a4 40 3e 9a 2a 95 3c
       -0.034715615 0.0318212 0.18812819 0.01820879
000060 96 c4 ac 3d ca c8 45 3d 43 4f c7 3d 67 94 f9 3b
       0.08435933 0.04828719 0.09731915 0.007616568
000070 4d 46 1f 3c 95 f0 a4 3e a1 9d fa bc d0 ce 84 3c
       0.009721351 0.322148 -0.030592741 0.016211897
000080 ac c1 c4 bd 6a bf 4f be 3c df 76 be 34 f0 bd 3d
       -0.096072525 -0.20287862 -0.24108595 0.09274331
000090 bf 1a 6d 3d 1a e5 ce 3e 2d e2 fb 3c c0 74 c9 3d
       0.057886835 0.40409166 0.030747497 0.098367214
0000a0 6f b3 bb bc d5 99 ed 3c d2 e1 04 3e 33 7f 5e ba
       -0.022912709 0.029004017 0.12976769 -0.0008487582
0000b0 6a 6d 81 be 0e bf 2a 3e 7d 0f 1e bc e8 4c b3 bd
       -0.2527879 0.16674444 -0.009647247 -0.08754903
0000c0 fb b6 5e 3d 70 5d 8a 3e b2 a7 db 3e e7 b9 59 3b
       0.054373723 0.27024412 0.4290138 0.0033222379
0000d0 ee f2 c1 ba 2c 18 50 3d f6 3a 68 3d 73 72 99 bb
       -0.001479713 0.050804302 0.056696855 -0.004682833
0000e0 30 32 6d 3d ca 0a 32 bd a9 12 2f bd 00 b4 5c 3e
       0.05790919 -0.04346732 -0.042742405 0.2155304
0000f0 c3 5c 3d bd 3d d8 c8 3c ab bf 59 40 d5 e2 01 bf
       -0.046231043 0.024517173 3.4023235 -0.50736743
000100 a2 0f 2e 3d 04 ff c5 3c 89 ed d0 bd c4 32 63 3e
       0.042495377 0.024169452 -0.10201556 0.22187334
000110 5a d0 60 bf ec 4f 5b 3d 5f 5d 9d 3c 17 23 88 3c
       -0.8781792 0.053543016 0.019209562 0.016618295
000120 9b c6 95 3d 7e b5 23 3e f2 03 d0 3c 18 3e 78 be
       0.073132716 0.15987203 0.025392506 -0.24242437
000130 f9 7c 67 be 55 6d ba bd 17 9f b1 bd d0 7c 98 3d
       -0.22606267 -0.09102885 -0.08672922 0.07445681
000140 bc 8e aa 3e df 9c c3 38 24 da 91 be 58 8b 28 3d
       0.33312023 9.327544e-05 -0.2848674 0.041148514
000150 99 bc e8 3d ef 09 29 bd 48 6a 2e be 6b 0e 8d bf
       0.11364097 -0.04126924 -0.1703273 -1.1020025
000160 fa 37 bf 3d ca 30 02 3f 56 b3 83 3d 6a 4e a0 bd
       0.093368486 0.50855696 0.0643069 -0.07827456
000170 24 33 81 3d ef 3b ae be e3 16 ee bd c6 4e 62 3e
       0.063085824 -0.340301 -0.11625459 0.22100362
000180 63 36 8c 3d 60 2b 6b 3c 44 9d 5b 3c fc 71 78 be
       0.06846311 0.014353603 0.013404194 -0.24262232
000190 80 25 76 3c 5b 13 ba 3e 18 c5 64 3d 31 7a 89 3e
       0.015023589 0.36342892 0.055852026 0.26851037
0001a0 dd 18 fa bc c0 3c 3e bc e9 60 8c 3c da 67 d3 3d
       -0.030529434 -0.011611164 0.017136054 0.103225425
0001b0 85 d2 06 bd ee 46 ac bc bf ec b8 3f 49 6e b5 be
       -0.03291561 -0.021029916 1.4447249 -0.35435703
0001c0 bd 55 d9 3a 60 ff 8c 3b 88 cc 28 3d c1 b0 37 bc
       0.0016581338 0.004302904 0.04121068 -0.011211575
0001d0 aa 6e c2 3d e7 e8 ec 3c 48 96 56 40 4b 29 24 be
       0.09493764 0.02891965 3.3529224 -0.16031377
0001e0 dc da 77 3d ab a3 23 3d e1 89 f6 3d f3 e2 90 3f
       0.060511455 0.039951008 0.12038017 1.131926
0001f0 45 6b ae 3b ce d0 d3 3e ab 68 6c 3e 87 8a f7 3c
       0.005322846 0.41370243 0.23086803 0.030217422
000200 04 9a 2d be 9a 6a 2a 3d 02 2a f0 3d 67 55 85 bc
       -0.16953284 0.04160557 0.11726762 -0.016276075
000210 86 15 07 3e 85 4a 22 3e 4e e6 a3 3d 84 e5 5a bd
       0.13191804 0.1584874 0.080029115 -0.05344154
000220 d3 2f 3e 3e 18 70 6a be 3b 8f 7b bd 8a 11 60 bd
       0.18572931 -0.22894323 -0.061415892 -0.054704227
000230 d1 b5 6e bd 1a 79 91 3f 77 06 8c bc 5a de bf bb
       -0.058278862 1.1365082 -0.017092926 -0.005855364
000240 f9 8e e8 3c 0e 2a 11 3e b0 66 d1 bc 9f e0 28 bd
       0.028388487 0.14176199 -0.02556166 -0.04122984
000250 7b c2 db bc 3d 40 3d 3d 9a cb 89 3e 0b 75 4f 3e
       -0.026826134 0.04620384 0.26913148 0.20259492
000260 7f a8 0d 3e 7a e7 a6 3d 1d dc e5 bc b1 82 a2 bf
       0.13833807 0.081496194 -0.02805906 -1.2696134
000270 b4 5c 93 3d 3e 3c db 3e e1 82 76 3d 96 dd 96 bd
       0.07195416 0.428194 0.06018341 -0.07366483
000280 d3 7e 94 bd 64 21 14 be 99 03 d2 3d b5 3a a7 3e
       -0.07250752 -0.14465863 0.102545924 0.32661977
000290 0a 24 0b 3d e8 e3 2f 3e 4a 69 12 bd 20 d2 a7 3c
       0.033969916 0.17176783 -0.035744943 0.020485938
0002a0 e1 60 c6 3e f1 c1 8d bd d4 42 88 bc c0 87 80 bf
       0.38745788 -0.06921757 -0.016633429 -1.0041428
0002b0 26 39 70 3c f0 ca e2 bc b5 12 74 bd 4b 68 d4 3a
       0.014662063 -0.027684659 -0.059588153 0.0016205398
0002c0 f9 34 17 bd b9 0f be 3c 23 a2 b2 3e e1 aa 2e 3c
       -0.036915753 0.023200857 0.34889325 0.010660858
0002d0 a2 16 54 be 2b 1e d2 3d 1a 59 b6 be 4e 4b a7 3d
       -0.20711759 0.1025966 -0.35614854 0.0816866
0002e0 70 0c a1 3c ad 98 d1 bd 31 e8 97 3d e5 b1 12 3e
       0.019659251 -0.10234199 0.07417334 0.14325674
0002f0 33 96 7f 3d 11 f7 ce 3e 84 46 91 3e 7f c6 cf bd
       0.0623991 0.40422872 0.28374112 -0.10145282
000300 64 d6 b9 be ae 17 0b be 81 67 d5 3d 86 0f a9 bd
       -0.3629638 -0.13583252 0.104201324 -0.08254914
000310 40 6e 9e 3b 32 13 a3 3c 9a 7d 75 3c f8 e0 65 bc
       0.00483492 0.019906614 0.014983559 -0.0140306875
000320 4e 2e b3 bc c8 a4 9b 3d 07 ac 2c 3c ca 2d 43 3d
       -0.021872666 0.07599789 0.010539061 0.04765109
000330 f3 d7 64 3c c4 f8 15 bd e0 3e 3f 3d 2a fa 7e bd
       0.013967502 -0.036614195 0.04669082 -0.062250294
000340 35 a1 98 bf d6 b3 1f 3d f3 ea eb 3d 49 3b cc be
       -1.1924196 0.038989864 0.115194224 -0.3988898
000350 8f d7 dc 3c 72 fd 02 bd e1 37 8a 3d 57 0d 8b bc
       0.026958255 -0.031979986 0.06748939 -0.016974134
000360 45 07 2b 3e 33 cf 05 3e 23 3e 24 bf 6c ac 2b 3c
       0.16701992 0.13067321 -0.64157313 0.01047812
000370 07 b2 35 bd 5a d8 01 be 05 cb aa 3a ab 30 40 bd
       -0.044359233 -0.12680188 0.0013030475 -0.046921413
000380 ea ee a3 3c f1 db 3e 3e f5 70 92 bf 67 a3 bd 3c
       0.020011384 0.18638588 -1.1440722 0.023149205
000390 25 39 10 3d c5 9b c8 3e be 8f db bc 52 67 84 3e
       0.035210747 0.39181343 -0.02680194 0.25860077
0003a0 68 0a ec 3c 8e 83 56 bd f5 47 25 bd 5e 1a 80 bd
       0.028813556 -0.052371554 -0.040351827 -0.06255029
0003b0 6f 7b b2 bd 37 64 de 3c 7c 6e 06 bd 40 9c 84 bd
       -0.08714949 0.027147396 -0.03282021 -0.06475115
0003c0 b8 5e 13 bd 64 55 1b bd e3 0d c7 3c a2 2a 01 3e
       -0.035979003 -0.03792323 0.024298614 0.1261392
0003d0 8f b9 e6 3d 10 54 8f bd 4f 07 cf 3d 95 12 04 3d
       0.11265861 -0.069984555 0.10108816 0.032244284
0003e0 6a 28 8e 3a 03 df 28 3d d1 3f 1b b8 35 35 a6 3c
       0.0010845785 0.041228306 -3.7014313e-05 0.020289043
0003f0 4c 6a 33 3d 07 2f 29 bf 8e 6b 65 3d 17 78 4a bd
       0.043802544 -0.66087383 0.056010775 -0.049430933

linear_stack.2.bias f4 [400]
000000 f2 10 24 3e 68 31 a7 bd 6d 4d 10 bd 30 e7 86 3e
       0.16022089 -0.0816372 -0.03523009 0.26348257
000010 3e ea 91 3e 48 c1 da 3d f7 88 e9 bc 19 5b 5d 3e
       0.28499025 0.10681397 -0.028507693 0.21616782
000020 2c 76 bc ba a3 8b 50 3c 2a 0a 1d 3d a1 ff a6 bd
       -0.001437848 0.0127286045 0.03833977 -0.08154226
000030 85 8e 9a bc 3e 89 82 3c 18 fa 78 3e a1 8d 8c 3c
       -0.018866787 0.015934583 0.24314153 0.017157378
000040 a3 c0 89 3e 7a e9 6c bc fd 83 29 3d 1e b9 c0 3e
       0.26904783 -0.014459962 0.04138564 0.37641233
000050 e1 3f d3 bb 17 19 b9 3c df 8a b8 bc 85 1f 5f be
       -0.006446824 0.022594972 -0.022527156 -0.21789367
000060 6f 0e 77 3d a4 0c 8a 3e 99 58 da 3c b7 4a 0f be
       0.0603165 0.2696277 0.026653575 -0.13993345
000070 48 b1 6a 3e 72 e1 33 3e 52 60 d5 3d 71 fa 92 3e
       0.2291919 0.1756647 0.10418762 0.28706697
000080 47 b0 84 3c e6 d1 a4 be b7 2a 3e 3d 51 24 c3 bd
       0.016197337 -0.3219139 0.046427455 -0.09528411
000090 05 35 be bd c3 5d 79 3e 27 8d 50 3e 98 cb 90 3e
       -0.092874564 0.24352174 0.20366345 0.2828033
0000a0 8d 4f 6f 3e 47 2b 04 bc 16 07 16 bd 73 3f ae 3c
       0.2337019 -0.008066959 -0.03662785 0.02127049
0000b0 ab 0c 9a 3e 7a 3e 15 bd 98 a6 14 bb 63 14 88 3e
       0.3008779 -0.036436535 -0.0022682305 0.26578054
0000c0 3d 7d 68 3e 25 d6 8c 3e 42 26 2f 3c 58 9b b1 3d
       0.22704025 0.2750713 0.010690274 0.086722076
0000d0 8e 91 b3 bc 92 f6 2d bd 35 50 78 3e f6 74 5f 3d
       -0.021919992 -0.042471476 0.24249347 0.054554902
0000e0 37 86 b1 3e fa d7 d3 bc dd 1d 95 be 6a 5d 92 3e
       0.3467271 -0.025859822 -0.29124346 0.28586894
0000f0 5d b4 4d bd 97 40 3a 3e 30 0a c8 bc 05 f1 1a 3d
       -0.050220836 0.18188702 -0.02441892 0.03782751
000100 ed 0f 21 3d 23 24 0f 3e e8 82 5f bd 48 70 1a bd
       0.03932183 0.13978629 -0.0545682 -0.037704736
000110 cf 68 81 3e 20 94 07 bc 7a 8f 37 3d 45 a4 0e bd
       0.25275275 -0.008275062 0.044814564 -0.03482463
000120 b3 e8 85 3e 37 f9 33 3d a9 c3 e5 3c 72 c5 85 3c
       0.26154098 0.04393884 0.0280474 0.0163295
000130 67 8a 3a 3c 4b 01 d6 bd 3d 63 04 bd f7 df 84 3e
       0.011385537 -0.10449465 -0.032321204 0.25952122
000140 61 d4 6c 3e 94 3a e5 3c a3 eb d4 3c 24 ba 62 3e
       0.23127891 0.027982034 0.025991267 0.2214132
000150 2b 10 8a 3e b5 76 42 3e 6b 6d 5a 3e a3 69 19 bd
       0.2696546 0.18990596 0.21330802 -0.03745426
000160 15 6f 97 3e 49 5e f2 bd f2 a6 a0 be eb 9b 8e 3e
       0.29576936 -0.1183439 -0.3137737 0.2785333
000170 d2 b3 f7 3d da 47 81 3e e4 52 fd 3d 3e c4 8c 3e
       0.12094845 0.2525013 0.12369326 0.2749347
000180 2b dd 2c bd 5f e4 04 3d 06 44 ab 3e 8a cc 1d 3d
       -0.04220311 0.032444354 0.33450335 0.03852514
000190 50 c4 c6 3c 60 a4 38 3c d5 dc 44 3e 39 c5 04 bb
       0.024263531 0.011269659 0.19224866 -0.0020259155
0001a0 8c bb 96 be 02 be 9c bb 33 e5 9b be 5a 1f 85 3b
       -0.29439962 -0.004783393 -0.30448303 0.0040625753
0001b0 57 21 76 bc 93 c9 11 bd 32 7d 57 bd 5d 63 a5 ba
       -0.015022597 -0.035592627 -0.05260963 -0.0012618114
0001c0 7b e5 71 3e b6 ee 4a be 64 18 09 bc bf 59 bd bd
       0.23622696 -0.19817623 -0.008367632 -0.09245633
0001d0 4c fb 99 be ac aa 8b 3e 66 d5 c4 ba 9b d0 b3 3c
       -0.30074537 0.2727865 -0.0015017211 0.021950057
0001e0 c3 40 a2 3e 51 73 2a be d7 cb 37 3e 00 e0 06 3e
       0.31690034 -0.16645552 0.17948852 0.13171387
0001f0 11 96 83 3e 60 14 52 3e 72 90 37 3e 9a 5f 5c 3c
       0.2570043 0.20515585 0.17926195 0.013450528
000200 2a 8a 1b 3e 0d 28 c1 bc 46 ef 3d 3c dd 50 93 bc
       0.15189424 -0.023578668 0.011592692 -0.017982895
000210 f7 5e 1c 3e a1 47 fc bc 4d dc 04 3b 45 5c 5b be
       0.15270601 -0.030795874 0.002027291 -0.21421917
000220 0b 56 27 bd 7a 32 85 3e bc f6 c9 3c d0 4b 5e 3e
       -0.04085354 0.26015073 0.024653785 0.21708608
000230 60 a2 18 bd 14 77 20 3e 1c a0 91 3e f9 8a 28 bd
       -0.037264228 0.15670425 0.28442466 -0.04114816
000240 0f bb 53 3e 4c cd 51 bd 57 f7 d5 bc d6 1d 57 3c
       0.20676826 -0.051221177 -0.026118917 0.013129672
000250 ad 2f 7a bc 89 96 c1 bc fc e6 66 3e ee e5 8a 3e
       -0.015270156 -0.023631351 0.22549051 0.27128547
000260 44 58 7d 3e af c5 7b 3e 76 5a 80 3e 15 3e 96 3c
       0.24740702 0.24587129 0.25069016 0.01834015
000270 25 4c 83 3e 5a 8d 84 3e 73 50 87 be 13 df 54 bd
       0.2564403 0.25889093 -0.26428565 -0.051970553
000280 14 82 43 bd 00 67 d2 bc 93 47 7a 3e 28 c3 39 3d
       -0.047731474 -0.02568388 0.24441366 0.04535213
000290 a7 90 fa bd e2 e0 89 3e 2d ba 29 3e e4 53 72 3e
       -0.122346215 0.26929384 0.16574927 0.23664814
0002a0 d5 f5 e1 bc aa d6 83 3e 23 e6 0b 3e e6 dc 03 bd
       -0.027583042 0.25749713 0.13662009 -0.032193087
0002b0 68 4f 25 bd 99 4a 85 3e e2 01 21 bd 35 a9 02 bd
       -0.04035893 0.26033476 -0.039308436 -0.03189965
0002c0 07 ef 7e 3e 39 8b 97 3e f0 d2 69 be fc 7a a9 3e
       0.24895869 0.29598406 -0.22834373 0.33101642
0002d0 4f c2 8e 3e f4 8d 8c 3e 0f 1e a2 3e ff 1d 7b 3b
       0.2788262 0.27452052 0.31663558 0.003831744
0002e0 86 34 a4 3e 8e c8 fc 3d 66 a4 fb bc b8 15 6e 3e
       0.32071322 0.1234294 -0.03071804 0.23250473
0002f0 fa 0b 83 be e1 8c a7 bc 0a 6f 1b bd 37 7d 43 bd
       -0.25595075 -0.020452918 -0.037947692 -0.047726836
000300 c6 51 76 3e 5d ce a3 3c 93 ab 05 bb 6f 20 9a 3e
       0.24054632 0.019995863 -0.0020396456 0.3010287
000310 92 d7 a3 be 39 ea 20 bd 21 5b 70 3e 3b 46 45 be
       -0.32000405 -0.039285872 0.23472263 -0.19265072
000320 9c 94 43 3e fa 5b 9b 3e c9 16 54 3e 41 ff 75 3e
       0.19099659 0.3034361 0.20711817 0.24023153
000330 3d 81 d0 bc 68 91 8e 3e 3a c2 84 3e e7 bb 24 3d
       -0.02545225 0.2784531 0.25929433 0.04021826
000340 58 e3 dd 3d f9 a4 83 3e 2c 70 16 be e8 dc 7a 3e
       0.10834378 0.25711802 -0.14691228 0.24498332
000350 e3 99 81 3e af c0 05 bd eb cc 4f 3b 2c 1e a0 be
       0.2531272 -0.03265446 0.0031707834 -0.3127302
000360 54 1d 4d be a1 88 87 3e d2 c5 72 3e 14 0c 6f be
       -0.20030719 0.26471427 0.23708275 -0.23344451
000370 a0 fb 08 3d d3 f7 41 3e 55 b7 96 be 46 3f 76 3c
       0.033443093 0.18942194 -0.29436746 0.015029734
000380 6c 28 2f 3e 82 68 8a 3e cb 78 43 be c2 1b 28 bd
       0.17105263 0.27032858 -0.19089048 -0.041042097
000390 67 ea 21 3c c2 79 e7 ba 92 c1 8a be a5 06 61 bb
       0.009882546 -0.0017660188 -0.27100807 -0.0034336236
0003a0 7b b0 34 bd 7e a6 60 3e 61 cb 89 3e 74 00 e7 bc
       -0.044113617 0.21938512 0.26912978 -0.028198458
0003b0 ec 42 45 3e a4 a4 8a 3e 9f 4b 08 3e 44 0e bc bb
       0.1926381 0.27078736 0.13310097 -0.0057390053
0003c0 08 60 4a 3e 52 2b 99 3e be 63 77 3e 80 ef 1a 3d
       0.19763196 0.29915863 0.24159142 0.03782606
0003d0 76 50 97 3e 8f 4e cc bb 8a 00 04 bd 69 0f 64 3e
       0.29553574 -0.006234951 -0.032227077 0.22271504
0003e0 d7 84 40 3e aa 22 a3 bc 3b dc 54 3e 87 ad a0 3e
       0.18800674 -0.01991399 0.20787136 0.3138239
0003f0 9c 37 89 3e 22 6e 5a 3e a4 85 34 3e 14 b1 8d 3e
       0.2680024 0.21331075 0.17629105 0.27674162

linear_stack.4.weight f4 [5, 400]
000000 86 2b ef 3d 30 19 3f 3e da 0d 29 3d 0e 55 93 3b
       0.11678223 0.18661952 0.041272976 0.0044962233
000010 8e e4 fe 3d 80 74 21 bd 7f b0 be bc c5 0a 8b 3e
       0.12445937 -0.039417744 -0.02327752 0.27156654
000020 5a 2e 58 bc 8b 7c 46 bc 33 8d 0f ba 60 17 b9 3d
       -0.013194645 -0.012114654 -0.00054760574 0.090376616
000030 9d 04 99 3c bd 85 d2 3c b3 86 f9 3d 60 d3 3c 3c
       0.018678958 0.025698537 0.12183895 0.011525005
000040 73 8b e7 3c 07 7f 35 3d 50 0e c8 bc 54 bc 59 3c
       0.028264737 0.044310596 -0.024420887 0.01328953
000050 54 6e 61 3b 10 99 f6 3a 87 bd 0f bc 2c 13 9d be
       0.0034398036 0.0018813927 -0.008773214 -0.3067869
000060 37 75 97 3d 02 cd 06 3e f1 a6 13 bd 28 3d 07 3d
       0.07395404 0.13164142 -0.03604788 0.033017308
000070 c3 88 62 3d 7e 05 a7 3c fc 50 98 3d b4 d8 0a 3d
       0.055306207 0.020388361 0.074373215 0.03389807
000080 80 a2 55 bb e5 ff 20 be e7 f5 32 bb 3b 60 27 3e
       -0.0032598078 -0.15722616 -0.0027307214 0.16345303
000090 9f 4c 16 3f ee ef 00 3e 42 9e 17 3d 5c cb 0c 3e
       0.58710665 0.12591526 0.03701616 0.1374945
0000a0 25 54 e0 3d ed 7d d0 bc 00 96 18 3d 4a a5 4c bd
       0.10953549 -0.025450671 0.037252426 -0.04996232
0000b0 ea c8 8f 3d 9f 2d 2e 3d ce d9 42 bd 50 0c a2 3d
       0.07020743 0.042523976 -0.047570996 0.07912505
0000c0 f0 a6 dd 3d 6e 8a 13 3e 77 f4 9f 3c 30 96 38 3b
       0.108228564 0.14408275 0.01952575 0.002816569
0000d0 82 b1 3a bd 63 b5 2e bd ce 68 ee 3d a1 dd 48 bd
       -0.04557944 -0.042653453 0.11641084 -0.049039487
0000e0 da c1 98 3e 23 83 a7 3c 79 10 11 bf 14 1c fc 3d
       0.29835397 0.020448273 -0.5666576 0.12310043
0000f0 31 6f a1 bb bc 35 94 3d c0 d5 09 3d af 56 a7 bc
       -0.004926585 0.072368115 0.033651114 -0.020427076
000100 a0 b3 c8 3c 8f f9 2b 3d 4d 9e 70 3b 4f 5d 88 3b
       0.024499714 0.041986044 0.0036715448 0.004161514
000110 e7 0a 2f 3e 17 76 b7 3c ad c7 72 bc 7b ea 07 bd
       0.17094003 0.022395177 -0.014818114 -0.033182602
000120 d9 84 14 3e 57 20 db bc 64 b6 22 bd d6 43 07 bd
       0.14503802 -0.02674882 -0.039724723 -0.033023678
000130 0d 5a c3 bc 92 a1 ba 3e 6a cf dc bb 53 3b 4e 3e
       -0.02384665 0.36451393 -0.006738593 0.20139818
000140 6a 7c 26 3d b9 40 59 bb 67 9b 29 bd 0b 98 cf 3d
       0.040645994 -0.003315015 -0.04140797 0.10136422
000150 8b c5 8e 3d e1 47 58 3d 4e f6 ce 3d 63 3d 34 bd
       0.06971272 0.052802924 0.10105573 -0.044003855
000160 0a 34 25 3e 94 ce 11 be 8f 4d 55 be 3b 29 f1 3d
       0.16133133 -0.1423896 -0.20830368 0.11775442
000170 92 5f a7 3d 80 dd 37 3e b5 81 d8 3d d2 18 10 3e
       0.081725255 0.1795559 0.10571615 0.14071968
000180 17 57 2b 3d 07 f5 2b 3c 7e 08 1b 3e d6 b2 10 bd
       0.041831102 0.010495431 0.15139958 -0.0353268
000190 b7 13 c5 bc 00 7a e4 3a 51 b7 b5 3d 80 87 72 bb
       -0.024057252 0.0017431378 0.088728555 -0.0037007034
0001a0 7f 0f e3 bd 35 0d a4 3d b5 e5 81 3e bb 1a 00 bd
       -0.1108694 0.080103315 0.25370565 -0.031275492
0001b0 9a 67 d8 ba c5 0d 94 bb 7d c8 2c ba b8 18 f1 bc
       -0.0016510368 -0.004518243 -0.00065911544 -0.029430732
0001c0 ee 17 01 3e 42 6c 6f be ad 42 51 bd 45 a6 ba 3d
       0.12606785 -0.23381141 -0.051088978 0.09113745
0001d0 45 56 48 be 50 e3 c5 3d 44 88 c7 bc 40 4e ae 3c
       -0.19564159 0.09662497 -0.024356969 0.021277547
0001e0 bc 43 9a 3e 11 51 b4 3e 48 8f 81 3d cb 57 08 3f
       0.30129802 0.352181 0.06326157 0.5325896
0001f0 75 62 f3 3d c1 d5 bc 3d d0 b9 5a 3e 72 63 28 3d
       0.118840136 0.09220458 0.21359944 0.041110463
000200 bd 4b c7 3d c7 92 b1 3c 82 86 8e 3b 77 65 ce 3b
       0.09731243 0.021676434 0.0043495307 0.0062987166
000210 fb d0 ca 3d b7 4e 68 3c 33 6a fd bc b3 dc f3 bd
       0.09903141 0.014178923 -0.030934429 -0.119073294
000220 b3 8f 9c 3b 1e 22 21 3e c0 e8 7f 3c 5e db 07 3e
       0.0047778725 0.15735671 0.015619457 0.13267276
000230 c7 70 94 3c bb cb a4 3d 1a 06 11 3e 5a 42 05 3c
       0.018120183 0.08046671 0.14162484 0.008133495
000240 3c 24 46 3e 30 93 97 bc e2 c4 2f bd b4 bf 2d 3d
       0.1934976 -0.018502802 -0.04291237 0.04241915
000250 40 8e b1 3b 4d 8b 21 bd 1c 80 7d 3e 4e d9 fd 3d
       0.005418569 -0.03943949 0.24755901 0.12394963
000260 f6 3b 12 3e 57 b7 63 3d 2c 04 11 3e 24 1a 1e 3e
       0.14280686 0.05559477 0.14161748 0.1543966
000270 44 de 0c 3e 76 a1 28 3e 6c 7b 4a 3e ed 6d f5 3c
       0.13756663 0.16467842 0.19773644 0.029959643
000280 af 67 30 3f f6 cd 1f 3d 15 0d 12 3e 0d c7 28 3d
       0.6890821 0.03901478 0.14262803 0.041205455
000290 34 aa a6 be ef a4 9a 3e f0 8c 33 3d 2d 4f 14 3e
       -0.3255173 0.3020396 0.04383558 0.14483328
0002a0 12 3e 1c 3d 14 f8 9c 3d 78 52 40 3d 2a 55 16 3d
       0.038145132 0.07664505 0.04695365 0.036702313
0002b0 ad 12 e8 bc 4c 8d 24 3e 8b ba 15 bd 9d 8e 07 3d
       -0.028329218 0.16069525 -0.036554854 0.03309499
0002c0 aa 0e 2c 3e a8 be c2 3e 79 87 c2 3e f5 38 e7 3e
       0.16802469 0.38036084 0.37993982 0.45160642
0002d0 84 78 b2 3e 31 4d 1e 3e 84 cb 79 3e 6a 2c 1e bd
       0.3485757 0.15459134 0.24394041 -0.038616575
0002e0 5e 12 12 3e 2d 7d 67 3d 84 c7 2f 3d 45 0d f1 3d
       0.14264819 0.05651586 0.042914882 0.11770109
0002f0 5f 51 b5 be e8 5a 58 bb 67 32 71 3b ca 57 28 bd
       -0.35413644 -0.0033013169 0.0036803724 -0.041099347
000300 12 27 e4 3d 60 09 94 bc 9f 52 e3 bb 53 50 04 3e
       0.111402646 -0.018070877 -0.0069373394 0.12921266
000310 ce 7c 8f ba 65 af 14 bd 7a ff 96 3c f7 f5 7b bd
       -0.0010947229 -0.03630008 0.018432368 -0.061513867
000320 13 8b a1 3c 17 dd 9d 3e 82 0e 13 3e 27 9c a4 3d
       0.019719636 0.3083274 0.14361003 0.08037596
000330 c2 3d 09 3d 7a 44 30 3e 92 e1 3f 3d 2e a6 fc bb
       0.033506162 0.17213622 0.04684598 -0.00771024
000340 68 c5 98 3d 3c a1 af 3c f6 21 9f be c0 36 60 3d
       0.07459527 0.021439187 -0.31080598 0.054739714
000350 e2 97 fe 3d 85 02 14 bd ae 9a af bb 63 c2 88 be
       0.12431313 -0.036135215 -0.0053590154 -0.26710805
000360 08 91 33 bf 80 7f 8b 3e 92 16 32 3d 80 8c d5 3e
       -0.70143175 0.27245712 0.043478556 0.41708755
000370 16 bc 4c 3d 81 f6 3f 3e 7b ae f7 bd 60 ad 2f 3d
       0.04998406 0.18746378 -0.120938264 0.042889953
000380 a6 f6 b8 3d 53 f6 79 3e 69 4a 41 3e 80 e6 b7 bb
       0.090314195 0.24410371 0.18876041 -0.0056121945
000390 83 34 1d 3d a2 b4 0f bd 6f 4f 84 bc 3b f9 19 3d
       0.038380157 -0.035084374 -0.016151158 0.0375912
0003a0 05 0c 32 bd b5 84 cd 3d 80 b6 84 3d 88 be 43 3d
       -0.043468494 0.100350775 0.064801216 0.047789127
0003b0 80 04 8c 3d 5d 1a c3 3d 65 79 7d 3d 9a fc 33 bc
       0.06836796 0.09526513 0.06188335 -0.010985518
0003c0 81 fb 83 3d be 12 4b 3e 89 92 bb 3d c7 1b 00 3c
       0.06444455 0.19831368 0.09158809 0.007819123
0003d0 88 91 31 3e 3e 9d 0f 3d e3 3c 58 bd 55 bf 10 3e
       0.17340672 0.035062067 -0.05279244 0.14135487
0003e0 43 73 e8 3d c3 dc a1 bc 16 bb 07 bd af 44 ae 3e
       0.113501094 -0.019758588 -0.033137403 0.34036776
0003f0 6b 3c 4b 3e 21 71 9d 3d b6 55 90 3d 19 e5 8e 3e
       0.19847266 0.07687593 0.07047598 0.27909163

linear_stack.4.bias f4 [5]
000000 96 36 32 3e dd f1 38 3e 34 51 15 3e 54 fb 1f 3e
       0.17403635 0.18061014 0.14581758 0.15623218
000010 77 ee e7 bc
       -0.028311951
