data/U3_new/model_UAV_4.pth (torch, 660400 bytes, 6 tensors)

linear_stack.0.weight f4 [400, 4]
0	0x3e211cfb	0.15733711
1	0x3e093ad4	0.13401347
2	0xbe8770bc	-0.26453197
3	0x3f21d3e0	0.6321392
4	0x3d1e1769	0.038596544
5	0xbdcf9515	-0.10135857
6	0x3dd06bcb	0.1017681
7	0x3b3b5654	0.002858539
8	0xbe002f31	-0.12518002
9	0x3ee7b1e9	0.45252922
10	0x3e4dc107	0.20093165
11	0x3f0df088	0.55445147
12	0xbea5ed76	-0.3240773
13	0xbe85266e	-0.26005882
14	0x3ec7f274	0.39052165
15	0xbe5cd580	-0.21565819
16	0xbe0a72c7	-0.13520347
17	0x3e661323	0.22468238
18	0x3e9e35d2	0.30900437
19	0xbe8b5404	-0.27212536
20	0xbe14c095	-0.14526589
21	0xbd717e95	-0.05895861
22	0xbd232ea9	-0.03983942
23	0x3eff9480	0.49917984
24	0x3df1b412	0.11801924
25	0xbc92ce9b	-0.017920783
26	0xbf97409d	-1.1816593
27	0xbf878c1e	-1.0589635
28	0xbefd59f9	-0.49482706
29	0xbd45db34	-0.04830475
30	0x3fa5b1d8	1.2944899
31	0xbe830467	-0.25589296
32	0xbe8b22b8	-0.27174926
33	0x3e3c8964	0.18411785
34	0x3f089211	0.5334788
35	0x3ea21faa	0.31664783
36	0x3c69131d	0.014225748
37	0xbdb7f424	-0.08982113
38	0xbe92dcd7	-0.28684112
39	0x3fb78a4f	1.4339083
40	0xbefff1b8	-0.49989104
41	0xbf163cd2	-0.58686554
42	0x3f472b66	0.77800596
43	0x3f4eeb8b	0.8082816
44	0x3f101b6b	0.56291837
45	0xbdd9648a	-0.106148794
46	0x3df5308b	0.119721495
47	0xbf4d8cdb	-0.80293053
48	0xbeaac176	-0.33350724
49	0x3f05eb7a	0.52312434
50	0x3edcf706	0.43157214
51	0x3f3f007a	0.746101
52	0xbd97fe55	-0.07421557
53	0x3eed527c	0.46351993
54	0xbe86c0f4	-0.26319087
55	0x3f074150	0.52834034
56	0xbde03596	-0.10947721
57	0x3ea8a48d	0.32938042
58	0xbdae65f0	-0.08515537
59	0x3e62539e	0.2210221
60	0x3ed3e28a	0.41383773
61	0x3e3eb035	0.18621905
62	0x3f1c416a	0.61037314
63	0x3e8630f3	0.2620922
64	0x3db73dfa	0.08947368
65	0x3ce529da	0.027974058
66	0x3ed32dc4	0.41245854
67	0x3e405b40	0.18784809
68	0xbf077842	-0.52917874
69	0x3ebc90e8	0.36829305
70	0xbeac8c62	-0.33700854
71	0xbe65b2e3	-0.22431521
72	0xbee7b0d6	-0.45252103
73	0xbd3ac360	-0.04559648
74	0xbe81cb3c	-0.25350368
75	0xbe8e0810	-0.27740526
76	0xbe4f5408	-0.20246899
77	0xbe8a0b7e	-0.26961893
78	0x3ebddd06	0.3708269
79	0xbe5817b0	-0.21102786
80	0x3ea1743a	0.31533986
81	0x3e4b21d9	0.1983713
82	0xbd7e1f5b	-0.06204162
83	0xbd61009d	-0.054932225
84	0x3b242673	0.0025047332
85	0x3e01f612	0.12691525
86	0x3ee5e13a	0.44898397
87	0x3f062280	0.5239639
88	0x3e88ba2b	0.26704535
89	0x3ee55d89	0.44797924
90	0xbe453f01	-0.19262315
91	0xbb4d533c	-0.003133013
92	0x3eeb5ae7	0.4596779
93	0xbe552c7f	-0.20817755
94	0xbf52d762	-0.823599
95	0x3f754d85	0.9582141
96	0xbd1cf880	-0.038322926
97	0xbe448550	-0.1919148
98	0xbd8d8f88	-0.06912142
99	0x3e48fd3c	0.19627851
100	0x3ed70311	0.41994527
101	0x3e2f2773	0.17104892
102	0xbc4a2d47	-0.0123398965
103	0xbebcd1d3	-0.36878833
104	0xbc6d9bef	-0.0145025095
105	0x3d0f3c0a	0.034969367
106	0x3f83edfd	1.0307003
107	0x3e9452e3	0.28969488
108	0x3e9d6632	0.3074203
109	0x3df7c456	0.12097995
110	0x3e87c5db	0.2651814
111	0x3ead3855	0.3383204
112	0xbde1ccb8	-0.11025375
113	0xbdd6bf78	-0.104857385
114	0x3e9e2996	0.30891103
115	0x3dc39728	0.09550315
116	0x3edc73b4	0.43057024
117	0x3e616663	0.22011714
118	0x3ef9d4eb	0.48795256
119	0xbe50c89c	-0.20389026
120	0x3eb8586a	0.36004955
121	0xbed0ce14	-0.40782225
122	0xbeb36809	-0.3504031
123	0xbe3ac079	-0.18237485
124	0xbe41265f	-0.18862294
125	0x3e9fde9a	0.3122452
126	0xbda84838	-0.082169
127	0xbdc51fb8	-0.096251905
128	0x3e86515c	0.26233947
129	0x3e8ef7f1	0.2792354
130	0x3e855813	0.26043758
131	0x3e9d1b81	0.30685046
132	0xbe4e97ca	-0.2017509
133	0x3e866065	0.26245418
134	0xbf392077	-0.7231516
135	0xbdff68f0	-0.12471187
136	0x3d68ee11	0.056867663
137	0x3ec3f327	0.38271448
138	0x3ebe9bb8	0.3722818
139	0x3e2df7af	0.16989015
140	0xbf3ec9b2	-0.7452651
141	0x3c8a0e9c	0.01685267
142	0x3f8440d1	1.033228
143	0xbf25161d	-0.6448687
144	0xbe996ebd	-0.299673
145	0xbd25604a	-0.04037503
146	0x3f9c7198	1.2222166
147	0xc00d5685	-2.2084057
148	0x3e8c5f45	0.27416435
149	0x3efbdb90	0.4919095
150	0x3e4aed13	0.19816999
151	0xbe84860a	-0.25883514
152	0x3e37e1d0	0.17957234
153	0xbe5db948	-0.2165271
154	0x3f5fc0ef	0.8740377
155	0xbf8bd3f2	-1.0924056
156	0xbce8573f	-0.028361915
157	0x3d4022ab	0.046908062
158	0x3e4f80e6	0.20264015
159	0xbfd7be02	-1.6854861
160	0x3eb8cd5a	0.3609417
161	0x3e91361b	0.28361592
162	0x3e6e1a25	0.23252161
163	0xbe9beec8	-0.30455613
164	0xbec4165e	-0.38298315
165	0xbd4139f0	-0.047174394
166	0x3bb32c00	0.0054678917
167	0xbe38f16c	-0.18060845
168	0x3e9598c8	0.29218125
169	0xbe24634e	-0.16053507
170	0xbf38b2ea	-0.72148
171	0x3f72cbeb	0.94842404
172	0x3e9de663	0.30839834
173	0x3eb954cd	0.3619751
174	0x3db2656f	0.08710753
175	0xbe154d00	-0.14580154
176	0xbf245b79	-0.64202076
177	0x3e482270	0.19544387
178	0xbe2d9d74	-0.16954595
179	0xbef92153	-0.48658237
180	0xbef77028	-0.48327756
181	0x3ecc36f9	0.3988569
182	0x3e1fffdf	0.15624951
183	0x3cdfe78a	0.027332086
184	0xbe10a45f	-0.14125203
185	0x3ee687a4	0.4502536
186	0xbd800928	-0.062517464
187	0xbe81c2d9	-0.2534397
188	0x3e2fac89	0.1715566
189	0x3e0ad753	0.13558702
190	0x3e67235f	0.22572087
191	0xbe90029c	-0.2812699
192	0xbed63737	-0.41839
193	0x3eb77467	0.35830995
194	0x3c990336	0.018678289
195	0xbebec73b	-0.37261376
196	0xbe131618	-0.14363897
197	0xbed7d2af	-0.42152926
198	0x3f8d6796	1.1047237
199	0x3e388c49	0.18022265
200	0xbfafd79f	-1.3737677
201	0x3e0c9a3a	0.13730708
202	0xbe953dea	-0.291488
203	0xbec22c2b	-0.37924322
204	0xbe6a0f66	-0.22857437
205	0xbec0c628	-0.3765118
206	0x3f8673c9	1.0504085
207	0x3fbad5a2	1.4596446
208	0x3dc716c6	0.097211406
209	0x3e4e5a74	0.20151693
210	0x3e8ff3cd	0.28115693
211	0xbeb365b3	-0.35038528
212	0x3e078dcb	0.13237683
213	0x3e207ae9	0.15671887
214	0xbe9bc28c	-0.30421865
215	0x3d456af8	0.048197716
216	0xbea24cc4	-0.31699193
217	0xbecf852c	-0.4053129
218	0x3c5abce8	0.013350703
219	0x3f5766d8	0.841413
220	0xbd941f10	-0.07232487
221	0x3c923a00	0.017849922
222	0xbe428944	-0.18997675
223	0x3df04e70	0.11733711
224	0x3ea8aa74	0.32942545
225	0x3d408fd6	0.047012173
226	0xbeb80bfa	-0.35946637
227	0xbe88dd53	-0.26731357
228	0xbec4d849	-0.38446262
229	0x3ed26867	0.41095278
230	0xbeab7ecc	-0.33495176
231	0xbeccbe3e	-0.39988893
232	0x3ea54088	0.32275796
233	0xbdf4bd56	-0.119501755
234	0xbeaefeea	-0.3417886
235	0xbd92c9d5	-0.07167403
236	0x3edf8e6b	0.43663344
237	0xbd1a3b46	-0.037654184
238	0xbe6eaf74	-0.23309118
239	0xbec39f5d	-0.38207522
240	0x3ec77c03	0.389618
241	0x3e24fd79	0.16112317
242	0x3ecdcc63	0.40194997
243	0xbed7d772	-0.4215656
244	0xbead17d7	-0.3380725
245	0xbdbe29c2	-0.092853084
246	0x3fb43aa1	1.4080392
247	0xbe903903	-0.28168496
248	0xbf745025	-0.9543479
249	0x3dc54e1e	0.0963404
250	0x3eae82fa	0.34084302
251	0x3e936cf6	0.28794068
252	0x3edd6776	0.43242997
253	0x3d122963	0.035684
254	0xbdc5cdb0	-0.096583724
255	0xbed59485	-0.41714874

linear_stack.0.bias f4 [400]
0	0xbef24b6d	-0.4732317
1	0x3f1d0989	0.61342674
2	0xbf0d7319	-0.5525375
3	0xbef62a48	-0.48079133
4	0x3f315035	0.6926301
5	0x3f6c3e08	0.9228215
6	0x3ddc24f2	0.10749234
7	0x3e8ea1f6	0.2785794
8	0x3f2cb6c6	0.6746639
9	0xbf144953	-0.57924384
10	0x3efc730a	0.49306518
11	0x3e4925b3	0.19643287
12	0xbf4f33f7	-0.8093867
13	0x3f21812e	0.6308774
14	0x3f1e3055	0.617925
15	0xbf2e18fb	-0.6800687
16	0x3f15219c	0.5825441
17	0xbf343d37	-0.70405906
18	0xbd96a9c0	-0.07356596
19	0xbefdb694	-0.4955336
20	0x3f390852	0.7227832
21	0xbe5a1a59	-0.21299113
22	0xbf22c1d1	-0.6357699
23	0x3ddffef1	0.10937298
24	0xbed02d00	-0.40659332
25	0x3f296781	0.6617356
26	0xbe6b2117	-0.22961842
27	0x3df9c126	0.12195043
28	0xbeeedfb6	-0.46655053
29	0xbebc8e36	-0.36827248
30	0xbeb046d5	-0.3442904
31	0x3efd670f	0.4949269
32	0xbf0666b9	-0.5250049
33	0xbeabfe55	-0.33592477
34	0xbf2e8334	-0.6816895
35	0x3ef44781	0.47710803
36	0x3e9eecab	0.31039938
37	0x3f45fa74	0.77335286
38	0x3e524d4a	0.20537296
39	0x3f25ba8c	0.6473777
40	0x3e81f748	0.25383973
41	0xbed33cc8	-0.4125731
42	0x3d705cb7	0.05868217
43	0x3ee2fb24	0.4433223
44	0x3e7207d3	0.23635797
45	0xbf42c863	-0.76087016
46	0x3f0a8610	0.54110813
47	0xbef4fa25	-0.47847095
48	0x3f17a2cf	0.592328
49	0x3f5370ac	0.825938
50	0x3ef32bba	0.47494298
51	0x3e58821d	0.21143384
52	0xbed47c13	-0.4150091
53	0x3f3c3b7b	0.7352826
54	0x3e9d18ba	0.30682927
55	0xbeeeea30	-0.46663046
56	0x3f0107b8	0.504024
57	0x3f59253a	0.8482243
58	0x3f1dcc92	0.61640275
59	0x3f26c47a	0.6514355
60	0xbe7d4ccf	-0.24736331
61	0x3f0c600b	0.5483405
62	0x3ef44300	0.47707367
63	0xbeebcd43	-0.4605504
64	0x3f19e63e	0.60116947
65	0xbf86775a	-1.0505173
66	0x3e9ba501	0.30399325
67	0xbe700074	-0.23437673
68	0x3f11f8d3	0.570203
69	0x3e4d77e5	0.20065267
70	0x3e8f09a3	0.2793704
71	0xbec1ad03	-0.3782731
72	0xbf0f9b48	-0.56096315
73	0x3ebc456b	0.36771712
74	0x3e9bfac0	0.30464745
75	0xbd11b0b0	-0.035568893
76	0xbe9b2057	-0.3029811
77	0x3e858929	0.26081207
78	0xbed4766f	-0.41496608
79	0x3f34cfe9	0.70629746
80	0xbf0f529a	-0.55985415
81	0x3edc2f68	0.43004918
82	0x3e6fbec2	0.23412612
83	0x3f318d03	0.6935579
84	0x3ed0772d	0.40715924
85	0x3e9d1cf3	0.3068615
86	0x3ea0a178	0.3137319
87	0x3f352644	0.70761514
88	0x3f50f0be	0.81617343
89	0xbe94bfd0	-0.2905259
90	0x3ed24b23	0.4107295
91	0xbe474da8	-0.19463217
92	0x3e5e99bc	0.21738333
93	0xbf4450f1	-0.76686007
94	0xbd3807d8	-0.044929355
95	0xbf10b58a	-0.56527007
96	0xbee7f47a	-0.45303708
97	0x3da5c1cf	0.08093607
98	0x3e710386	0.235365
99	0x3f43f16b	0.7654025
100	0x3ee4ab24	0.4466182
101	0x3f1281e3	0.5722944
102	0x3f101329	0.56279236
103	0xbf0ae790	-0.54259586
104	0xbd8837e8	-0.06651288
105	0xbe82ed96	-0.2557189
106	0x3e855063	0.26037893
107	0x3f1aeaf2	0.6051475
108	0xbeb09914	-0.3449179
109	0x3f075de4	0.5287764
110	0x3e7c6ef8	0.24651706
111	0x3e89898e	0.26862758
112	0x3f126916	0.571916
113	0xbd0ad8e0	-0.033898234
114	0xbf0d1bef	-0.5512075
115	0x3f1669c4	0.58755136
116	0x3f054a0c	0.5206611
117	0xbec68b60	-0.3877821
118	0x3d9a01d6	0.075198814
119	0xbed6e178	-0.41968894
120	0xbf125120	-0.57155037
121	0x3edd5cfd	0.43235007
122	0xbdb5ccdc	-0.088769644
123	0x3e260b06	0.16215143
124	0xbe5d25d4	-0.21596462
125	0xbeacd5dc	-0.33756912
126	0x3f3466d4	0.70469403
127	0xbf51a19a	-0.8188721
128	0x3ecdcb3b	0.40194115
129	0x3f31f0bf	0.69507974
130	0x3f284267	0.6572632
131	0x3f0fbe73	0.5614998
132	0x3f58d92c	0.8470638
133	0xbe6255bd	-0.22103019
134	0xbf15deca	-0.58543074
135	0xbe9a77b8	-0.30169463
136	0xbe1697bd	-0.14706321
137	0x3f586328	0.845263
138	0xbe35829c	-0.17725605
139	0x3f5292b6	0.82255113
140	0x3f460997	0.7735838
141	0xbecc7665	-0.39934078
142	0xbe704648	-0.2346431
143	0xbbec9d75	-0.007220919
144	0xbd32fe22	-0.04369939
145	0xbee3e92a	-0.44513828
146	0x3f1a9f3c	0.6039922
147	0x3ee4d807	0.44696066
148	0xbf4155ec	-0.7552173
149	0xbe1d9208	-0.15387738
150	0xbe99ada0	-0.30015278
151	0xbe36f875	-0.17868216
152	0xbe557c6b	-0.20848243
153	0x3ed42ecc	0.41441953
154	0x3e962c64	0.29330742
155	0xbe95d304	-0.29262555
156	0x3cb42a23	0.021992749
157	0x3ee8d0b1	0.4547172
158	0x3e42a8b0	0.19009662
159	0x3f4e861f	0.806734
160	0x3db2b122	0.08725192
161	0xbee890d4	-0.45422995
162	0x3ef3a847	0.47589323
163	0x3f0eca27	0.5577721
164	0x3f169668	0.5882325
165	0x3c9e10cd	0.01929512
166	0xbe6c9274	-0.23102742
167	0x3ee896ec	0.45427644
168	0x3f1305d3	0.5743076
169	0xbf15bf69	-0.58495194
170	0xbe2f7567	-0.17134629
171	0x3f41ab6b	0.7565219
172	0x3e39442c	0.18092412
173	0xbf09af42	-0.5378305
174	0x3f20b622	0.6277791
175	0x3d0e5f40	0.034758806
176	0xbf734baf	-0.9503736
177	0x3df595f7	0.11991494
178	0xbf42b098	-0.7605071
179	0xbf669c03	-0.90081805
180	0xbd767150	-0.060166657
181	0x3db6fe62	0.089352384
182	0x3edb2ff1	0.42810014
183	0x3f6ca0d3	0.924329
184	0x3f345682	0.704445
185	0x3ea6c8f5	0.32575193
186	0xbebb885a	-0.36627465
187	0xbf245b5c	-0.64201903
188	0x3ca04701	0.019565107
189	0x3f1be3f2	0.6089469
190	0xbe8d9cba	-0.27658635
191	0xbe8fee02	-0.28111273
192	0x3f2fc52f	0.68660253
193	0x3e7e80e0	0.2485385
194	0xbd2b836f	-0.04187339
195	0x3edb1cd2	0.42795426
196	0xbdf1fb28	-0.118154824
197	0x3f01b376	0.5066446
198	0xbf38dabc	-0.7220876
199	0x3f0500cf	0.5195436
200	0xbe2c19d0	-0.16806722
201	0x3f458893	0.7716152
202	0xbf17cc20	-0.59295845
203	0x3f189532	0.59602654
204	0xbdc2e5e0	-0.095165014
205	0x3d80907c	0.06277558
206	0x3ec25dfe	0.37962335
207	0x3f3df68d	0.7420433
208	0xbeb06c4d	-0.34457627
209	0xbeaf987f	-0.34296033
210	0xbf08f83c	-0.53503776
211	0x3f46509d	0.77466756
212	0x3df08882	0.11744787
213	0x3e5e038b	0.21681039
214	0xbee2750c	-0.44229925
215	0x3e7d89a6	0.2475954
216	0x3f4e5e22	0.80612385
217	0xbf7ac870	-0.97962093
218	0xbe1835e3	-0.14864306
219	0x3f05d4f5	0.5227807
220	0x3f08d25e	0.53445995
221	0x3edad21c	0.42738426
222	0x3ec8b2f4	0.3919903
223	0x3ebaa2f4	0.36452448
224	0xbefc5e1a	-0.49290544
225	0xbf297f85	-0.66210204
226	0x3f3dda11	0.7416087
227	0x3e577e9a	0.21044388
228	0x3ee2e300	0.44313812
229	0xbeb9b91c	-0.3627404
230	0xbde1aaf9	-0.110189386
231	0x3ea8bf34	0.32958376
232	0xbe902e71	-0.28160432
233	0xbece3078	-0.40271354
234	0xbedb0e6d	-0.42784443
235	0xbe1da7f6	-0.15396103
236	0xbe1edd48	-0.155141
237	0x3e7565ff	0.2396469
238	0x3ef80d4f	0.48447654
239	0x3ed48088	0.41504312
240	0xbeb0eaf6	-0.3455426
241	0x3efd6495	0.494908
242	0xbe431742	-0.19051841
243	0xbee11d8a	-0.4396785
244	0x3efcb503	0.4935685
245	0x3f2c3ace	0.6727723
246	0x3f350449	0.70709664
247	0xbec16774	-0.3777424
248	0x3f11cc1c	0.5695207
249	0x3f18f1f4	0.5974419
250	0x3f367061	0.71265227
251	0x3f11adb4	0.56905675
252	0xbe098c78	-0.13432491
253	0x3f6def27	0.9294304
254	0x3d93094e	0.07179509
255	0xbf114d05	-0.5675815

linear_stack.2.weight f4 [400, 400]
0	0xbc9cb3c0	-0.01912868
1	0x3d190cf2	0.03736586
2	0x3c818260	0.015809238
3	0xbced93a0	-0.029001057
4	0xbd568bec	-0.052379534
5	0x3cdb04b6	0.026735645
6	0x3d1de205	0.038545627
7	0xbc973480	-0.018457651
8	0xbd03d53f	-0.03218579
9	0xbccafdc3	-0.024779206
10	0x3abc6803	0.001437426
11	0xbce069ea	-0.027394254
12	0x3a912d9a	0.0011076212
13	0xbc71d92a	-0.014761249
14	0xbbc0d09d	-0.0058842436
15	0xbc434560	-0.011918396
16	0xbd346cde	-0.044049136
17	0xbbe28f00	-0.0069140196
18	0x3c541307	0.01294399
19	0xbd1c1463	-0.03810538
20	0x3d085a14	0.03328903
21	0x3c43936e	0.011937005
22	0xbcf280d3	-0.029602444
23	0xbd1e648a	-0.0386701
24	0x3ba5bce7	0.0050579193
25	0x3d0a666a	0.033789076
26	0x3d2a3fb3	0.041564655
27	0xbd65d25c	-0.056108817
28	0x3d3ecd9b	0.0465828
29	0xbd2e954a	-0.042622842
30	0xbc93c14a	-0.018036503
31	0x3b8175f8	0.0039508305
32	0xbb47859a	-0.0030444623
33	0x3ccfca80	0.025365114
34	0x3c5b489a	0.013384009
35	0x3ca356a8	0.019938782
36	0x3d02cd5b	0.031934123
37	0x3b5a7326	0.0033332794
38	0xbd19504d	-0.037430096
39	0xbd5b7d78	-0.053586453
40	0xbd21670c	-0.039404914
41	0x3be56633	0.0070007085
42	0xbc10f2a8	-0.008846916
43	0x3c1801cf	0.009277775
44	0x3c341fd8	0.01099392
45	0xbc8d968d	-0.017283702
46	0xb7699f9f	-1.3925047e-05
47	0x3d03f688	0.032217532
48	0xbcda3e0e	-0.026640918
49	0x3cc49b71	0.023999901
50	0xbd30aa29	-0.043131027
51	0xbd5b9e0a	-0.053617515
52	0x3bf0a367	0.007343698
53	0xbce3e922	-0.027821127
54	0xbd6a3e1b	-0.057188135
55	0xbb896c1a	-0.004193795
56	0xbc942c4f	-0.018087534
57	0xbc3566c6	-0.011071866
58	0xbd541986	-0.051782154
59	0xbd702bcf	-0.05863553
60	0x3cf8ec70	0.03038618
61	0xbcda3224	-0.026635237
62	0xbd2258ff	-0.039635655
63	0xbd1886b7	-0.03723785
64	0xbcb1eadc	-0.021718435
65	0xbd3ce43e	-0.046116106
66	0xbd31239f	-0.04324686
67	0xbb680ee7	-0.0035409273
68	0xbd674c38	-0.056469172
69	0x3c451c9a	0.012030745
70	0xbcfb9f7d	-0.030715698
71	0xbbdc1400	-0.0067162514
72	0x3d0bdbf8	0.034145325
73	0x3cdcff9d	0.026977355
74	0xbca089bc	-0.019596927
75	0xbd18b627	-0.03728309
76	0x3cd46b83	0.025930172
77	0x3d1ef82d	0.038810898
78	0x3c55ffda	0.013061488
79	0xbc321583	-0.010869387
80	0xb9e10667	-0.00042920114
81	0xbd681009	-0.056655917
82	0x3d18647d	0.037205208
83	0x3cb097e3	0.0215568
84	0xbd363c84	-0.044491306
85	0x3cb23f9c	0.021758847
86	0x3c943ad1	0.018094452
87	0x3d018181	0.031617645
88	0x3c64ec78	0.013972394
89	0x3cf095bb	0.029368272
90	0x3b938116	0.004501472
91	0xbc1c0860	-0.009523481
92	0xbb9a3157	-0.004705589
93	0x3bf587c0	0.0074929893
94	0x3d0c22fc	0.03421305
95	0xbd431f6d	-0.04763739
96	0xbcfc93f3	-0.030832266
97	0xbd19b55b	-0.03752647
98	0x3cf5bd8f	0.029997615
99	0x3be33078	0.006933268
100	0x3cae499d	0.021275336
101	0xbd553a64	-0.05205764
102	0x3cb539d5	0.022122303
103	0x3cc0ef93	0.023551738
104	0xbc9cff6d	-0.019164765
105	0x3c4dd820	0.012563735
106	0x3c28e28e	0.010307921
107	0xbbd80eaf	-0.0065935473
108	0xbb9b8db3	-0.0047471165
109	0x3c7fb5d3	0.015607315
110	0xbc907b69	-0.017636972
111	0xbcf1873a	-0.029483426
112	0xbba319b1	-0.004977428
113	0x3d1d8400	0.038455963
114	0xbd2692d3	-0.040667366
115	0xbbf32743	-0.007420452
116	0x3cd4bbf5	0.025968531
117	0xbd159f6b	-0.036528986
118	0xbcdb3863	-0.026760286
119	0xbca1c730	-0.0197483
120	0x3c947ded	0.018126452
121	0xbbb776d0	-0.0055988804
122	0x3d0f786f	0.035026964
123	0xbd4ccb97	-0.049998846
124	0x3cea4f40	0.028602242
125	0x3ca2c2b0	0.019868225
126	0x3c7e9c35	0.015540172
127	0x3ccfdd00	0.025373936
128	0xbd451bd2	-0.048122235
129	0xbd1e7567	-0.038686182
130	0xbc163da5	-0.009169971
131	0xbca4fbf6	-0.020139676
132	0x3cdfdea2	0.02732784
133	0xbd231af3	-0.039820623
134	0xbd316faf	-0.0433194
135	0xbcf7af7d	-0.030235047
136	0x3d1db930	0.038506687
137	0xbd6d94aa	-0.058003105
138	0xbc8ecb87	-0.017431034
139	0xbca60a96	-0.02026872
140	0x3c225058	0.009906851
141	0xbd0552bb	-0.0325496
142	0xbc90887d	-0.017643208
143	0x3cb2ac57	0.021810694
144	0x3b171670	0.0023054145
145	0xbd3c8193	-0.04602201
146	0x3c222fe5	0.009899114
147	0x3ce420be	0.027847644
148	0xba3fb400	-0.0007312894
149	0x3cf867fd	0.030323023
150	0x3acd6667	0.0015670777
151	0xbd2a2c87	-0.04154637
152	0x3c046bda	0.008082354
153	0x3c6be003	0.01439667
154	0x3c296708	0.010339506
155	0x3d2b36b0	0.0418002
156	0xbc917dfb	-0.017760267
157	0x3cbb4349	0.022859233
158	0x3ca7deff	0.020492075
159	0xbc55dd6a	-0.0130532775
160	0xbcdc0237	-0.026856525
161	0xbd24b0ed	-0.040207792
162	0xbd1fe41e	-0.03903591
163	0xbd72b441	-0.059253935
164	0x3c185143	0.009296718
165	0xbcdfa763	-0.027301496
166	0x3cece0fc	0.028915875
167	0xbc73a4df	-0.014870851
168	0xbd714602	-0.058904655
169	0xbce070e0	-0.027397573
170	0xbd342138	-0.043976992
171	0xbc508a9d	-0.0127283605
172	0xbbd9e2dd	-0.0066493587
173	0xbd471720	-0.048606038
174	0x3d05c7f0	0.03266138
175	0xbace4833	-0.001573807
176	0x3cbb9bf4	0.022901513
177	0x3cebda59	0.02879064
178	0x3d01d2d8	0.031695217
179	0x3cc388f7	0.02386902
180	0x3b90181a	0.0043974044
181	0xbd1c1c65	-0.038113017
182	0xbbbf3d4b	-0.005836164
183	0x3cac595a	0.0210387
184	0xbd156de6	-0.03648176
185	0xbb04ff9d	-0.002029396
186	0xbd422ef7	-0.04740807
187	0xbbc59567	-0.006029773
188	0xbd589953	-0.052880596
189	0xbd615b4c	-0.055018708
190	0xbb1d7a67	-0.0024029256
191	0x3a92fd9a	0.0011214495
192	0x3c3d2a5c	0.011545744
193	0x3c93355a	0.017969776
194	0xbcdd6ddf	-0.02702993
195	0x3cbdb2ed	0.023156608
196	0x3ced71f7	0.028985007
197	0xbd208b63	-0.03919543
198	0xbd03e69b	-0.032202344
199	0xbcd5a1e7	-0.026078178
200	0x3d273f32	0.040831752
201	0x3c197bdf	0.009367912
202	0x3d059ae8	0.032618433
203	0xbc886d19	-0.016653584
204	0xbd3b036f	-0.04565757
205	0x3cba6db0	0.022757381
206	0xbd3ab12f	-0.04557913
207	0xbd4439d3	-0.047906708
208	0x3b7c6520	0.0038512424
209	0x3c47718d	0.012173069
210	0x3ca68412	0.020326648
211	0xbca97772	-0.020686839
212	0x3c83d8ba	0.016094554
213	0xbd4fd33a	-0.05073855
214	0x3d01611b	0.031586748
215	0xbd7751e1	-0.06038082
216	0xbcd30444	-0.02575887
217	0x3d3e9663	0.04653014
218	0xbcc122f3	-0.023576235
219	0xbcffbe42	-0.031218652
220	0x3c6a146b	0.014287095
221	0x3c61bdb3	0.013778138
222	0xbd2eb138	-0.042649478
223	0xbbe083c4	-0.006851645
224	0x3d15e752	0.036597557
225	0xbc5746ad	-0.013139409
226	0xbd78fdf1	-0.060789052
227	0x3ca58400	0.020204544
228	0x3c178d95	0.009250064
229	0x3d00d54f	0.031453427
230	0x3d063cf0	0.03277296
231	0x3cd41e84	0.025893457
232	0xbd3b2237	-0.045686927
233	0x3c38c106	0.011276489
234	0xbcea77f9	-0.02862166
235	0x3cfe8e03	0.031073576
236	0x3d32c722	0.04364694
237	0xbc994232	-0.018708322
238	0x3b4d24ec	0.0031302525
239	0xbd25a871	-0.04044384
240	0xbc1b5720	-0.009481221
241	0xbca7b277	-0.02047084
242	0x3c3df27e	0.011593459
243	0x3912699a	0.00013962985
244	0x3c1a6d72	0.009425508
245	0x3ca9a45d	0.020708257
246	0xbd06668d	-0.032812644
247	0xbc032aa7	-0.008005775
248	0x3d0f5f9f	0.0350033
249	0xbcdddec1	-0.027083756
250	0xbbef1955	-0.007296721
251	0x3ced3212	0.02895454
252	0xbd379cdd	-0.04482733
253	0xbca2224d	-0.019791747
254	0xbd22ad2d	-0.039715935
255	0xbcd84d77	-0.026404126

linear_stack.2.bias f4 [400]
0	0xbd6e978d	-0.05825
1	0x3d2be40e	0.041965537
2	0x3e93a43a	0.28836232
3	0xbcac3016	-0.021019023
4	0x3e8845e3	0.2661582
5	0xbd042ba9	-0.0322682
6	0x3e81fa41	0.2538624
7	0x3e5341ba	0.20630541
8	0xbd054acd	-0.03254204
9	0xbd68c1ae	-0.056825332
10	0xbce6f32d	-0.028192127
11	0xbe3c32fb	-0.18378823
12	0x3d04f767	0.032462504
13	0x3dd96908	0.10615736
14	0x3bf5289d	0.007481648
15	0x3e098895	0.13431008
16	0x3e703c06	0.23460397
17	0x3be63529	0.00702538
18	0xbd08f442	-0.033436067
19	0x3cdff59a	0.027338792
20	0x3e8a7c9d	0.27048197
21	0x3b8e3907	0.0043402943
22	0x3e0d3514	0.13789779
23	0x3e87a0cc	0.26489866
24	0x3e97cba2	0.29647547
25	0x3c783a12	0.015150564
26	0x3cf15c71	0.029463025
27	0x3d1a84e7	0.0377244
28	0x3e0420e2	0.12903169
29	0x3e08763a	0.1332635
30	0xbca8c4bd	-0.020601625
31	0x3cf2c6e3	0.029635852
32	0x3dd39284	0.1033068
33	0xbbe61386	-0.0070213703
34	0xbcc76a00	-0.024342537
35	0x3d0c02bb	0.03418229
36	0x3e81c6f3	0.253471
37	0x3e549ddf	0.20763348
38	0xbd133897	-0.03594264
39	0x3ccf3277	0.025292618
40	0xbd35be8d	-0.044371177
41	0x3ced5bd9	0.02897446
42	0x3e88b1ec	0.26698244
43	0x3d9f4bea	0.07778151
44	0x3e839566	0.2569992
45	0x3e8e2d29	0.2776883
46	0xbbe1a4cd	-0.006886101
47	0x3e8ff3c9	0.2811568
48	0x3e633d8f	0.22191451
49	0x3e948e21	0.29014686
50	0x3aab3f33	0.00130651
51	0xbd33d0f4	-0.043900445
52	0xbd65cb34	-0.056101993
53	0x3e92cbac	0.28671014
54	0xbd4d37a8	-0.050101906
55	0x3e78efbd	0.24310203
56	0xbced4e07	-0.02896787
57	0x3e39f025	0.18158014
58	0x3e8c1e36	0.273668
59	0x3c402a0b	0.011728774
60	0x3e8758bd	0.2643489
61	0x3c5f3c71	0.01362525
62	0x3e8f2ea1	0.27965263
63	0x3e61b181	0.22040369
64	0xbc95dba5	-0.018293211
65	0x3e9130f7	0.2835767
66	0x3cea9163	0.028633779
67	0x3cbb63ba	0.022874702
68	0x3e6dcf80	0.23223686
69	0x3c03881a	0.008028055
70	0xbbc31aa7	-0.005954105
71	0x3e5930c1	0.21210004
72	0x3e821c18	0.2541206
73	0xbd086153	-0.03329594
74	0xbc9f42c0	-0.019441009
75	0x3e5c4b69	0.21513142
76	0x3e952c30	0.29135275
77	0x3d2a4a24	0.041574612
78	0x3d287bda	0.04113374
79	0x3e92120e	0.285294
80	0x3e82bbba	0.2553385
81	0x3c520228	0.012817897
82	0x3e99cd2f	0.30039355
83	0x3e816887	0.2527506
84	0x3bc5210d	0.006015903
85	0x3e3b4451	0.1828778
86	0x3e0c1f84	0.13683897
87	0xbd29bf84	-0.04144241
88	0x3e499a6d	0.19687815
89	0x3e6f667b	0.23378937
90	0x3ddff67c	0.10935685
91	0x3e16b2f2	0.147167
92	0x3e2a916e	0.1665704
93	0xbccec283	-0.025239235
94	0x3e8f4e9e	0.27989668
95	0x3e90601c	0.28198326
96	0x3d1ec224	0.038759366
97	0x39a3299a	0.00031120778
98	0x3e8f9c15	0.2804877
99	0x3e355d7f	0.17711447
100	0x3e6c705e	0.2308974
101	0xbc279a2d	-0.010229629
102	0x3df5fd9f	0.12011265
103	0x3e92fb9f	0.28707597
104	0x3d3f8d7f	0.0467658
105	0xbc7d335a	-0.015454138
106	0x3e8c8aa9	0.2744954
107	0x3e989011	0.29797414
108	0xbbc62491	-0.0060468395
109	0x3d11ecab	0.035626095
110	0xbd37efd7	-0.044906463
111	0xbd3b1878	-0.045677632
112	0x3e34bc91	0.17650057
113	0xbebe448d	-0.37161675
114	0x3e8bb348	0.27285218
115	0x3e89f0e8	0.2694161
116	0x3bb5fbc4	0.0055536944
117	0x3e839025	0.2569591
118	0x3e77bf94	0.24194175
119	0x3e52161e	0.2051625
120	0x3e040752	0.12893417
121	0x3e90a161	0.28248122
122	0x3e8175fa	0.2528532
123	0xbc9f8c40	-0.019476056
124	0x3dbfd703	0.09367182
125	0xbce71baa	-0.028211433
126	0x3e8bd79c	0.27312934
127	0xbc87c830	-0.016574949
128	0x3e008837	0.12551962
129	0xbba68443	-0.005081685
130	0xbbb81367	-0.0056175473
131	0x3e57bf75	0.21069129
132	0x3e21830c	0.15772647
133	0xb9ef5ddf	-0.00045655572
134	0x3e8b7172	0.2723499
135	0x3dddb759	0.108259864
136	0x3d36d16a	0.044633307
137	0x3a1b8d59	0.0005933843
138	0x3e87ce93	0.2652479
139	0x3e6b8f4e	0.23003885
140	0x3e80e2fc	0.25173175
141	0x3cc127bb	0.023578515
142	0x3cab66aa	0.020922977
143	0x3dfebe12	0.12438597
144	0xbd4151d3	-0.047197174
145	0xbd7056be	-0.058676474
146	0x3cbbab8e	0.022908952
147	0x3e17562d	0.14778967
148	0x3c359569	0.011082985
149	0x3e9ebd2c	0.31003702
150	0x3e881f52	0.26586396
151	0x3e5fef30	0.21868587
152	0x3e776ce5	0.24162634
153	0xbc87e662	-0.016589347
154	0x3d1feb92	0.039043017
155	0x3bd7848c	0.00657708
156	0x3d4091fb	0.047014218
157	0x3e96ed75	0.2947804
158	0x3d126690	0.035742342
159	0x3e93d9a4	0.28876984
160	0x3e9e3590	0.3090024
161	0xbd7126f9	-0.058875058
162	0xbd3ce0ed	-0.046112943
163	0x3b2577e8	0.0025248472
164	0x3e238b91	0.15971209
165	0x3c348d61	0.0110200355
166	0xbd5ac590	-0.053411067
167	0xbc573cf6	-0.013137093
168	0xbcf179c7	-0.029477013
169	0x3e98065d	0.29692355
170	0xbb451066	-0.0030069589
171	0x3e827b62	0.2548476
172	0x3dffe9df	0.12495779
173	0x3e7445e4	0.23854786
174	0x3e5532c4	0.20820147
175	0x3e26ec90	0.16301179
176	0x3e77f774	0.2421549
177	0x3d22d0b9	0.039749835
178	0x3e70067b	0.23439972
179	0x3e3f8b30	0.1870544
180	0x3e542583	0.20717435
181	0x3e60316b	0.21893851
182	0x3e70aea2	0.23504117
183	0x3e0638a4	0.13107544
184	0x3e9ace5f	0.30235574
185	0x3ca9bcc5	0.020719895
186	0x3d127d10	0.0357638
187	0x39f6ff30	0.00047110906
188	0x3e694fed	0.22784396
189	0x3e9ba0e9	0.30396202
190	0xbcb1f500	-0.02172327
191	0x3e8364bc	0.25662792
192	0xbd111d6f	-0.03542846
193	0x3e537d19	0.2065319
194	0xbce9d955	-0.028546015
195	0x3e4999b7	0.19687544
196	0x3e8c6627	0.27421686
197	0x3c977b5e	0.018491443
198	0x3d8f2c9a	0.06990929
199	0x3e447680	0.19185829
200	0x3e390f6c	0.18072289
201	0xbd4baa95	-0.049723227
202	0x3da4a22a	0.08038743
203	0xbd42a4c3	-0.04752041
204	0x3e1bf8f3	0.15231685
205	0x3de1a9c1	0.11018706
206	0x3e63b91c	0.22238582
207	0x3c34d01a	0.011035943
208	0xbd143f3d	-0.03619312
209	0xbc6a85d6	-0.014314136
210	0x3e515b56	0.20444998
211	0x3e258947	0.16165648
212	0xbce58f1b	-0.02802234
213	0x3df112a9	0.11771137
214	0x3ccf594d	0.025311137
215	0x3d258afa	0.04041574
216	0xbd2e60b7	-0.042572703
217	0x3de932d7	0.1138665
218	0x3de745c8	0.112926066
219	0x3cc1861d	0.02362352
220	0xbd0c9ef3	-0.034331273
221	0x3e150965	0.14554365
222	0x3e558ce5	0.20854528
223	0xbc4180c0	-0.011810482
224	0x3d0504d3	0.032475304
225	0x3e80b371	0.25136903
226	0x3e09eee5	0.13470037
227	0xbb7be4bf	-0.0038435904
228	0xbd3cc4b6	-0.046086036
229	0xbc1edf95	-0.009696861
230	0x3e59bdac	0.2126376
231	0x3e841357	0.25796005
232	0xbb4072d8	-0.0029365327
233	0x3d029823	0.03188337
234	0x3d135375	0.035968263
235	0x3e9911bf	0.29896352
236	0x3e51cb3d	0.20487686
237	0x3d3ae9b6	0.04563304
238	0x3ea1a08f	0.3156781
239	0x3e423924	0.1896711
240	0x3e9ea013	0.30981502
241	0x3ea13172	0.31483036
242	0x3e0661f4	0.13123304
243	0x3e9ae188	0.30250192
244	0x3c01e498	0.007928036
245	0x3e822091	0.2541547
246	0x3e1c6f37	0.152768
247	0x3e67496e	0.22586605
248	0x3e842415	0.25808778
249	0x3d9fc77b	0.0780172
250	0xbecb4ba5	-0.3970615
251	0x3e733718	0.23751485
252	0x3e4347f3	0.19070415
253	0xbd44fa96	-0.04809054
254	0xbcf3ab22	-0.029744688
255	0x3e1c7e01	0.15282442

linear_stack.4.weight f4 [5, 400]
0	0xbca7ce00	-0.02048397
1	0xbc80db48	-0.015729561
2	0x3dcb82f6	0.09937088
3	0xbce00dcf	-0.027350334
4	0x3deb65b5	0.114940085
5	0xbcddbb39	-0.027066814
6	0x3dd23568	0.10264093
7	0x3ddca84f	0.1077429
8	0x3cd5af8a	0.02608468
9	0xbce798f3	-0.028271174
10	0x3d320d8d	0.043469954
11	0xbee46729	-0.44609955
12	0xbc46f2d4	-0.012142856
13	0x3dec8d8b	0.11550435
14	0x3d21240f	0.03934103
15	0x3eebd62f	0.46061847
16	0x3daa90ff	0.08328437
17	0x3c218aa8	0.009859718
18	0xbcaf1695	-0.021373073
19	0xbc303c87	-0.010756618
20	0x3df54752	0.11976494
21	0x3b762c98	0.00375632
22	0x3e09155d	0.13387056
23	0x3dff20dc	0.12457439
24	0x3dca5799	0.09879989
25	0xbb43101a	-0.0029764236
26	0xbd46143b	-0.048359137
27	0x393a40ac	0.00017762434
28	0x3ea12036	0.31469887
29	0xbbb3102d	-0.005464575
30	0x3d090d8d	0.03346019
31	0x3c504331	0.012711332
32	0xbb732307	-0.0037099735
33	0xbc807a83	-0.015683418
34	0xbcbe0cc0	-0.023199439
35	0xbd241342	-0.04005743
36	0x3dfd646f	0.12372672
37	0x3e0aa5d7	0.13539825
38	0xbc69dbd3	-0.014273602
39	0xbb7ef880	-0.0038905442
40	0xbc89fd87	-0.016844524
41	0x3c5d3fab	0.013503949
42	0x3dfa4d24	0.12221745
43	0x391b022c	0.00014782761
44	0x3dbef533	0.09324112
45	0x3e00c9e6	0.12577018
46	0xbd260452	-0.040531464
47	0x3eafcb46	0.34334773
48	0x3def7cf5	0.116937555
49	0x3e090415	0.13380463
50	0x3d27dcc5	0.040982027
51	0x3d2b5713	0.041831087
52	0x3c2fce1f	0.010730295
53	0x3dd116c3	0.102094196
54	0xbd1ba935	-0.038003165
55	0x3db3391b	0.087511264
56	0xbd2d69b2	-0.042337127
57	0x3b9d4ff9	0.0048007932
58	0x3de935a7	0.113871865
59	0xbcdd535b	-0.027017286
60	0x3d9e7585	0.07737259
61	0x3b6d3c1a	0.0036199153
62	0x3e0dfa09	0.13864912
63	0x3da41513	0.08011832
64	0xbcfd7c83	-0.03094316
65	0x3dadb29a	0.08481331
66	0xbd3c2dda	-0.045942165
67	0x3d349873	0.0440907
68	0x3dec800a	0.11547859
69	0xbc9332ae	-0.017968502
70	0xbca25dca	-0.019820113
71	0xbd4bdbd4	-0.04977019
72	0x3dd9980f	0.10624706
73	0x3c8e9707	0.017406
74	0xbd08d995	-0.033410627
75	0x3e1dc274	0.15406209
76	0x3de77a57	0.11302631
77	0x3c8c523d	0.017129058
78	0x3d7db2c2	0.061938055
79	0x3db08f1e	0.086210474
80	0x3e65bf3b	0.2243623
81	0x3a5a966e	0.0008338456
82	0x3df7dc49	0.12102563
83	0x3ddc1049	0.10745294
84	0xbc1607ba	-0.009157116
85	0xbe8690d6	-0.26282376
86	0x3d72d22b	0.059282463
87	0xbc2f63f3	-0.010704982
88	0x3de917bd	0.11381481
89	0x3e30b687	0.17257129
90	0x3e1d38c8	0.15353692
91	0xbd4191ce	-0.04725819
92	0x3d985a62	0.07439114
93	0xbcf1bf77	-0.029510243
94	0x3dac11ee	0.08401857
95	0x3d8b213f	0.067934506
96	0xbc4a97cc	-0.012365293
97	0x3ca11ca3	0.019666975
98	0x3de3c67c	0.11121842
99	0xb9edb2de	-0.0004533743
100	0x3da9a3d2	0.08283199
101	0x3b2721db	0.0025502357
102	0x3e22f039	0.1591195
103	0x3de72ad1	0.112874635
104	0xbcb61e3d	-0.022231216
105	0x3cde8c93	0.02716664
106	0x3def891a	0.11696072
107	0x3dca5f89	0.09881503
108	0xbcb16835	-0.021656135
109	0x3b4fe067	0.0031719448
110	0xbcab80ea	-0.020935494
111	0xbce5a995	-0.028034965
112	0x3d381a0d	0.04494672
113	0xbf00c2ef	-0.50297445
114	0x3dc630ef	0.09677302
115	0x3e11c1b1	0.14234044
116	0x3c9aa9e3	0.018879836
117	0x3eb33ff7	0.3500974
118	0x3dfeef76	0.12448017
119	0x3deb03a9	0.114753075
120	0xbd23c562	-0.03998316
121	0x3dc9da82	0.0985613
122	0x3dbc5cb1	0.09197367
123	0x3cb91f67	0.022597982
124	0x3d7aa920	0.061196446
125	0x3d026bed	0.031841207
126	0x3dced809	0.10099799
127	0x3d31e45d	0.043430675
128	0x3d8cfc9c	0.06884119
129	0xbd393eb3	-0.04522581
130	0xbce420e0	-0.027847707
131	0x3db6bc1d	0.089225985
132	0x3e0949f7	0.13407122
133	0xbd4852d0	-0.0489071
134	0x3e6bfc98	0.23045576
135	0x3d899535	0.06717912
136	0x3cc8fcf7	0.024534686
137	0xbc7f2c2d	-0.015574497
138	0x3dc2d236	0.09512751
139	0x3dffcc57	0.124901466
140	0x3ddd9a10	0.10820401
141	0x3cde3b1d	0.027127797
142	0xbb603c00	-0.003421545
143	0xbe2c1639	-0.16805352
144	0xbbc26d78	-0.00593346
145	0x3c941317	0.018075509
146	0xbd0ff5f6	-0.035146676
147	0x3ba1145b	0.0049157566
148	0x3bfd92cd	0.0077384473
149	0x3de81bb0	0.11333406
150	0x3dade36d	0.08490644
151	0x3e0a89da	0.13529149
152	0x3de936c5	0.113873996
153	0xbcd205ae	-0.025637474
154	0xbc048487	-0.008088238
155	0xbc97b805	-0.018520365
156	0x3d9287e6	0.07154827
157	0xbe85627a	-0.26051694
158	0x3d245def	0.040128645
159	0x3e2391f0	0.1597364
160	0x3dd507e0	0.10401893
161	0x3c24f6ed	0.010068637
162	0xbd386423	-0.045017373
163	0xbd37dc83	-0.04488803
164	0x3de683fd	0.112556435
165	0xbd35dadf	-0.044398185
166	0xbbd0e010	-0.0063743666
167	0x3cd9b877	0.026577218
168	0xbd19b5ff	-0.03752708
169	0x3e1fb1a6	0.15595111
170	0xbc99e03a	-0.018783677
171	0x3de74d25	0.11294011
172	0xbe139d2b	-0.14415424
173	0x3db0d020	0.08633447
174	0xbef28b08	-0.47371697
175	0x3d988135	0.07446519
176	0x3d8375c7	0.064189486
177	0xbc99cde0	-0.018774927
178	0x3de36b4d	0.111044504
179	0x3dfb12b0	0.12259424
180	0x3db9579d	0.09049914
181	0x3df1fe45	0.11816076
182	0x3def2523	0.11677005
183	0x3d5e9af6	0.054347
184	0x3e0c6d6c	0.13713616
185	0xbd1c70cb	-0.038193505
186	0xbc9d6b19	-0.019216107
187	0xbd01a532	-0.031651683
188	0x3df18ea7	0.11794787
189	0x3e899f7f	0.26879498
190	0xbd3290c2	-0.043595083
191	0x3e04c561	0.12965919
192	0xbd357db3	-0.04430933
193	0x3ec15b5a	0.37765008
194	0x3bff4d1c	0.0077911746
195	0x3d96a3c0	0.073554516
196	0x3dd4158f	0.103556745
197	0xbc89f194	-0.016838826
198	0x3eb11392	0.34585243
199	0x3e440615	0.19142945
200	0x3dd5d01a	0.10440083
201	0x3c2f6b53	0.01070674
202	0x3e46fc41	0.19432165
203	0x3c16decd	0.009208393
204	0x3dfbf35b	0.12302276
205	0xbe700e04	-0.23442847
206	0x3e0d02f5	0.1377066
207	0xbc5c2f40	-0.013439
208	0xbd14f5b4	-0.036367133
209	0x3d31e6af	0.043432888
210	0x3d875a01	0.06608964
211	0x3eb5f9f1	0.35542253
212	0xbcff4121	-0.031158986
213	0xbd4be5d3	-0.049779724
214	0xbc83faac	-0.01611074
215	0x3b20f8fd	0.002456247
216	0x3c1bf826	0.009519612
217	0xbe9d770e	-0.30754894
218	0x3d2556ce	0.040365987
219	0x3cff0980	0.03113246
220	0xbd0f0a4b	-0.034921926
221	0x3c23f7f7	0.01000785
222	0x3e04fb8a	0.1298658
223	0xbc7bd87a	-0.015371436
224	0xbcacaa57	-0.021077318
225	0x3dbe2b26	0.09285574
226	0xbe13cd5c	-0.14433807
227	0xbd0e63f0	-0.034763277
228	0x3cd5980d	0.02607348
229	0x3d5c252a	0.05374638
230	0x3e0856e1	0.13314392
231	0x3ea85698	0.32878566
232	0xbc733cf5	-0.014846076
233	0xbd2af8a2	-0.04174102
234	0xbb959030	-0.0045643076
235	0x3dab0394	0.08350292
236	0x3d54b962	0.051934607
237	0xbdf23608	-0.11826712
238	0x3d9b836d	0.07593427
239	0x3d690c42	0.056896456
240	0x3dc8a973	0.09797945
241	0x3e83159f	0.25602433
242	0xbe131293	-0.14362554
243	0x3e0a5bef	0.13511632
244	0xbb857352	-0.004072585
245	0x3e0048bd	0.12527747
246	0x3e2d75a2	0.16939405
247	0x3dee40b5	0.11633436
248	0x3e17f336	0.14838871
249	0x3d18758b	0.037221473
250	0xbf36b4e2	-0.71369755
251	0x3de3d8b7	0.111253195
252	0x3d929f95	0.07159344
253	0xbc8462c0	-0.016160369
254	0xbc3130d3	-0.010814863
255	0x3eec0600	0.46098328

linear_stack.4.bias f4 [5]
0	0x3e7c623a	0.24646845
1	0x3e1add06	0.15123376
2	0x3e4ae1c7	0.1981269
3	0x3e5b67dc	0.21426338
4	0xbcac48c3	-0.02103079
