data/U3_new/model_UAV_3.pth (torch, 660400 bytes, 6 tensors)

linear_stack.0.weight f4 [400, 4]
000000 0c 42 9a 3e 82 ca 55 be b2 81 d2 3e 25 6d a6 be
       0.30128515 -0.20878032 0.41114575 -0.32505146
000010 20 31 68 3e 2b b2 d5 3e de fd 93 be 95 5d b4 3d
       0.2267499 0.41737494 -0.28904623 0.08806912
000020 85 27 35 3e f0 b1 b8 3e 5c 45 9b be 98 c6 00 bf
       0.17690857 0.36073256 -0.30326355 -0.5030303
000030 4a 67 39 3c 43 a8 db bb 20 1d e4 3e c4 d7 0e 3f
       0.01131613 -0.006703408 0.4455347 0.5579798
000040 ee 87 2a be 01 33 08 bf d2 f3 c4 be 5d a4 0b bf
       -0.16653416 -0.53202826 -0.3846727 -0.54547673
000050 7e fa 5e 3e 1c cf b4 3d 8e 42 c2 3e 87 cd a4 3e
       0.21775243 0.088285655 0.37941402 0.32188055
000060 6e e7 ad 3e 57 99 b3 3e ca 28 50 bd 80 62 0f be
       0.3396563 0.35077927 -0.05082015 -0.14002419
000070 a9 17 c0 3e eb e6 95 be a1 be 23 3f 00 e8 a1 3e
       0.3751805 -0.2927774 0.6396275 0.31622314
000080 dd 9e 07 c0 28 47 aa 3e 71 4c e7 be 83 e7 a4 bf
       -2.1190712 0.33257413 -0.45175508 -1.2883152
000090 44 f5 60 3e d1 e5 85 be a1 0c 34 3f 05 9b 58 3f
       0.21968561 -0.26151899 0.7033177 0.8461154
0000a0 5f 36 2e 3e cd 71 2d 3d fd 2c 26 3f 97 6a 88 be
       0.17012928 0.042344857 0.64912397 -0.26643822
0000b0 30 5a 8f be 08 66 a3 3e ce 5a 67 3d fa ac bc be
       -0.27998495 0.3191378 0.056483082 -0.3685072
0000c0 3f 48 12 3e 97 58 09 3e 0d b0 b6 be 8b c6 33 bf
       0.14285372 0.134127 -0.3568119 -0.7022483
0000d0 8c fb 8d 3e da 46 c4 3c 85 27 02 3f ac ad 8d 3d
       0.27730978 0.023959566 0.5084155 0.06917891
0000e0 a1 9e d8 3e bc 9e 01 3e 3b 03 25 bd 8b e0 a8 be
       0.42308524 0.12658209 -0.040286284 -0.32983813
0000f0 22 ad 1a be 2f e4 9b 3e 53 31 0f 3f 24 31 17 3f
       -0.15105107 0.30447528 0.5593464 0.5905936
000100 e9 43 9c be bc 6c 9e 3e 7c 62 16 bd b9 69 4e 3f
       -0.3052056 0.30942333 -0.036715016 0.8063007
000110 13 f8 d1 bc 01 2f 56 be 8e 1f 29 3f 6b 5c 01 3f
       -0.025630986 -0.20916368 0.66063774 0.50531644
000120 f6 65 04 3f af d2 d8 3d 52 60 bc 3e 79 bd 0c 3f
       0.5171808 0.1058706 0.36792237 0.5497661
000130 87 d0 54 bd 4d 2c ab 3e ee f4 06 3e 94 6e 70 bf
       -0.05195668 0.33432236 0.13179371 -0.9391873
000140 6c c5 9f be c8 fd aa bd 6c 6e 15 3e 8e 54 a1 be
       -0.31205308 -0.08349186 0.14592904 -0.31509823
000150 03 58 c6 3d 3e 30 2c bd ea 98 45 3e a1 de 8a 3d
       0.09684756 -0.042038195 0.19296613 0.06780744
000160 39 2c a7 be e8 d0 f7 3e 2a d8 06 be cc 18 8b 3c
       -0.32650927 0.4840157 -0.13168398 0.016979598
000170 f6 58 b2 3e 1d 44 9e be df ee db 3e 45 4e 38 be
       0.34833497 -0.3091134 0.42955682 -0.17998607
000180 5d d1 2c 3e 72 31 67 3d 36 2d b6 be 34 91 b4 be
       0.16876741 0.05644364 -0.35581368 -0.3526703
000190 af dd bc be 38 72 b7 3e bc 1f d4 3e 14 7c 93 3e
       -0.3688788 0.3582933 0.4143046 0.28805602
0001a0 46 41 8b be 4b 03 fb 3e 55 7c 0c 3f 1e 77 b9 3c
       -0.27198237 0.4902595 0.54877216 0.022639807
0001b0 74 30 cc 3e ee 3d 09 bc 3c 4e 89 3e 95 0c 89 be
       0.39880717 -0.008376582 0.268175 -0.26767412
0001c0 b0 5e 0e 3c 55 b5 a5 bc 87 b5 79 be 73 72 44 be
       0.008689567 -0.020228067 -0.24385653 -0.19184284
0001d0 6c 32 ab 3e 1e c3 c3 3e e1 d1 e6 3d 3a db a4 3e
       0.33436906 0.382348 0.112705 0.32198507
0001e0 53 54 7c bd 29 34 49 bf ba cd 81 3d c8 2a 71 3f
       -0.061603855 -0.78595215 0.06338067 0.94205904
0001f0 ce b6 37 3d e1 c4 21 3d 83 0a 3a be ea 6a 45 bf
       0.04485207 0.0394944 -0.18168072 -0.7711626
000200 83 4e 84 be 8e ec 8c 3e 74 93 9a be b5 84 fd 3e
       -0.2584115 0.27524227 -0.30190623 0.4951531
000210 97 4a 6d 3e f6 22 86 3e 78 ac 6d 3e ea fd 03 bf
       0.23172985 0.26198548 0.23210323 -0.5155932
000220 27 bb dc 3c 2c d5 80 bc bd 67 a4 be 56 4b e6 3e
       0.02694471 -0.015726648 -0.32110396 0.44979352
000230 6e d2 6f 3e 14 3e 06 3f ec b9 94 3e 05 15 02 3d
       0.23420116 0.52438474 0.29048097 0.031758327
000240 5b 64 a5 3e 93 27 71 be aa df d6 3e 23 09 2c 3e
       0.32303128 -0.23550253 0.41967517 0.1680036
000250 eb c9 09 3f 2d b0 98 bd e3 dc ad 3e 0a 51 b5 3e
       0.5382373 -0.07455478 0.33957586 0.3541339
000260 3a 4c 16 3d 01 63 59 3e 3a 45 53 3e e0 1c 09 3f
       0.03669379 0.21229173 0.20631877 0.53559685
000270 96 73 95 be 6a 7e 8f 3e 45 86 19 3f 91 be 8d 3e
       -0.29189748 0.28026134 0.59970504 0.27684453
000280 76 89 65 3d 49 9f d0 3e 64 4b f0 3e 24 96 9c 3e
       0.056039296 0.40746525 0.46932518 0.30583298
000290 34 fc f7 be 6e e5 c2 be 10 93 55 3e 10 42 b5 bd
       -0.48434603 -0.38065666 0.20856881 -0.08850491
0002a0 3f 48 1e 3e 76 e3 c3 3e 94 54 13 3f cf 6f ca bc
       0.15457247 0.38259476 0.5755093 -0.024711518
0002b0 de 32 81 be 54 03 99 be b4 f1 f5 be b0 80 51 bd
       -0.2523412 -0.29885352 -0.48035967 -0.051148117
0002c0 52 5c b6 be 28 ae 8f bd de df 87 bf c4 97 c1 3f
       -0.3561731 -0.070156395 -1.0615194 1.512444
0002d0 a0 a9 a4 3e 5a 55 bf be 5d fb 4a 3f a2 01 2a 3f
       0.32160664 -0.37369806 0.792898 0.6640874
0002e0 e7 de 01 3d ec 67 db 3e 92 27 c2 bd 0a 12 8f 3e
       0.031706717 0.42852724 -0.09480204 0.2794345
0002f0 83 4e da be 22 59 af be a7 38 31 be 6d e3 68 3f
       -0.42638025 -0.3424769 -0.17306767 0.90972024
000300 89 4a 6d be e6 af 9e 3e 25 cf 92 bf 2b df d7 bf
       -0.23172964 0.30993575 -1.1469465 -1.686498
000310 6f b0 fd bc 49 3d 0e 3f e7 91 3d bd 4c 75 77 3e
       -0.03096792 0.55562264 -0.04628172 0.24165839
000320 93 7e ab 3d ed d9 9a be 64 c1 0b c0 08 97 a5 bf
       0.083737515 -0.3024439 -2.1836786 -1.2936716
000330 0d 98 90 3e 96 84 3a be 33 e2 2f bd 82 f4 9d 3d
       0.28241006 -0.1821464 -0.04294033 0.07712652
000340 0d 84 ef 3e ff ee 15 3e fa 00 ac be e2 ef fa 3e
       0.46780434 0.14641951 -0.33594495 0.4901114
000350 eb 16 30 3e eb e3 10 be c3 3b 73 3d 96 c8 e7 3e
       0.17196243 -0.14149444 0.059383165 0.45270222
000360 5c a9 05 be 20 0f e5 be dd 0a 6e 3f 05 6c 92 bf
       -0.13052887 -0.44738102 0.92985326 -1.1439215
000370 2e e3 93 be e1 f3 cb 3e 7a 20 e7 3e a6 80 02 3f
       -0.28884262 0.39834502 0.45141965 0.5097755
000380 9c 4f db 3c 15 29 97 3e 77 dd 97 3e d7 b9 f2 3e
       0.02677136 0.2952353 0.29661152 0.4740741
000390 38 d5 4c be d2 0f 93 be 94 23 ac 3e b8 69 78 be
       -0.20003211 -0.28723007 0.33620894 -0.24259079
0003a0 dc 5c e4 3e c2 93 35 bc a7 a3 90 be 91 6f 8a be
       0.44602096 -0.0110825915 -0.28249857 -0.27038243
0003b0 74 06 7a 3e 6a 9e e5 3e 6b 0a de bd 07 7b 67 be
       0.24416524 0.44847423 -0.10841831 -0.22605525
0003c0 d6 d8 0c 3d a9 4b 5a bd eb ec a5 bd 88 de 1f 3f
       0.03438648 -0.05329481 -0.08101829 0.6244893
0003d0 90 2d 54 bd b4 90 95 be 70 b7 ed 3d a8 c3 86 bd
       -0.051801264 -0.29211962 0.116072536 -0.06580287
0003e0 02 0f 87 be 40 0d 58 be 10 aa ff bd 86 91 b1 be
       -0.26378638 -0.21098804 -0.12483609 -0.34681338
0003f0 4b 73 d7 3e 74 a7 c9 3e d4 ed c3 bc 80 4d 9a bd
       0.4208015 0.3938557 -0.023917116 -0.07534313

linear_stack.0.bias f4 [400]
000000 8a 81 06 bf c9 09 c7 be a8 48 c4 3e eb bc 10 3f
       -0.5254141 -0.38874653 0.38336682 0.56538266
000010 07 20 22 3f 19 fe e4 be 7a 9b 10 3f fb c0 b3 be
       0.6333012 -0.4472511 0.5648724 -0.3510817
000020 d2 6e 27 3e 0e b5 b5 be a0 91 12 be d2 3e 0f 3f
       0.16350868 -0.35489696 -0.14313364 0.5595523
000030 4d 29 dc 3d 8d f7 0e bf 5b 38 b0 bd 33 d7 c1 3d
       0.10750065 -0.5584648 -0.08604499 0.09464874
000040 da d6 00 3e 74 7c c9 3d e0 17 a2 3e 9c 58 11 3e
       0.1258196 0.09838191 0.3165884 0.14193958
000050 00 19 60 bb 69 6e cc 3e 0f 26 25 3f 93 b0 0b bf
       -0.0034194589 0.39927986 0.645112 -0.54566306
000060 88 03 50 3c a4 8f a6 3d 34 18 b9 bd 45 46 25 3f
       0.012696154 0.08132866 -0.090378195 0.6456035
000070 bc 5c f8 bd 68 3e 25 bf 81 74 25 3f 6a 2f ec 3d
       -0.12127063 -0.6454835 0.64630896 0.11532481
000080 ed f2 43 3e 64 0a b5 3e 92 96 93 bd 72 fb 4a be
       0.19135638 0.3535949 -0.072064534 -0.19822481
000090 85 8b b4 be bf 35 36 3f f5 97 e7 3e 75 ce 7e 3e
       -0.35262695 0.7117576 0.45233122 0.24883445
0000a0 5f 4e c7 bd a8 a2 7a be 5e df 0a bf 8c 17 94 be
       -0.09731745 -0.24476111 -0.5424708 -0.28924215
0000b0 0c b3 37 be d3 4c aa be 54 8f 28 3f 7a bb 16 3f
       -0.17939395 -0.33261737 0.658437 0.58879817
0000c0 02 d3 9b 3e 3b d0 21 3f 37 65 da be 15 6c 51 3e
       0.30434424 0.6320836 -0.42655346 0.20451386
0000d0 98 31 e9 3e 1b 6c 9d 3e a8 c1 31 3f e5 80 76 3e
       0.4554565 0.3074654 0.6943612 0.24072607
0000e0 b3 a6 12 3f 58 92 b1 be fa 30 cc 3e 18 bf f2 3e
       0.5728561 -0.34681964 0.39881116 0.47411418
0000f0 2f 9d 33 3f 54 62 a4 be 40 3c 69 be ae 9d 27 3f
       0.7016172 -0.32106268 -0.2277689 0.65474975
000100 6c a0 85 bf 9a b4 fe 3d 94 ba ea bd 30 27 c0 3e
       -1.0439582 0.12436791 -0.11461368 0.37529898
000110 77 9e 41 3f 8c 50 e6 be 66 fd 4e 3f 94 45 27 3f
       0.75632423 -0.44983327 0.80855405 0.6534054
000120 ac 31 17 3f 1e 03 d7 3e 12 9a 2c 3f 10 2c 96 bc
       0.5906017 0.41994566 0.6742259 -0.018331558
000130 84 fb 31 3f 68 ec c7 bd 99 e7 11 3f 3c d5 0b 3f
       0.6952441 -0.09761888 0.56994015 0.54622245
000140 5a 69 5f be 54 40 96 39 27 5d 80 3d 93 8d 02 3f
       -0.21817532 0.00028658158 0.062677674 0.50997275
000150 e9 4f a6 be 30 3f 05 be 0f 0a c7 3e 97 c6 e9 3e
       -0.32482842 -0.13012385 0.38874862 0.45659325
000160 f1 fd 96 3e 54 8d 8d 3e 85 41 8f 3e ef 11 c1 3e
       0.29490617 0.27646887 0.27979675 0.37708995
000170 5c 9e a0 3e 54 31 1a bd 64 65 87 3e 11 e0 6f 3e
       0.3137082 -0.0376447 0.26444542 0.23425318
000180 db 66 16 3f 4c b4 9a 3e 93 7d e9 be 16 86 bd 3e
       0.58750695 0.3021568 -0.45603618 0.37016362
000190 24 22 d8 3e 85 f1 00 3f e8 96 44 3f db 98 e5 3e
       0.42213547 0.5036853 0.76792765 0.44843182
0001a0 fe 28 83 bf 88 ea 6b be cc f2 0c 3e 8a 7c d6 be
       -1.0246885 -0.23038685 0.13764495 -0.4189189
0001b0 0d 73 05 bf 8c 02 e6 3e f2 ed af be 18 7a e4 3d
       -0.5212868 0.44923818 -0.34361225 0.111561
0001c0 d6 9a f5 be 07 83 1a be 00 70 39 3f 4a 9f f6 3e
       -0.47969693 -0.15089045 0.72436523 0.48168403
0001d0 ae 16 dd 3e 97 05 dc be 32 37 fd be f6 f0 04 bf
       0.43181366 -0.42973015 -0.49456173 -0.5193018
0001e0 9f a6 a8 be 78 04 1d bf 74 47 e0 be b6 f1 d9 be
       -0.32939622 -0.61334944 -0.43804514 -0.42567223
0001f0 c7 87 97 3f c2 e6 b3 3e b8 77 b1 be ff 91 2f 3e
       1.1838311 0.35136992 -0.3466165 0.17145537
000200 90 aa 98 3e a7 e6 08 bf 8d a6 23 bf a4 ca f5 be
       0.2981763 -0.5347695 -0.6392601 -0.48006165
000210 e5 c0 ea be 18 40 02 3f c5 d7 9f 3d f4 fa 40 3e
       -0.45850292 0.5087905 0.07804827 0.18845731
000220 4d 2e 50 be 30 e7 2d 3f 41 c5 7c 3e 45 7e d5 be
       -0.20330162 0.6793089 0.24684621 -0.41697899
000230 dd 23 7b be d9 dd 58 3e f6 56 0b bf 54 3d 41 be
       -0.245254 0.21178378 -0.54429567 -0.18871051
000240 e5 9c 0d 3f 20 41 23 bf 3a 93 e6 3e f6 f4 c1 3e
       0.5531753 -0.6377125 0.450342 0.37882203
000250 5e 06 c9 3e 2e f2 85 3e 42 7c 05 3f 79 fd 35 3e
       0.3926267 0.2616133 0.5214273 0.17772473
000260 df ec da be 1d 9c 32 3f 1a bd f4 be 3c e6 0d bf
       -0.42758843 0.6976946 -0.47800523 -0.55429435
000270 97 f2 ee 3e 9b 19 0e 3e 5f a5 6e be 31 07 4d be
       0.46669456 0.13876955 -0.23305272 -0.20022275
000280 e4 e2 0e 3f db 29 35 3f 5c af 18 3e c2 9e c8 3e
       0.5581496 0.7076699 0.14910644 0.39183623
000290 7a ae 44 bf 35 16 b5 3e 0a 7c 8b be 3c 55 d6 be
       -0.7682873 0.35368505 -0.27243072 -0.41861904
0002a0 50 85 4a 3e 3b 66 9c 3b f7 98 0c 3f a2 55 1f bf
       0.19777417 0.004772929 0.54920906 -0.6224004
0002b0 45 4f a5 bd ec f3 d5 3e 17 10 bb be d8 ac 03 be
       -0.0807176 0.4178766 -0.36535713 -0.12858903
0002c0 a7 be 1e bf d9 ad 53 bf 17 05 63 3e 63 d4 97 be
       -0.6200966 -0.82687145 0.2216991 -0.29654226
0002d0 eb 07 23 bf 58 e5 41 3d fb 93 3e bf ef a4 33 bf
       -0.63683957 0.04733786 -0.7444455 -0.70173544
0002e0 b0 04 a8 bd fb 9e 45 bf 7e 3f 00 3f 6d 3f e4 3e
       -0.08204019 -0.7719571 0.5009688 0.4457964
0002f0 e0 1e b7 bc 63 9e af 3e 57 28 29 bf d4 20 03 bf
       -0.02235359 0.34300527 -0.6607718 -0.51221967
000300 3c be 59 3e eb c7 d7 3e 7a b1 1d 3f 00 87 fe bb
       0.21263975 0.42144713 0.6159893 -0.007767558
000310 68 aa c9 be 9b ae 35 3f ef 1f 9d 3e ad bb 31 3f
       -0.39387822 0.7096955 0.30688426 0.69426996
000320 df 95 4d 3f 20 6e 3e bd 06 a2 cd be 69 77 61 3e
       0.8030681 -0.046491742 -0.40162677 0.22018208
000330 c6 65 e6 be f4 bf b2 be f1 61 6c be 20 93 d9 3c
       -0.44999522 -0.34912074 -0.23084237 0.026559412
000340 5b 24 1c 3d a0 b6 49 be ea c9 5a 3e f4 a0 87 3e
       0.03812061 -0.19698572 0.21366087 0.26489985
000350 76 ca 8f be c8 e5 27 3f 99 00 0b 3f ed af 2d 3f
       -0.28084153 0.65584993 0.54297787 0.67846566
000360 70 75 04 bd f3 64 3d 3f 25 68 11 3f 77 55 1f bf
       -0.03233856 0.7398216 0.56799537 -0.62239784
000370 43 89 3f 3f 68 b1 c1 be 3f a1 78 bd 64 42 28 be
       0.7481882 -0.37830663 -0.06070065 -0.16431576
000380 d2 67 31 be 78 75 2c 3f 79 7b f5 3e 1c 38 31 3f
       -0.1732476 0.67366743 0.47945765 0.6922624
000390 02 bd 90 3e 84 c4 0c bf 8a 73 4b bf e7 8a 69 be
       0.28269202 -0.5498736 -0.79473174 -0.22806893
0003a0 cf 7b 20 3f 91 8f e8 3e 0c 86 c0 be 97 3b f9 be
       0.62688917 0.45422032 -0.3760227 -0.48678276
0003b0 6b af fc 3e 24 17 12 bd 08 89 bc 3e ef 83 9d be
       0.49352583 -0.0356666 0.36823297 -0.3076472
0003c0 63 7f c6 3e 9a 5a 23 3d 6c 92 36 be 57 7d 30 3f
       0.38769063 0.039881326 -0.17829293 0.68941253
0003d0 a5 23 e4 3e 23 69 26 bf a7 32 5a bf 10 7b cc 3e
       0.44558445 -0.65004176 -0.8523354 0.3993764
0003e0 78 16 0c 3e 37 64 f1 3e f5 6a a6 3e c4 38 69 be
       0.13680446 0.4714677 0.32503477 -0.2277556
0003f0 5a dc 61 3e e0 51 53 3e 96 e7 36 3f 85 39 b8 3e
       0.22056714 0.20636702 0.7144712 0.35981384

linear_stack.2.weight f4 [400, 400]
000000 1a 38 21 3d f8 0b 6f bd 31 16 ab 3d 9a 01 d6 3d
       0.039360143 -0.058361024 0.08353842 0.10449524
000010 dd 63 76 bd fb b5 44 bd 79 73 b5 3b 54 89 e6 3b
       -0.06015383 -0.048025113 0.005537447 0.0070354138
000020 81 96 0e 3b 71 ec 18 be c7 80 4d bd b0 b6 0f 3e
       0.0021757188 -0.14933945 -0.05017164 0.14034534
000030 db ef 1b 3a 9e 69 93 3c c8 df 54 bd c1 eb d8 3c
       0.0005948522 0.017994698 -0.051971227 0.026479604
000040 e7 08 cf 3d b0 1a bd 3e d8 93 1b 3d da 0d 44 bc
       0.1010912 0.36934423 0.03798279 -0.011966193
000050 f5 92 2b 3d 96 9b b7 3c a2 8f 2b 3e fe 45 5c be
       0.041888196 0.022413056 0.1675401 -0.21511075
000060 e8 22 12 3d 77 bd 21 bd 8a 2b 17 bd f1 40 71 3d
       0.03567782 -0.03948733 -0.036906756 0.058899824
000070 1e 3b 01 3d 69 e9 b5 bd 5a 92 b7 bb ec 88 ac 3d
       0.03155052 -0.0888241 -0.0056021633 0.08424553
000080 6d 00 c5 bc e0 09 15 3d 3e 5a 91 3d 6a 78 19 3c
       -0.024048055 0.03638637 0.070972905 0.009367088
000090 80 c6 7f bc 91 c2 d4 3c 84 41 f9 3c b9 79 92 bb
       -0.015611291 0.025971683 0.030426748 -0.004470077
0000a0 55 df b3 3c 6d 0b ee bc eb 0f d2 bd 58 f2 3f bd
       0.021957079 -0.029058183 -0.10256942 -0.046861976
0000b0 54 6e 99 3c b0 8a c6 3c b7 b9 eb 3d 04 0d 03 3f
       0.018729366 0.024236053 0.11510032 0.51191735
0000c0 22 e2 d6 be ef 34 b2 3d cc 16 ac be ff 1a 00 3c
       -0.419694 0.087015025 -0.33611143 0.007818936
0000d0 1b 37 8f 3d 7c f8 3c 3d 7a e3 89 be 8d 83 fd 3c
       0.069929324 0.04613541 -0.26931363 0.030946517
0000e0 4e d5 fd 3c 23 31 91 3c 4b cf 16 3d 31 8f 36 3d
       0.0309855 0.017723626 0.036818784 0.04457015
0000f0 a9 4e f0 3d 3a f8 23 3c d3 18 37 3c e9 29 ae 3d
       0.11733753 0.010007912 0.011175352 0.085040875
000100 fc 3a f8 3e 2b ce 48 3c e7 0f 16 3e 78 1d e7 3d
       0.48482502 0.0122561855 0.14654504 0.112849176
000110 26 0a 2f 3d 59 b4 89 bd 91 35 0f 3e 10 3d 19 3e
       0.042734288 -0.06723852 0.13985278 0.149647
000120 be 0a b6 3e 32 91 b1 3d 1b de 88 3d ee 4e 7a be
       0.3555507 0.08670272 0.06682988 -0.24444172
000130 07 df a2 3e 67 85 f7 ba ae 9c d9 3c 43 8d 0f 3d
       0.3181078 -0.0018884361 0.026563969 0.035046827
000140 00 8d 4e 3d 39 11 92 be 3a 35 06 be fa ce c3 3c
       0.050427437 -0.28528765 -0.13106242 0.023902405
000150 1f 2f ea bc 27 5c b2 bb e1 bd 99 3d a6 69 46 3e
       -0.028586922 -0.0054431143 0.0750692 0.19376239
000160 2b 11 af 3a ae d4 88 3d fe 15 d4 3c 51 51 22 be
       0.0013356557 0.066811904 0.025889393 -0.15851332
000170 03 4b 7d 3d f9 6b e8 bc 68 80 f8 3d 03 b9 e2 3e
       0.061839115 -0.028371798 0.121338665 0.44281778
000180 0d 5f ce 3d 46 b6 b6 3d ab 12 37 bd 95 c5 b7 3d
       0.10076723 0.08921485 -0.044695538 0.08973233
000190 88 33 3f 3d f0 24 66 3d 16 45 35 3e 12 0e c0 3d
       0.046680003 0.05618757 0.17702135 0.09377684
0001a0 62 28 e8 bd 5f 76 80 3e 19 9d d5 bd a4 eb c0 3c
       -0.113358274 0.2509031 -0.104303546 0.023549862
0001b0 44 f8 86 bd 64 1b 69 3f 69 c3 00 bc de 06 f0 be
       -0.06590322 0.9105742 -0.007859089 -0.4688024
0001c0 60 6f 35 be ad 02 ab bc 4b f0 70 3d a1 c6 86 3c
       -0.17718267 -0.0208753 0.05882291 0.016452136
0001d0 8b 94 96 be b2 3e 04 3f c0 71 e5 bb 6b a6 ec bd
       -0.29410204 0.51658165 -0.0070020854 -0.11555179
0001e0 92 51 de 3e 2a c2 89 be 47 b6 a1 bc 56 49 0d bd
       0.43421608 -0.26905948 -0.019740237 -0.034493767
0001f0 e1 70 04 bf 29 34 a8 3e 2d 4d 0d 3c 4c 06 60 3c
       -0.5173474 0.32852295 0.008624357 0.013673376
000200 d6 93 05 3d 4a 83 27 bc 49 55 20 bd 0f 4c 39 3d
       0.03261169 -0.010224173 -0.039143834 0.04523855
000210 c2 98 78 3c 40 6c ba 3d 1e b6 3e bf 2d ad 3f be
       0.015173139 0.09102678 -0.7449664 -0.18718405
000220 5d d5 1f 3f 9c fc 04 3e fe 62 cf 3d eb 72 d4 bc
       0.6243494 0.12986988 0.10126303 -0.025933703
000230 46 53 70 bd f2 fb f0 3f eb b6 02 bf 8a 0a 57 be
       -0.058673166 1.8826888 -0.5106036 -0.21000114
000240 08 e2 b0 3c ef 5b a8 3e 15 cf 3a 3d ff 84 99 3d
       0.021592155 0.3288264 0.045607645 0.0749607
000250 52 06 51 3c 2b 0a a3 3d f3 7c 08 3e ea f4 2b bc
       0.012757855 0.07960924 0.13328914 -0.010495404
000260 c5 59 e8 3b 82 d2 16 3e 66 68 0c be 77 fd 45 bd
       0.0070907795 0.1472874 -0.137117 -0.048337426
000270 62 94 30 3d 99 15 ec bb 62 fe 15 3d f2 12 91 3e
       0.04311026 -0.007204723 0.03661955 0.28334767
000280 27 f2 e6 3e d5 36 7a 3c 8b 70 cb 3e ad 6f ea 3d
       0.45106623 0.015271862 0.397343 0.11447082
000290 9b 0e d0 bd 23 b7 ce 3c d3 57 2b bc 9a be 3e 3d
       -0.10159036 0.02523381 -0.010457951 0.04656849
0002a0 61 ad 03 3d f7 52 39 3e a5 ce fd 3b 08 58 f4 bc
       0.03214777 0.18098055 0.007745581 -0.029827133
0002b0 e4 13 ed bc c8 79 5e be 64 9a f0 bd 5d fa d2 bc
       -0.028940149 -0.21726143 -0.11748198 -0.025754148
0002c0 e4 38 da bd 30 18 e8 bd 23 51 bc 3c 5c 9e 4a be
       -0.10655382 -0.113327384 0.022987908 -0.19786972
0002d0 fb 26 0d bd cf 77 03 3c 48 58 04 3f df 5b 3f be
       -0.034461003 0.00802417 0.51697206 -0.1868739
0002e0 10 c2 01 bf dc 7c c7 be 2d aa 85 bc 16 2c 44 3d
       -0.5068674 -0.38962448 -0.016316498 0.047893606
0002f0 d3 5d c1 3c 35 3b a6 3c 5f 3c 62 bc 28 09 f9 bd
       0.02360431 0.020291904 -0.013808339 -0.121599495
000300 e5 78 51 bd 2d fa 7c 3d 47 07 55 3d 4a ed 99 bc
       -0.051140685 0.061762024 0.052008893 -0.018789906
000310 22 f1 4e bd d8 5b 41 be 32 7b 8a 3e c9 ef 0b bd
       -0.05052293 -0.18882692 0.27047116 -0.034164224
000320 22 c6 95 3e 57 cf 1e bd 67 86 38 38 a7 2d 56 3d
       0.29252726 -0.038771953 4.399419e-05 0.05228963
000330 17 ca a2 3c bb 3f df ba 91 0e 1d bc 39 06 08 3d
       0.019871755 -0.0017032543 -0.009585992 0.03320906
000340 28 7e a1 bc c7 ef 21 3d 34 f1 12 3d a6 07 93 3e
       -0.019713476 0.03953531 0.03587456 0.28716773
000350 c1 42 36 be 64 d2 13 3e b9 8c 31 3f 32 38 20 3e
       -0.17798902 0.14435726 0.6935535 0.15646437
000360 fd 1d 89 3c 46 ba 05 3e f0 5e 7f 3e 59 1d 5d bd
       0.016737932 0.13059339 0.2493856 -0.053983066
000370 d4 5a 0f 3e 00 ba 48 bc 33 ab bf 3c d3 61 2a 3c
       0.13999492 -0.012251377 0.023397064 0.0103993
000380 4e 51 ec 3c f8 e0 18 be 93 0a 12 bc 9e 91 44 3d
       0.028847363 -0.14929569 -0.008913654 0.047990434
000390 17 ff e8 3c fc 59 d2 3d fd 53 dc bd 43 41 32 bd
       0.028441949 0.102710694 -0.10758207 -0.04351927
0003a0 2c a7 60 3d 26 92 54 3c 0b 30 3d 3d 48 f1 bb 3b
       0.054846928 0.012974298 0.046188395 0.00573555
0003b0 63 74 17 bd eb bd bb bf 86 71 92 3c e6 9c 83 bc
       -0.03697623 -1.4667333 0.017876398 -0.016066026
0003c0 3e 88 18 3d 3e 06 2d be 3f 46 8b 3c 6c b1 03 3e
       0.037239306 -0.16896912 0.01700127 0.1286065
0003d0 20 b4 a8 3d 7e aa 78 3c 06 2d ef be a6 10 f5 ba
       0.08237481 0.015177367 -0.46714038 -0.0018696978
0003e0 89 fc 76 3d c2 58 00 3e ae 8f f7 3d cd 48 6e bc
       0.06029943 0.12533858 0.120879516 -0.014543724
0003f0 2b 43 cd 3c 39 24 bb 3c 93 2a 12 3e 6a fa 16 3e
       0.025056442 0.02284442 0.14274053 0.14743963

linear_stack.2.bias f4 [400]
000000 de d0 e4 3d 8a ca 9e 3c 75 4f 0b 3e 62 0f 1d bd
       0.11172651 0.019383688 0.13604529 -0.03834475
000010 d8 a9 48 3e fd 57 3b 3e e4 3c 81 3e 65 fc 11 3e
       0.1959604 0.18295284 0.25241768 0.14256437
000020 04 86 5a 3e 77 10 65 3e cd d2 29 3e 6b d7 37 3e
       0.21340185 0.22369562 0.1658432 0.17953269
000030 74 1a 43 bd 3a 89 9a 3c f1 f6 6b 3e cd 04 32 3b
       -0.04763265 0.018864263 0.2304342 0.0027163506
000040 77 a2 82 3b d0 18 ee bc d6 98 7a 3d bf 58 dd bd
       0.0039866525 -0.029064566 0.061180912 -0.108079426
000050 1d 5a 39 3d 6f 83 35 bd b1 94 e1 3a bf 49 24 3d
       0.045251954 -0.044314798 0.0017210451 0.040109392
000060 af a0 33 3d 51 ae 49 bc 03 91 75 3e 8d b6 44 bd
       0.04385441 -0.012309627 0.23981099 -0.048025656
000070 62 35 62 bd 1d 27 a3 3c 5f 89 f9 3d 07 56 1d bd
       -0.05522669 0.019916112 0.121844046 -0.03841212
000080 09 3c 59 3e ec 63 5b 3e 98 10 60 3e 30 3f 54 3e
       0.21214308 0.21424836 0.2188133 0.20727229
000090 e5 28 81 3e c6 73 3e 3e a0 c0 69 3e 1b 9f 69 3e
       0.25226513 0.18598852 0.22827387 0.228146
0000a0 8e 8c c0 3d 12 0c 48 3e 46 c3 97 3d a7 cd 5c 3e
       0.09401809 0.19535854 0.07410292 0.21562825
0000b0 3f 67 63 3e 8d b6 37 bd 12 78 79 bb 00 60 b0 b8
       0.22207354 -0.04485183 -0.0038065952 -8.4102154e-05
0000c0 78 be 72 3e 01 31 98 3d d4 63 55 3e d9 d2 10 3e
       0.2370547 0.07431222 0.20838863 0.14142932
0000d0 81 56 2a bd 4f 68 63 3e 95 cb 4f bd da 18 2b 3e
       -0.041586403 0.2220776 -0.05073126 0.16708699
0000e0 42 7c 0a 3e f0 11 79 3e 1a ae 4c 3e b9 83 4d 3d
       0.13523963 0.24323249 0.1998829 0.05017445
0000f0 27 dc 8d 3e 8d 56 d2 3d 24 da 54 3e 0a 95 2a 3e
       0.27707025 0.102704145 0.20786339 0.16658416
000100 a4 42 2f bc 2e fc 7f 3e 28 15 1e 3e 84 6d 3a 3e
       -0.010697041 0.24998543 0.15437758 0.1820584
000110 da d7 18 3c 1a 11 4b 3e 3a c0 0c bc 3c 1c 07 3e
       0.009328807 0.19830742 -0.008590752 0.13194364
000120 d6 98 54 bd 90 cf 2f be a0 9f d1 bc 56 93 66 3e
       -0.05190357 -0.17169023 -0.02558881 0.22517142
000130 ee 37 0f bd 83 a7 74 3e 01 84 2f 3e 24 bd 6c 3e
       -0.034965448 0.23892026 0.17140199 0.23119026
000140 ee 97 dd 3d 18 68 4a bd c8 14 81 3d 3b 2b 52 3e
       0.10819994 -0.049415678 0.06302792 0.20524304
000150 af b8 f4 3d c3 fb 79 3e b0 a4 55 3e 9d e0 5e 3e
       0.11949288 0.24412446 0.20863605 0.2176537
000160 b7 77 10 3e 43 37 1d 3e 28 73 20 3e e6 12 01 3e
       0.14108168 0.15353112 0.15668929 0.12604865
000170 70 45 f3 3c 17 41 27 bd 11 14 68 3b a3 b5 45 3e
       0.029696196 -0.04083356 0.003541235 0.1930757
000180 67 17 58 3e 77 25 87 3e c0 a5 28 bc 1a b4 fa 3d
       0.21102677 0.2639577 -0.010293424 0.12241383
000190 f3 db bc bb db 93 c6 3d e1 aa 21 3e bb 3d 6f 3e
       -0.0057635247 0.0969617 0.15787841 0.23363392
0001a0 31 d9 30 3e 09 f5 8a 3e e2 53 5b 3e 77 68 08 3e
       0.17270352 0.27140072 0.21418718 0.133211
0001b0 66 60 db 3c fd 02 6b 3e fc b4 24 bd 87 d8 5a 3e
       0.026779365 0.22950359 -0.040211663 0.21371661
0001c0 6d 3b fc 3d 0d 74 7d 3e 2b 13 1f 3e 66 bd 6f 3d
       0.12316022 0.24751301 0.15534656 0.058530234
0001d0 56 01 1d 3e 29 0f ee 3d 85 91 ad 3d 96 a4 34 3e
       0.15332541 0.11623985 0.08475021 0.1764091
0001e0 80 ad a5 3c b2 57 1d 3e 60 2c 02 bd b5 89 7f 3e
       0.020224333 0.15365484 -0.0317806 0.24954875
0001f0 cd 80 aa 3d 2a 24 5a 3e dc 55 23 bd af 71 77 bd
       0.08325348 0.21302858 -0.039876804 -0.06041115
000200 7a 7c 6b bd ad 07 18 3c 6d 3b 74 3e c2 48 c1 bc
       -0.057491757 0.009279174 0.23850794 -0.023594264
000210 f7 51 40 3e 23 c2 73 3e cb 44 29 3e 58 1f 4a 3e
       0.18781267 0.23804526 0.16530149 0.19738519
000220 60 e9 0d be 47 53 47 3e b6 c2 29 3e 6a 03 ac 3c
       -0.13858557 0.19465362 0.16578183 0.020997722
000230 bb 80 1b bd 9c 1e d3 bc 01 83 61 3e f0 fc 58 bd
       -0.037964564 -0.025771432 0.2202263 -0.052975595
000240 74 d5 3b bd 51 77 88 3c 6e a9 1e 3d eb 52 b7 3d
       -0.04585786 0.016658457 0.0387358 0.08951362
000250 1a 71 9a 3d 11 3a 2d 3e db 50 89 3e 18 75 3d 3e
       0.07541104 0.16916682 0.268195 0.18501699
000260 28 be 16 3e bb ae 4a 3e 78 33 31 bd f0 53 70 bc
       0.14720976 0.19793217 -0.043261975 -0.01466845
000270 2d 82 26 3e 8d c3 f0 3c f6 1a 4f 3e 45 bc 6d 3e
       0.16260596 0.02939012 0.20225129 0.2321635
000280 a0 48 e8 bc ff 98 18 3e 18 66 53 bd 2e e7 28 3e
       -0.028354943 0.14902113 -0.051611036 0.16494438
000290 97 ae 0e bd f4 92 32 3e d6 84 30 3e 4f c0 32 bd
       -0.03483447 0.1743887 0.17238173 -0.04364043
0002a0 7f 7d 41 3e 58 4b 81 3e 3a 3a 7e bc 0b 73 26 3d
       0.18895529 0.25252795 -0.015516812 0.040637057
0002b0 1a e6 d2 3b 41 d8 73 3e 32 83 41 3e cf 0f 0b bd
       0.0064361217 0.23812963 0.18897703 -0.033950623
0002c0 a0 21 94 bb 9a 05 06 3d 1c 66 17 3e 67 19 c4 3a
       -0.00452061 0.032720186 0.14785045 0.0014961184
0002d0 b6 b6 b3 3d 1d dd 8f bd 43 ef b7 3d 33 24 93 bc
       0.08775084 -0.07024596 0.089811824 -0.017961597
0002e0 7d 40 0f 3e 0d 4d 87 3e c6 01 3b 3d ab ec e7 bd
       0.13989444 0.26425973 0.04565599 -0.11324438
0002f0 73 56 6e 3e 52 2e 84 3e c4 1c aa bc 97 06 3f 3e
       0.23275165 0.2581659 -0.02076567 0.18654858
000300 17 17 84 3d 09 c8 38 3e e3 fb 9f bc 17 6d f5 3d
       0.064497165 0.18045057 -0.019529289 0.11983698
000310 cd 95 b4 3b d7 d4 f5 ba 8e fb a1 bb fd 0a 33 bd
       0.0055110217 -0.0018755448 -0.0049433177 -0.04371165
000320 e0 19 49 3e 32 0d 18 3e 1e 64 d0 3b 0c 68 19 3e
       0.19638777 0.14848784 0.006359591 0.14981097
000330 c0 85 64 3e 15 9d 02 3e a2 70 77 3e f4 6a 8a 3e
       0.22316647 0.12755235 0.2416406 0.27034724
000340 1f 65 09 3e 39 43 80 3e f1 86 7d 3e 6c 37 0c 3c
       0.13417481 0.25051287 0.24758507 0.0085581355
000350 d4 0e 56 3e da 67 9a 3c 79 cf 31 3e 2f 3d 23 3e
       0.20904094 0.018848348 0.17364301 0.15941308
000360 cb ed b4 3d 26 c9 d3 3d a3 f4 ce 3d 43 68 86 3e
       0.08834418 0.103411004 0.101052545 0.2625142
000370 e9 19 27 3e f6 13 8f 3d ce f1 3b bd 17 c4 05 3e
       0.16318478 0.06986229 -0.0458849 0.13063084
000380 26 7d 86 3c ac 81 f0 3d 2d db 42 3d b2 c5 38 bd
       0.016417097 0.11743483 0.047572304 -0.045110412
000390 8b 23 f8 3b 8f 1b 2c bd 7d 9d 84 bc e5 bf 1c 3e
       0.0075725964 -0.04201847 -0.016188378 0.15307577
0003a0 30 67 2f 3e 69 97 4e 3e 31 d3 82 bc 08 66 4b bd
       0.17129207 0.20174946 -0.015969845 -0.04965785
0003b0 cf 20 71 3e 11 22 51 3e 0c a8 fb bb 80 6f f9 3d
       0.23547672 0.20423152 -0.007679945 0.1217947
0003c0 41 09 7d 3e 38 16 43 3e 58 89 09 bd 13 64 54 3c
       0.24710561 0.19051445 -0.033578247 0.012963313
0003d0 ea cd 7d 3e f9 1c f3 bc 93 c7 e8 bc 50 99 de bc
       0.24785581 -0.029676901 -0.028415477 -0.027172714
0003e0 b0 50 dd bc c3 28 1b 3e f4 e5 50 3e 9a b8 36 3c
       -0.027016014 0.15152268 0.2040022 0.011152411
0003f0 0e 3e 84 3e 25 b0 f5 bc 8d d2 00 3e 18 67 c2 3d
       0.25828594 -0.029991219 0.12580319 0.0949232

linear_stack.4.weight f4 [5, 400]
000000 3f 47 a9 3d dc 56 87 3e 5d 84 fe 3d 05 1a 92 3d
       0.08265542 0.26433456 0.1242759 0.07133869
000010 f9 c9 a6 3d 41 5d 45 3e c4 f5 14 3e d2 29 3b 3e
       0.08143992 0.19273855 0.14546877 0.18277672
000020 bc e2 78 3c 3d 4b ef 3d 82 d1 07 3e b9 5b ac 3d
       0.015190776 0.116842724 0.13263515 0.08415932
000030 13 41 3b 3e c3 11 b1 3c 87 17 2a 3e 4a e6 12 bd
       0.18286543 0.021614915 0.16610537 -0.035864152
000040 59 0c cc bc 31 d8 04 3d f4 8c 25 bd 17 5c 16 bd
       -0.024908232 0.03243274 -0.040417627 -0.036708917
000050 fd a7 30 3d b8 d5 42 3d 0e 78 f4 bc 15 a4 37 bc
       0.043128956 0.0475671 -0.029842403 -0.011208554
000060 e0 84 0f bc 0d a6 03 bd 97 20 42 3e da 84 43 3c
       -0.008759707 -0.03214078 0.18957745 0.01193353
000070 c8 ff 27 bd 7f 0e 24 3d cb 9c 7a 3e ff ed 49 bd
       -0.041015416 0.040052887 0.24473874 -0.049299236
000080 4c a2 3c 3e 2b a3 38 3e b3 c3 bf 3d 63 5f 03 3e
       0.18421286 0.18030994 0.093634985 0.12829356
000090 97 c0 2e 3e 72 71 41 3e 8e 90 60 3e ab a8 37 3e
       0.17065655 0.18890932 0.21930143 0.17935435
0000a0 a9 5b a9 3e 98 9c 20 3e 31 69 06 3c cb 00 1e 3e
       0.33077744 0.15684736 0.0082037905 0.1542999
0000b0 97 e3 24 3e 3a c8 c1 3c cd 3b 6a 3e 98 9c 31 3d
       0.16102444 0.023655046 0.22874375 0.04336223
0000c0 48 85 41 3e 44 c0 42 3e ae 1a 21 3e 68 c5 29 3e
       0.18898499 0.19018656 0.15732834 0.16579211
0000d0 07 27 31 3c 63 78 13 bd 1f 38 3a bd 70 4f 0b 3e
       0.0108125275 -0.03600348 -0.045463677 0.13604522
0000e0 23 25 4a be 4e 85 29 3e 13 e6 14 3e 41 2b a0 bc
       -0.19740729 0.16554758 0.14540891 -0.019551875
0000f0 67 fd 81 3e 22 c7 9a 3d 6e c4 b0 3e 99 1c a0 3d
       0.25388643 0.07557513 0.34524864 0.078179546
000100 78 e6 4d bb e9 18 0b 3e 94 ba 23 3e 1d f1 c8 3c
       -0.0031417888 0.13583721 0.15989143 0.024529034
000110 8a cb 88 3c 7e ea f9 3d f7 3d c2 bc 99 d3 c2 3d
       0.016698617 0.12202929 -0.023711188 0.09513015
000120 05 12 c7 3b b4 c3 bd 3e c7 8b 17 3d 44 a1 11 3e
       0.006075146 0.37063372 0.036998536 0.14221674
000130 d2 55 2d 3d c1 3f 05 3e f7 8b 34 3e 12 e2 2e 3e
       0.042318173 0.13012601 0.17631517 0.17078426
000140 67 67 4e 3e 70 76 bc 3c 2b 64 50 bd 26 f4 41 3e
       0.20156632 0.023005694 -0.050876778 0.18940791
000150 ca e5 87 3e 62 73 d1 3d 5c 77 14 bd ec 0c 9a 3d
       0.26542503 0.10227086 -0.036246642 0.07521996
000160 20 e5 27 3e ed 4a 6d bd d8 10 00 3e 4f 4c ed 3d
       0.16395998 -0.057932783 0.12506425 0.1158682
000170 1a a4 f1 3b 87 cf 1a bc 40 b9 00 bd 5e d3 1c 3e
       0.0073742988 -0.009448892 -0.03142667 0.15315005
000180 4b 9b 31 3e 07 b7 43 3e 2b 76 35 3d 16 01 6e 3d
       0.17344396 0.19112788 0.044302147 0.058106504
000190 c1 75 12 bd 5d 88 2d 3e 7a 9a f0 3d 72 e9 ef 3d
       -0.03575683 0.1694655 0.11748214 0.11714448
0001a0 bb b6 f5 3d 92 be 3b 3e 22 9c 57 3e 75 f0 f5 3d
       0.11997744 0.18334416 0.21055654 0.12008754
0001b0 1a 9d 0f bb 48 0f fc 3d 23 a5 c1 3c fb 7c 0a 3e
       -0.0021913708 0.12307602 0.023638314 0.13524239
0001c0 22 e9 09 3e 7a 96 90 3d c2 45 e8 3d 09 16 a2 3d
       0.1346784 0.07059951 0.1134143 0.07914359
0001d0 0b 62 19 3e 07 e4 a7 3d ff e2 0a 3e 22 a3 f4 3d
       0.14978807 0.0819779 0.13563155 0.119451776
0001e0 5a d1 c3 bc 6a f6 1a 3e 40 62 0f bd 6c 19 47 3e
       -0.023903538 0.15133062 -0.035005808 0.19443291
0001f0 97 36 3d 3e 39 fb 1c 3e 0a d2 21 3d f2 82 15 3d
       0.18477856 0.15330209 0.03950695 0.036501832
000200 80 4f cf bc 40 d2 80 3b a4 a2 46 3e 2c 0a 48 3d
       -0.025306463 0.0039313138 0.1939798 0.048837826
000210 8a e8 0a 3e 45 6f 06 3e 71 86 20 3e 6e 76 e0 3d
       0.13565269 0.13128383 0.15676285 0.10960089
000220 94 b8 b3 bb 6a 69 02 3e 61 3d 01 3e d7 71 4c bd
       -0.00548465 0.12735525 0.1262107 -0.049913254
000230 bd b7 e9 bc 48 9a 02 3d 05 8b 44 3e c1 40 96 3a
       -0.028529996 0.031885415 0.19193657 0.001146339
000240 b8 3e 5e 3c 28 cb 16 3d 07 5d 9e 3c 73 8e bb 3d
       0.013564758 0.03681484 0.019331468 0.091580294
000250 5e 30 4d bf f6 4b 0b 3e 30 49 15 3e e9 76 33 3e
       -0.8015193 0.13603196 0.145787 0.1752583
000260 3b ec 26 3e c4 68 2e 3e 02 7b 3a bd 04 0f 82 3c
       0.16301052 0.17032152 -0.045527466 0.0158763
000270 26 ee fb 3d b7 56 92 bc 28 d9 ce 3d 78 68 16 3e
       0.123012826 -0.017863614 0.10100013 0.14688289
000280 0f 47 34 3d f7 be 19 3e 05 56 a2 bb 69 37 e8 3d
       0.04401308 0.15014254 -0.004954102 0.11338694
000290 27 ba 36 3d 5e cb 14 3e af 90 de 3d 40 b3 a9 bb
       0.044611122 0.14530703 0.1086744 -0.005178839
0002a0 f4 1a eb 3d 1f 3f 0b 3e fa 38 0c bc f2 81 02 bd
       0.1147975 0.13598298 -0.008558506 -0.031862207
0002b0 cd 6f 2d 3d 30 17 0d 3e 85 30 32 3e fb 3e 1d 3d
       0.04234295 0.13778377 0.17401321 0.03839014
0002c0 bc 5c 93 3c 3a 81 46 3d 0f 2e 24 3c e7 22 39 3b
       0.017988555 0.048463084 0.010020747 0.0028249563
0002d0 d2 13 85 3e 62 e2 da bc 01 0a a7 3e 45 5a 00 3d
       0.25991684 -0.026719276 0.3262482 0.031336088
0002e0 79 87 1e 3e 9e 9b 0f 3e 4d 13 a5 3c 51 0e 0b bd
       0.15481366 0.14024207 0.020150805 -0.0339492
0002f0 58 02 18 3e dc 80 3d bd e0 53 5e 3c 03 f8 3f 3e
       0.14844644 -0.046265468 0.013569802 0.18746953
000300 71 f6 8b 3d 8f 01 1b 3e 40 a6 32 3c 72 26 0f 3e
       0.06834114 0.15137313 0.010903895 0.1397951
000310 f2 e3 2d bd 8d 76 30 bd 6d 85 2f be 77 84 30 3d
       -0.042453714 -0.04308181 -0.17140742 0.04309508
000320 dc 18 33 3e 57 73 ed 3d f0 2b 08 bd a8 e4 b2 3d
       0.17489952 0.11594265 -0.033245027 0.08735019
000330 06 27 c2 3d 09 b0 99 3d 76 c7 08 3e e7 6f 94 3d
       0.094800994 0.07504279 0.13357338 0.07247906
000340 a1 56 3b 3e d7 90 04 3c 10 18 13 3f 5b a0 26 3d
       0.18294765 0.008091173 0.5745859 0.04068027
000350 90 f2 00 3e 4d b2 c7 bc a2 e9 3a 3e b3 68 b2 3d
       0.1259253 -0.024377013 0.18253186 0.08711376
000360 1c 1e 15 be 1b 55 f8 3d d7 b5 cb 3d c8 1c 33 3e
       -0.14562267 0.121256076 0.099467926 0.17491448
000370 50 1f 0c 3e fd f9 ac 3d 84 b6 f1 3b d8 d3 af 3d
       0.1368382 0.08446119 0.007376494 0.08585328
000380 5a 4d 58 bc 19 da f9 3d 5a e9 e1 bc 77 fa 2a 3d
       -0.013202036 0.12199802 -0.027577091 0.04174277
000390 08 71 ef 3b a2 5d 5e 3d e3 c3 0f bd 63 b1 34 3e
       0.0073071755 0.054288514 -0.03509892 0.17645793
0003a0 18 dd f5 3d 9f d7 04 3e 59 e5 29 bd cd f7 cc 3c
       0.12005061 0.12972878 -0.04147849 0.025020504
0003b0 ff f4 42 3e 60 a3 c6 3e e6 55 ef 3b dd 1a c6 3d
       0.19038771 0.3879652 0.007303941 0.096730925
0003c0 be 9e 3e 3e 1d d3 bd 3d 2b 95 fe 3b 5d ac 1a bd
       0.18615243 0.09268782 0.007769247 -0.037762035
0003d0 1d 25 2e 3e 17 a5 cd bc 20 77 51 3c c0 4e c8 3b
       0.17006345 -0.025103135 0.012784749 0.0061129034
0003e0 bd 67 a4 bc dd 5d 2e 3e 8e 2b 8b 3d a7 38 fa bc
       -0.020068998 0.17027994 0.06795417 -0.030544592
0003f0 96 83 1c 3e 19 83 ad bc 6c ab 23 bd 86 db 03 3e
       0.15284571 -0.021180676 -0.039958403 0.1287671

linear_stack.4.bias f4 [5]
000000 c3 87 04 3e 8b d9 2b 3e 11 30 64 3e f1 b2 14 3e
       0.12942414 0.16782205 0.22283961 0.14521386
000010 d0 81 31 bd
       -0.04333669
