data/U3_new/model_UAV_0.pth (torch, 660400 bytes, 6 tensors)

linear_stack.0.weight f4 [400, 4]
000000 7a 5f 90 3e 79 80 97 be e7 df 0d 3e e9 74 ed 3e
       0.28197843 -0.29590204 0.13854943 0.46378258
000010 62 a8 f8 be 0d 03 d8 3e 00 67 22 be 46 10 0a 3f
       -0.48565966 0.42189828 -0.15859604 0.5393108
000020 71 dc 28 3e eb e6 c4 3d 65 87 ac 3e 10 2b 9f 3e
       0.16490342 0.096143566 0.33697048 0.31087542
000030 bf 3e 40 3e e8 9b 2c be 6d 83 68 3d 43 31 39 3e
       0.18773936 -0.16856349 0.056765962 0.18085198
000040 3c a5 18 3d 10 0a 86 bd 73 d8 e8 3e 19 62 81 3e
       0.037266955 -0.06544888 0.45477638 0.25270155
000050 08 ac 3e be 36 9d 9a be 70 a3 ab bd b0 d8 5c be
       -0.18620312 -0.30198067 -0.083807826 -0.21567035
000060 0c 4f ec bd f6 5c 1a bc 32 ee a2 3e d6 77 cf 3e
       -0.115385145 -0.009421578 0.31822354 0.40521115
000070 5d fd d3 be 99 ca a9 3e e0 3d 1f 3e 23 f1 1b 3f
       -0.41404238 0.33162382 0.15550947 0.6091482
000080 a4 90 d5 3e e8 ba 1c bf 4c 80 e8 be e5 cb 2e bf
       0.41711915 -0.61222696 -0.45410383 -0.6827987
000090 95 5d be 3e 4d 02 e5 bd 54 8c d6 3d 49 e7 31 bf
       0.37180772 -0.111820795 0.10475984 -0.6949354
0000a0 52 c9 01 3f 3b 12 4e be 34 49 d7 3e fe f1 f9 3d
       0.50697815 -0.20124142 0.42048037 0.122043595
0000b0 31 93 4b be 1d c9 be 3e e3 a7 b2 be 17 ba a1 3d
       -0.19880368 0.37262812 -0.34893712 0.07896822
0000c0 fc d7 13 be 00 88 60 bd 88 1d f6 be bc 1c 74 be
       -0.1443786 -0.0548172 -0.48069406 -0.23839086
0000d0 5e d3 54 3e 85 6e 0a be 2f 1c 14 3f e2 5f 48 3f
       0.20783755 -0.13518722 0.57855505 0.78271306
0000e0 2d 77 52 3b a5 26 a8 be 1a c1 2b 3f 07 00 05 bd
       0.0032114491 -0.32841983 0.67091525 -0.03247073
0000f0 c3 bd 97 be d5 d6 9e 3e 8a ca 98 3e ae 92 14 3f
       -0.29636964 0.3102328 0.29842025 0.58036315
000100 7f 35 55 be f2 cf a8 bc a3 88 42 3d a3 b0 d5 3e
       -0.20821188 -0.020606969 0.04749359 0.41736326
000110 58 e1 ba bf f0 72 ac 3d fe df 82 be 28 35 1a be
       -1.460002 0.0842036 -0.25561517 -0.1505934
000120 2a 44 e0 3d 3c 65 39 bd f1 8f 03 3e 9d bd f3 3d
       0.10950501 -0.04526256 0.12847878 0.119014
000130 68 74 81 3e 7c 4e a2 3e 77 e7 b1 be a7 c8 bf 3e
       0.25284123 0.31700504 -0.34746906 0.37457773
000140 24 d4 ba be b7 55 00 bf 6e 16 80 c0 09 1f cd 3e
       -0.36489975 -0.5013079 -4.002738 0.4006274
000150 8f 1d 9d 3e e6 11 ad be 89 88 68 3c 85 7e 39 3f
       0.30686614 -0.33802718 0.014192709 0.7245868
000160 3e 5e 91 bc 0f 2a 8e 3e 8c 19 1c 3e 43 df fd be
       -0.017745133 0.27766463 0.1524412 -0.49584398
000170 86 74 fb 3d 1b f9 dd 3d 0a 2d a1 be 2e 23 54 be
       0.122780845 0.10838529 -0.31479675 -0.20716545
000180 ce 0d 6f 3e 1b 32 19 3e f7 66 96 3c 5c 66 fe bc
       0.2334511 0.1496052 0.018359644 -0.031054668
000190 1a 26 93 3e bc e1 18 be 5b b6 a8 3e fa af bd 3e
       0.28740007 -0.14929861 0.32951626 0.37048322
0001a0 ab ee 9a bd 5b 3a 2e bf ae 20 40 3f 73 c5 28 3f
       -0.075650536 -0.68057793 0.75049865 0.65926284
0001b0 a6 6c ac 3e c9 04 9f 3d 23 ed 2d 3e e4 4f eb 3e
       0.33676642 0.077645846 0.16984992 0.4595939
0001c0 73 3b f4 3e 84 34 9b be ac 11 95 3c 22 54 4f 3f
       0.47701606 -0.30313504 0.018196903 0.8098775
0001d0 6c e1 b7 3e e8 00 98 3e a0 b8 ac be 02 02 ca be
       0.3591417 0.2968819 -0.33734608 -0.39454657
0001e0 d6 03 3b be 8e 80 02 3e 96 d2 f2 3e f0 b5 be be
       -0.18263182 0.12744352 0.4742629 -0.37248182
0001f0 e9 e8 ba 3e 1f 45 2d be 09 99 18 bf 86 3e 60 bf
       0.3650582 -0.16920899 -0.59608513 -0.87595403
000200 97 aa 7a 3e 81 70 d4 3e 42 45 be be 28 3a 79 3d
       0.24479137 0.41492084 -0.37162215 0.060846478
000210 d4 49 cc 3e 5e ea 95 3e 50 6e 8f 3e 42 f8 ca 3e
       0.39900076 0.2928037 0.2801385 0.3964253
000220 c5 db ce 3e 7e 9d 73 3e 90 20 54 be 1e 89 d0 be
       0.40402046 0.23790547 -0.20715547 -0.40729612
000230 5d 8b 87 bd 01 7c 54 bd f3 d6 85 be 97 3c db 3e
       -0.06618378 -0.05187607 -0.26140556 0.42819664
000240 b5 c4 22 3e a5 97 f1 bd 8a 20 78 3e 4f 36 d7 3e
       0.1589535 -0.11796502 0.24231163 0.42033622
000250 8d c3 9d 3e cc c5 a9 3e 56 7d 19 be f4 74 17 3f
       0.30813256 0.3315872 -0.14989218 0.5916283
000260 c0 c3 6c bd e0 b8 8c bc 20 a2 f1 be 08 c4 a4 be
       -0.05780387 -0.017177999 -0.47194004 -0.3218081
000270 5b 81 3b bd 12 c1 9a bd 4f e1 a5 3e 66 e2 1a be
       -0.04577766 -0.075563565 0.3239846 -0.15125427
000280 92 86 e9 be d8 b4 64 3e 66 2a 7d 3e da 67 45 3f
       -0.45610482 0.22334611 0.24723205 0.7711159
000290 50 ef 9f be 12 3a 0f 3e 6c 4f f3 be 91 74 a9 3d
       -0.31237268 0.13986996 -0.47521532 0.082741864
0002a0 38 dc 54 be d9 ed 88 bc 6a 48 44 bd bf 45 10 3f
       -0.20787132 -0.016714977 -0.047920622 0.56356424
0002b0 8c b2 85 3d be 5d 99 3d 19 ae f2 3e 90 a0 19 3f
       0.06528196 0.07488583 0.4739845 0.60010624
0002c0 62 a4 7f 3e 13 65 2f bc 6f 32 ac be ed cb 69 3f
       0.24965051 -0.01070525 -0.33632228 0.9132679
0002d0 50 08 00 be 40 92 25 bd 32 8b dc be f0 44 ca bd
       -0.12503171 -0.040422678 -0.43074948 -0.0987643
0002e0 66 4c ac be 5a a7 f8 3e 0b a8 df be ac cd e9 be
       -0.33652037 0.4856518 -0.43682894 -0.45664728
0002f0 91 93 b4 bc ba 8f d4 be f8 0f a2 bf 5a 77 87 bf
       -0.022043021 -0.41515905 -1.2661123 -1.0583298
000300 dc 9c 64 be 9c 4e 85 3d e2 8e 9b 3e 6b 82 b7 be
       -0.22325462 0.06509134 0.30382448 -0.3584169
000310 13 fd 57 3e 82 5e 8f 3e 0d c7 01 3f 7a 1a d3 be
       0.21092634 0.2800179 0.5069435 -0.41231138
000320 d5 57 14 3e f5 4f aa bf 2e 6a a8 3f d1 1e c7 3e
       0.1448663 -1.3305651 1.3157403 0.388907
000330 5a 68 9d 3e 52 78 9a bb 8e 65 a5 bc cf 05 6c 3d
       0.30743676 -0.0047140503 -0.020190027 0.057622727
000340 2d bb ba 3d 30 1d 5d 3e ce 83 c0 3d df 1d 82 3e
       0.09117732 0.21593165 0.0940014 0.25413415
000350 bd 51 0d bf 6a 98 a4 3e 88 62 89 3e c6 d5 a9 3e
       -0.5520285 0.32147533 0.26832986 0.3317091
000360 f3 6a cc 3e 1f 76 8e be 4e a9 93 be 70 54 5e 3f
       0.39925346 -0.27824494 -0.28840107 0.8684759
000370 39 d0 0c bf 5e 2d d0 3e f9 6b 0d bf 06 1e 13 bf
       -0.5500522 0.40659612 -0.5524288 -0.5746769
000380 9b 72 93 3e 7c 20 36 be 19 c1 e6 bd c9 b0 5c 3f
       0.28798375 -0.1778583 -0.11267299 0.8620725
000390 04 56 ae 3e e6 f6 e4 3e e8 33 e6 3b 82 46 9c be
       0.3405 0.4471962 0.0070252307 -0.30522543
0003a0 38 ff 0a 3f 6b 4a 6a bb 51 a6 06 3e f5 b3 dd 3e
       0.5429568 -0.0035749923 0.13149382 0.4330136
0003b0 9e b6 99 be 0d 0d a6 3e 6c 43 e9 3e f8 7f 09 bf
       -0.30022138 0.32431832 0.4555925 -0.5371089
0003c0 76 45 d2 be c0 65 33 bd 94 0d 57 3e 00 42 6d bc
       -0.4106862 -0.04379821 0.21001273 -0.014481068
0003d0 41 52 1e bf 5a dc fc ba 01 db a0 bf 6d d2 6c bf
       -0.6184426 -0.0019291744 -1.2566835 -0.92508584
0003e0 ab 3b ae be 54 7d c9 3e f3 cb c5 3e 8a b1 ab bd
       -0.34029898 0.3935343 0.38632163 -0.08383472
0003f0 ae a2 f9 bb 2f 70 15 3e d3 00 5d 3e c8 87 48 bd
       -0.00761827 0.14593576 0.21582346 -0.048957616

linear_stack.0.bias f4 [400]
000000 4c 42 5d 3e 37 45 b8 3d 58 02 1c bf 34 fe 47 3f
       0.21607322 0.08997577 -0.60941076 0.7812226
000010 9b 4f 20 3f 50 16 8a be d6 14 44 3f 5f 5e 37 3f
       0.6262147 -0.26970148 0.76594293 0.71628374
000020 03 1b 10 3d 6b 61 10 3e 65 aa 48 3f 73 3e 36 bf
       0.03518201 0.14099662 0.78385 -0.7118904
000030 38 6c a0 bd 42 0e de bd 2a 68 30 3f fb de c1 3e
       -0.07833141 -0.10842563 0.6890894 0.37865433
000040 9e 4f 03 3f 64 9b 2b 3f 25 24 71 bd 6d 18 30 bf
       0.5129336 0.6703398 -0.05887236 -0.6878727
000050 2b 45 3c 3e ce d8 88 3e 64 6a ff 3e d8 85 09 3f
       0.1838576 0.2672791 0.49885857 0.53719854
000060 ec af f2 be b8 c9 80 3c 3d b2 20 3f 27 56 c2 3e
       -0.47399843 0.015721187 0.6277197 0.37956354
000070 dd bf 64 3e 10 2f ee 3e 1a 1f 06 3f e7 ae 58 bf
       0.22338815 0.4652028 0.5239121 -0.8464188
000080 7a ed 45 3e f8 45 65 3e 4e ae 2f bf b4 ca 00 3f
       0.19328871 0.22389972 -0.6862534 0.503093
000090 c7 96 93 3e 2e 2d 26 3f d6 59 f4 be dd 80 71 3f
       0.2882597 0.6491269 -0.4772479 0.94337255
0000a0 b1 ab 16 bf 0e 11 e0 3e 55 17 3e 3f 0c b6 1e 3e
       -0.5885573 0.43763012 0.7425435 0.15499133
0000b0 1d 3b b8 be e8 01 aa bd 68 26 e4 be d0 24 fb 3e
       -0.359826 -0.08301145 -0.44560552 0.49051523
0000c0 39 5c f3 3e 5d 89 b3 3e 89 78 d6 bc eb 81 09 3f
       0.47531298 0.35065737 -0.026180523 0.53713864
0000d0 88 a9 39 3f b9 ee 75 3d 56 25 d2 3e a8 69 bd 36
       0.7252431 0.060042117 0.4104411 5.644939e-06
0000e0 ef 66 0b 3f 08 85 44 bf 73 08 36 bf 08 e2 01 3d
       0.5445394 -0.7676549 -0.7110664 0.0317097
0000f0 f2 b3 d7 be 91 10 4e 3f db 31 3e 3f b1 03 8e be
       -0.42129475 0.8049403 0.74294823 -0.2773719
000100 ae 5f 22 3e b9 c0 76 3e 68 ed 0d bf 58 a4 0f 3e
       0.15856811 0.24096955 -0.5544038 0.14027536
000110 c7 4e c4 3e e5 f4 2b 3f d8 1b 03 bf 9f ec b5 3e
       0.38341352 0.67170554 -0.5121436 0.3553209
000120 8c b2 6e bf 2d 64 38 3e 00 0a 58 bc 48 7f 55 be
       -0.9324119 0.18006964 -0.013185978 -0.20849335
000130 fe 44 38 3f 59 c3 1a 3f ac 9f 46 be ca b8 3a 3e
       0.71980274 0.60454327 -0.19396847 0.18234554
000140 00 ec 1c be 4b 4e 3c 3e 1d 36 08 3f 76 12 13 3f
       -0.15324402 0.18389241 0.5320757 0.57450044
000150 ca cf ea be 5d 46 e1 3e 30 2a 9a be 24 0e d1 be
       -0.45861655 0.43998995 -0.30110312 -0.408311
000160 d5 d3 44 3f c2 c5 44 be 44 8d 8f be e2 3e c0 3e
       0.7688573 -0.19216064 -0.28037465 0.37547976
000170 a6 1f 7e be 7a 52 ea be 45 00 62 be 74 4b 58 be
       -0.2481676 -0.4576605 -0.22070415 -0.21122533
000180 89 e6 b0 3d c6 ff a8 be ca 4c 11 bf a2 e7 03 3f
       0.08637721 -0.3300764 -0.56757796 0.5152532
000190 a9 cc 2b bf 90 f0 77 bd ef 9e 37 3f b6 ff 8e bd
       -0.6710916 -0.060532153 0.7172689 -0.06982367
0001a0 90 7b bf be 17 92 d5 3e 8e 22 3d 3f f1 dd 04 3f
       -0.37398958 0.4171302 0.7388085 0.51901156
0001b0 ea bd 86 3e 22 0a f8 3e aa f6 96 3e 1e 2b a9 3e
       0.26316768 0.4844523 0.29485065 0.33040708
0001c0 5f 1a 06 3f 1b c4 e2 3e bc 55 b7 be a0 f3 b8 3e
       0.5238399 0.44290242 -0.35807598 0.3612337
0001d0 57 e8 27 3f 46 9d ee 3e e6 b9 a9 3e 59 a9 3a 3f
       0.655889 0.46604365 0.33149642 0.72914654
0001e0 e7 08 22 3f 30 3c ed 3e a4 71 3b 3f 79 a6 dc be
       0.63294834 0.46334982 0.73220277 -0.4309576
0001f0 e4 f0 92 3e 3f 93 40 3f 10 0e b2 bd 7b 35 26 bf
       0.2869941 0.7522468 -0.086940885 -0.64925355
000200 fb cb 3d 3d cc 9b d3 be 30 20 5a be b7 99 1f 3f
       0.04633711 -0.413298 -0.21301341 0.62343925
000210 4c 1c 3c be 33 75 98 be c6 b7 f4 3e 54 6a 77 3e
       -0.1837017 -0.29776916 0.47796458 0.24161655
000220 58 c6 94 3e bf 81 60 bf b8 c8 89 3e 72 5d 2a bf
       0.29057574 -0.87697977 0.2691095 -0.66548836
000230 17 14 04 3f 56 d6 3c bf e9 52 24 bf 8d 89 3e 3f
       0.51593155 -0.7376455 -0.6418901 0.74428636
000240 de b7 d5 be a5 13 f3 3d 0e 2f 80 3e 7a 82 39 3f
       -0.41741842 0.11868981 0.250359 0.72464716
000250 ac a3 c7 3e b7 c6 14 3f 29 ac df 3b 16 29 49 3e
       0.3899206 0.58115715 0.006825943 0.1964458
000260 ff 7c 22 3f e5 8a f4 3e 2c 5f b9 3e 69 f5 ee be
       0.6347198 0.47762218 0.36205423 -0.46671608
000270 81 e7 e8 be 42 89 b1 3e ce 1c c0 be 6c ef 49 3f
       -0.45489123 0.34675032 -0.37521976 0.78880954
000280 05 b8 44 3f a2 53 c0 be 66 00 a5 be ee 53 43 3f
       0.7684329 -0.37563807 -0.32226866 0.7629994
000290 cb aa bc be 21 be 09 bf f9 e3 00 bf ea cd b9 3e
       -0.36849055 -0.5380574 -0.5034786 0.36289912
0002a0 bd 93 0a 3f 93 ab e1 3e df 08 26 3f af 20 06 3f
       0.5413168 0.44076213 0.64857286 0.5239362
0002b0 90 a8 39 3f b6 1b 32 3f 61 4a d1 3d 09 51 53 3d
       0.7252283 0.69573534 0.10219265 0.051590953
0002c0 37 f5 44 3f 0c 6f 15 3e cd 60 1c 3f 42 01 df 3e
       0.7693667 0.14593142 0.61085206 0.43555647
0002d0 51 2b d8 3e c7 9f 7e be 32 41 aa be fe 56 07 3f
       0.42220548 -0.24865638 -0.33252865 0.52867115
0002e0 99 07 51 3f 1c 4a cb be bd 47 8b bd 70 37 76 3e
       0.8165222 -0.39704978 -0.06800792 0.24044585
0002f0 22 a3 e0 3e 6c 1e c1 3d b0 79 60 be cb 22 38 3f
       0.4387446 0.09429631 -0.2192142 0.7192809
000300 58 4f b7 be 6a b4 35 3f 30 d3 97 3e b1 75 1b 3f
       -0.35802722 0.70978415 0.2965331 0.6072646
000310 6e 39 0e 3f 5a 5f 8d 3e 1a b5 24 3f 0b 3e 70 3e
       0.5555638 0.2761181 0.6433884 0.23461168
000320 26 64 15 3f 92 2e 02 3f f6 e2 8e be ec 7e 1d 3f
       0.5835594 0.5085231 -0.27907532 0.6152179
000330 6e 92 13 bf 2e 7c ec 3e 2c 81 a3 be 7c 29 23 3e
       -0.5764531 0.46188492 -0.31934488 0.15933794
000340 d0 11 2b 3e 7b 7e d6 3e 77 eb 6e 3e 0c ef e4 3e
       0.16706014 0.41893372 0.2333201 0.44713628
000350 6b 56 03 3f 60 28 ea be a1 59 8b 3f 67 a7 f0 be
       0.5130374 -0.4573393 1.0886728 -0.47002718
000360 46 fc be be 87 8e e5 3e 31 97 40 3f f0 5b 8c 3f
       -0.37301844 0.44835302 0.752307 1.0965557
000370 37 5d bc be e0 33 7a 3e 6d e2 ab be aa 18 fa 3e
       -0.36789867 0.24433851 -0.33571187 0.48846942
000380 41 3b 88 3e 84 26 23 3f 02 4b 21 bf b3 31 00 3f
       0.26607707 0.63730645 -0.6300508 0.50075835
000390 c4 4e 3a 3f d3 51 1e bf a4 1d d6 3e 7c b6 4b be
       0.72776437 -0.61843604 0.4181949 -0.19893831
0003a0 67 74 5a be f0 3e 3a 3f 12 4e 5d bf 02 ac 21 3e
       -0.21333466 0.72752285 -0.8644725 0.15788272
0003b0 89 86 cf 3e ae 05 0c 3f 50 a0 de be e8 4e df be
       0.4053233 0.54696167 -0.43481684 -0.43614888
0003c0 69 46 14 3f 97 01 22 bf e7 9c 9b 3e fe e9 a1 be
       0.5791994 -0.63283676 0.30393144 -0.31623834
0003d0 b8 f0 29 3e 75 b0 3d 3f d6 94 d4 be 0d 63 61 bb
       0.16595733 0.7409738 -0.41519803 -0.0034391314
0003e0 66 4c 30 bf 4a c2 06 3f 2d 0f 62 3f a2 f1 07 bf
       -0.68866575 0.5264021 0.88304406 -0.5310308
0003f0 23 63 12 3f af 24 0b 3f 3a ae 26 bf 2b 94 2a 3f
       0.5718252 0.5435285 -0.651096 0.66632336

linear_stack.2.weight f4 [400, 400]
000000 2f cd 98 3d f4 19 3b bb 33 9d a0 be af e2 40 3e
       0.07461011 -0.0028549405 -0.31369933 0.18836473
000010 99 46 d2 3d e0 58 49 3d 94 17 11 3e 28 dd de 3d
       0.10267372 0.049157023 0.1416915 0.10882026
000020 c2 57 41 be 2f c5 29 3d 75 9c fb 3d 41 ae 4d be
       -0.18881133 0.041447815 0.12285701 -0.20086004
000030 3a b5 40 3c 9b 62 59 bd e6 b6 b0 3e 62 8e 19 3d
       0.011761958 -0.053072553 0.3451454 0.037489302
000040 bd d6 b9 3e 80 48 d3 3e b8 1b aa 3c cd 20 84 bd
       0.36296645 0.4126625 0.02076517 -0.06451569
000050 17 66 fb be 02 0f 65 3c 88 f1 f7 3c a7 1b df 3d
       -0.49101326 0.013980629 0.030266538 0.10893946
000060 4a 12 8d bc 2b bb c1 bc 78 a5 16 3c 15 23 ab 3c
       -0.017220635 -0.023648819 0.009194724 0.020890752
000070 30 04 21 bd a5 9c 2a 3d 00 3d bb 3d c0 2f 88 be
       -0.039310634 0.041653294 0.09142494 -0.2659893
000080 3e 6d f5 3c d9 69 4a 3b b3 c4 76 3c 2d 8e 96 3e
       0.029959317 0.0030885844 0.015061545 0.29405347
000090 84 7b 4b 3d 87 a9 b3 3d ad e4 27 3d cf df 85 3e
       0.04967834 0.08772569 0.040989567 0.26147315
0000a0 e4 ff 8c be c0 d6 26 3e e0 ad 83 3e 1f ad c6 3c
       -0.2753898 0.16292858 0.25718594 0.024252472
0000b0 c5 75 96 3c 40 d2 3a bd 9f 12 d2 bd cb 14 37 bf
       0.018366704 -0.045610666 -0.10257458 -0.715161
0000c0 05 ec a2 3c 98 5f 80 3d 95 cb 98 3b e9 a6 e1 3d
       0.019887934 0.06268233 0.0046629407 0.11018164
0000d0 8b 78 9b 3d 66 80 28 bd c4 d4 cf 3c eb 09 b2 bd
       0.07591351 -0.041138075 0.02537001 -0.08693298
0000e0 4a df 06 3d dc 85 be 3c a6 ec 8e bb 1c e6 28 3d
       0.03292779 0.023257188 -0.004361707 0.041235074
0000f0 af 0c 3f bd 79 86 76 3f 75 43 2e 3d e6 7e 36 3d
       -0.046642955 0.9629894 0.0425448 0.044554614
000100 8b 4c c6 ba ad 12 f4 3c 45 bd d4 bd 71 cd 8f 3c
       -0.0015129013 0.029794062 -0.10387663 0.017554017
000110 8a ab 4e 3a bd 4a 5a 3e 72 08 5e bd 14 dd b4 3e
       0.00078838377 0.21317573 -0.054207273 0.3532492
000120 c5 d2 0a bf 85 ff 84 3d ea d9 13 bd 72 4a 31 3d
       -0.5422786 0.06494049 -0.03609649 0.043283887
000130 18 aa 9d 3e 23 33 b1 3d 20 2b 1d bc 92 b0 11 3d
       0.30793834 0.08652332 -0.009592801 0.03556878
000140 0d 04 2b bd fa 9f 0d 3e 75 cd 3b 3f ef b7 59 3e
       -0.04175191 0.13830557 0.7336038 0.21261571
000150 17 aa ac bc d7 b8 aa 3e c7 83 08 3d a0 79 65 bc
       -0.021077199 0.33344147 0.033328798 -0.014006048
000160 d5 52 68 3e 7e 23 82 bc ad 5a 08 bd 12 c9 9c 3c
       0.22687848 -0.015886065 -0.0332896 0.019138847
000170 ba 7d 48 be 00 c1 63 3c f0 0d d3 bc a0 78 8d bc
       -0.19579211 0.013900995 -0.025763482 -0.017269433
000180 7f 3a 83 3d 5a 4e 07 3c 5f f7 90 be e7 d4 08 3d
       0.064076416 0.008258427 -0.2831373 0.033406164
000190 a7 0b ec bd e3 38 bf 3c 17 fc fa 3d b7 88 8b be
       -0.1152566 0.023342555 0.122551136 -0.27252743
0001a0 3a 06 05 be 74 9a 49 3d 8c aa aa 3d c9 01 99 bf
       -0.12990656 0.049219564 0.083333105 -1.195367
0001b0 a3 9c 48 3d ad 61 60 3d 24 af 14 3d ee d9 62 3c
       0.048977505 0.05478065 0.03629984 0.013845904
0001c0 df f9 be 3d 4e 12 6a 3c 00 9b 9d ba ed 6e ed bc
       0.09325003 0.014286591 -0.0012024343 -0.028983558
0001d0 5b 71 0c 3e 09 c3 27 bf e2 23 62 3d e5 15 1f 3d
       0.13715117 -0.65531975 0.05521 0.03883924
0001e0 97 67 d5 3d a9 66 a6 3d 32 f9 c1 3d 6e 48 42 be
       0.10420149 0.081250496 0.09471358 -0.18972942
0001f0 a2 ce 0e 3e 41 4e 14 bf 4d 17 88 3c 3f 7f 96 be
       0.13946012 -0.57931906 0.016612673 -0.29393956
000200 73 65 7c 3c c3 8d 3c bd ea d5 48 bd 1b dc 73 3d
       0.015405047 -0.046033632 -0.04903213 0.05953608
000210 80 8f cc 3b e4 37 df 3a b6 97 86 3d 76 65 b1 bd
       0.0062426925 0.0017030207 0.06571905 -0.0866193
000220 1d 1a 94 3d 4f bc 30 be 33 d7 dd 3d 11 ec 90 bd
       0.07231543 -0.17259334 0.108320616 -0.07076276
000230 31 dc a1 bf 9d 56 3b be ee a2 1d be b4 61 f5 3d
       -1.2645322 -0.18294759 -0.15394184 0.11981526
000240 af be 72 be 56 93 8a 3d e6 ef 2f 3d 50 da d0 3d
       -0.23705553 0.06766383 0.042953394 0.1019789
000250 6f 3b 92 3d 32 3c 4b 3e ad 02 28 3b cc cc 19 3f
       0.07140242 0.19847181 0.002563636 0.6007812
000260 0d 7c 94 3d 4b 21 fa 3d 86 21 b7 3d 56 37 95 be
       0.07250223 0.122133814 0.08941941 -0.2914378
000270 cc d0 60 3d c4 c2 b6 3d d0 05 20 3d 9c 36 77 3e
       0.054886624 0.08923867 0.039068043 0.24141926
000280 01 0b 1b 3e fb 45 82 ba 2d d6 d3 bc bc a5 ad 3e
       0.15140916 -0.0009939069 -0.025858963 0.33915508
000290 c3 96 10 bd 2c 41 29 bd 99 c2 2e bd 5e c8 cf 3e
       -0.035300028 -0.04132192 -0.04266605 0.40582556
0002a0 37 43 85 3e f1 c3 10 bf 41 b8 4f 3d c6 12 31 3e
       0.26027843 -0.5654898 0.050712828 0.17292318
0002b0 fe fc 57 bf a0 d6 96 3d ee a1 46 3d c2 c4 6d 3f
       -0.8437041 0.07365155 0.048494272 0.92878354
0002c0 62 83 32 3e 1e 89 65 3b 40 36 f9 3c 91 41 db 3d
       0.17432931 0.0035024355 0.030421376 0.10705865
0002d0 a2 1a dd ba ce 64 38 bc 10 d5 f0 bf e7 1c 67 3e
       -0.0016868899 -0.011254502 -1.8815022 0.22569619
0002e0 12 51 98 3d 60 c4 20 bd ed 89 9c bd e9 f4 af 3c
       0.07437338 -0.039249778 -0.07643495 0.021479087
0002f0 62 dc 20 bd 07 e9 80 3c 00 18 45 3c 40 ea 29 3e
       -0.039272673 0.015736116 0.012029648 0.16593266
000300 a4 f8 c1 bd 7e ac 7e 3d 19 6a c0 bd 06 ab ac 3d
       -0.094712526 0.06217622 -0.093952365 0.08431058
000310 bd 23 92 bf 25 08 71 3d 1f e4 dc 3d 66 da 25 bd
       -1.1417156 0.058845658 0.10785698 -0.040491484
000320 63 a4 0e 3d cc d5 12 3e 33 02 cc 3c c3 49 90 3d
       0.03482474 0.1433937 0.024903392 0.07045319
000330 0a a0 2a 3d e8 4e 39 3c 41 95 27 3e 2e b7 4c 3f
       0.04165653 0.011310317 0.1636553 0.7996701
000340 31 74 9f 3e 7b 6b 28 3e b8 46 1a bd 36 ab a8 3d
       0.31143335 0.1644725 -0.0376651 0.08235781
000350 d1 38 e8 3d c0 2d f7 3c 7d b9 88 3e cc fc 84 bd
       0.11338962 0.030173182 0.26704016 -0.0649353
000360 b4 77 5f bd 38 21 c2 3d d6 59 84 3d ef 4f 98 be
       -0.054557517 0.09478992 0.06462447 -0.29748484
000370 91 4c 3b bf 23 51 0e 3d 4c 93 05 bc 31 d5 62 3d
       -0.73163706 0.034745347 -0.008152794 0.055379096
000380 0c 80 3a 3d 78 c5 11 3f 02 a4 ff 3c 55 63 cd 3d
       0.04553227 0.5694194 0.031206135 0.10028712
000390 41 f2 41 3d d5 09 4b bd 90 7d ea 3d 70 e2 3b bd
       0.047350172 -0.049569923 0.114497304 -0.045870245
0003a0 df 57 7e bc 3a ad 01 3e 83 98 78 bf eb b5 62 3d
       -0.01552388 0.12663737 -0.97107714 0.05534927
0003b0 b2 1f 98 3d 66 34 68 3d 3b 3b 06 bd b5 45 a8 bc
       0.074279204 0.056690596 -0.03277133 -0.020541051
0003c0 c4 ff c1 be e5 23 4b 3d af 4a 10 3d e7 ac 74 bc
       -0.37890446 0.04959478 0.035227474 -0.014933801
0003d0 5e a5 7a 3d f1 d0 87 3d ad aa 4c 3d 61 d4 36 bf
       0.061192863 0.06631649 0.049967457 -0.71417814
0003e0 66 9e 49 be 9b f1 a6 3d c1 da 1d 3f 50 b8 1f bd
       -0.1968933 0.08151551 0.61661917 -0.038994133
0003f0 a2 e3 3d 3e ad f8 17 3d 20 bf 3e be b6 86 5b 3f
       0.18543866 0.03710239 -0.18627596 0.8575243

linear_stack.2.bias f4 [400]
000000 c0 17 87 3e ee 45 43 3e 54 73 56 3e 5a eb 65 3c
       0.26385307 0.19069645 0.20942432 0.014033163
000010 bc 6a 0a bc 24 99 a7 3d a3 f3 8b 3e 6e cf 9f 3e
       -0.008448299 0.08183506 0.27334318 0.31212944
000020 ab c7 2a 3e 47 9a 88 3e 59 ee 54 bc 2b e6 df bc
       0.1667773 0.26680204 -0.01299628 -0.027331432
000030 83 83 24 bd 82 4c 48 3e b6 d4 8d 3c 3d 5f c9 bc
       -0.04016448 0.19560435 0.017313343 -0.024581546
000040 cf 45 37 3e b0 77 28 bd 5a 9e 57 3e 29 f7 0d 3e
       0.17897724 -0.041129768 0.210565 0.13863815
000050 f9 c2 0c bd ce cd 07 3e e0 6b 4f 3e d8 17 ea 3c
       -0.034365628 0.13262102 0.20255995 0.028575823
000060 bb 81 f9 3d b3 cb 4b bd 17 55 77 bc 7d 74 ec 3d
       0.12182947 -0.04975481 -0.015095971 0.11545656
000070 67 2f 8f 3e 1f 59 7d 3e cf 6a 74 3e 23 a0 96 bc
       0.27965853 0.24741028 0.23868869 -0.018386906
000080 0d e3 84 3e 1a f0 51 3e 02 5d 26 3e 1c 86 37 3b
       0.25954476 0.20501748 0.16246417 0.002800352
000090 15 03 6b 3e c5 a5 52 3e 85 64 44 bd 20 81 63 3b
       0.22950394 0.20571049 -0.047947425 0.0034714416
0000a0 ce 5c 78 3e 06 de 2e 3e 5d 7c 82 3c 92 5f 3c 3e
       0.24254152 0.17076883 0.015928442 0.18395832
0000b0 01 8d e2 3b 0a 5a 89 bc 36 e8 45 3e 5d fe 22 3e
       0.0069137816 -0.016766567 0.19326863 0.15917344
0000c0 3b 71 31 3b 3c 26 88 3b 6e 50 1f 3e 04 56 74 3e
       0.0027075547 0.0041549485 0.15558025 0.23860937
0000d0 6f 84 08 bd b5 f1 c2 bc 63 c7 5b 3e 50 da 00 3c
       -0.033329424 -0.023796896 0.21462779 0.00786455
0000e0 c9 e1 d0 3c c8 7e f7 bc 5e 95 6c 3e ae ce d6 3d
       0.025498288 -0.030211821 0.23103854 0.1048864
0000f0 6b cf 3d 3e bb 80 48 3e f5 f0 2b 3c 04 18 46 bd
       0.18536155 0.19580357 0.01049446 -0.048362747
000100 6e 22 e9 3c 5a 1a 0d 3e 4d 18 f6 3d f8 29 01 bd
       0.0284588 0.13779584 0.12016354 -0.031534165
000110 53 49 9d bc 6f 71 02 bd 32 42 7b 3e 9f 90 82 3e
       -0.019200003 -0.03184646 0.2453697 0.25500962
000120 89 f2 09 3c 89 38 0b bd 6f 3c 84 3e 49 23 23 3d
       0.008419641 -0.033989463 0.25827357 0.039828572
000130 a2 57 2b 3e 0c 95 59 3e 33 47 94 3e 94 b9 06 3e
       0.16732648 0.21248263 0.2896057 0.1315673
000140 b4 d5 a0 3a 1e c0 65 3e ec 9d 51 bd 96 ea 33 3e
       0.001227072 0.22436568 -0.051175997 0.17569956
000150 18 e9 5d 3e 35 6a 04 3d 80 61 45 3d eb f8 d1 3c
       0.2167095 0.03232785 0.048188686 0.025631389
000160 df cc 82 3e c3 1c 04 3e b5 3a 32 3c 48 fe 47 3e
       0.2554693 0.12901597 0.010878255 0.19530594
000170 d8 e6 70 bd 69 81 18 3e 33 2d 82 3e ad b1 5f 3e
       -0.0588139 0.14893116 0.2542511 0.21845122
000180 d8 14 48 3e d8 c4 46 3c c9 6d 89 3e 60 81 8f 3b
       0.19539201 0.012131892 0.26841572 0.0043794364
000190 98 71 47 3e a8 63 5b 3e 3b 1d 91 bc d3 2b 09 bc
       0.19476926 0.21424735 -0.017714133 -0.008372265
0001a0 88 9b 19 bd 79 5e 53 3e 13 d8 34 3e 58 38 85 3e
       -0.03750184 0.20641507 0.17660551 0.2601955
0001b0 b5 42 6f 3e 2d 20 41 3e 69 c0 64 3e 25 9f 88 3e
       0.2336529 0.1885993 0.22339024 0.26683918
0001c0 26 c4 2a 3c 28 97 63 3e ed 31 20 bd f5 4e 82 3e
       0.010422742 0.2222563 -0.039110113 0.25450864
0001d0 35 79 c5 bb 6c bb 96 3e 04 0b 29 bd 61 88 67 be
       -0.006026412 0.29439867 -0.04127027 -0.22610618
0001e0 c0 d8 8f 3e 8d 37 bc 3c 4a 3d 7d 3e d8 56 82 3e
       0.28095055 0.022975707 0.24730411 0.25456882
0001f0 7a 82 42 bd 9c ef c1 bc 98 5c 7e 3e e4 0d 13 bd
       -0.047487713 -0.023673825 0.24840009 -0.03590192
000200 2d 50 7a 3e 4e 44 9e bc 78 15 fe 3d cb b7 53 3e
       0.24444647 -0.01931968 0.124064386 0.2067558
000210 df a5 72 3e 71 37 03 3f 4d 56 33 3e 85 48 46 3c
       0.23696087 0.5125647 0.1751339 0.012102251
000220 22 31 70 3e dd 4e 28 3e a5 be 66 3e 6e 81 45 3e
       0.23456243 0.16436334 0.22533663 0.19287655
000230 f3 42 9e bb 5e 83 87 3c bd c0 2c 3e cd c8 d5 ba
       -0.0048297583 0.016542133 0.16870399 -0.0016310454
000240 81 5d f8 3c 85 1b 2d bd c4 4a 3d bd 05 5c 42 3e
       0.030318024 -0.042262573 -0.04621388 0.18980415
000250 cd ee f5 3d 2b de 84 3e e6 70 0c 3e 46 1b d8 3c
       0.12008438 0.2595075 0.13714942 0.026380192
000260 65 ba 37 bc d5 19 1b 3e 31 65 b5 3c fb ed 48 3e
       -0.0112138735 0.15146573 0.022142978 0.19622032
000270 30 f4 65 3e ca 77 49 3d 2b 29 69 3e e3 28 83 3e
       0.22456431 0.049186505 0.2276961 0.25617132
000280 be d0 1d bd 3c 31 83 3e 11 7e 03 bd 1c 44 d3 3c
       -0.03852915 0.256235 -0.03210265 0.025789313
000290 d3 64 97 3e 69 b3 b3 bc 66 b0 5c 3e e9 a2 22 bc
       0.2956911 -0.021936135 0.21551666 -0.009926536
0002a0 80 2d 2f 3c 05 f0 5c 3e e0 0a 61 3e e9 c0 21 bd
       0.010692 0.21575935 0.21976805 -0.039490614
0002b0 46 c8 67 3e da eb d7 3c 5c f0 8c 3e 4d 69 2c bc
       0.22634992 0.02635758 0.2752713 -0.010523153
0002c0 3f fa 98 39 de ba 52 3e 07 06 7f 3e 43 c0 37 3e
       0.00029178147 0.20579097 0.24904643 0.17944436
0002d0 5d 66 17 bd 6a 54 60 3e 0e 14 83 3c 0b f4 93 3e
       -0.036962856 0.21907201 0.016000774 0.28897128
0002e0 1b 71 10 3d 9d 66 25 3e d1 e8 8c 3e 06 f1 2a 3d
       0.035264116 0.16152425 0.27521375 0.041733764
0002f0 a5 bb 43 bc 13 51 06 3c 09 c4 32 3e 4a 69 65 3e
       -0.011946593 0.008198041 0.17457594 0.22403446
000300 56 73 5d 3e dd 46 28 3d 08 02 72 3e 38 84 9d 3d
       0.21626028 0.041083205 0.23633587 0.07691234
000310 4a 88 23 3d 58 32 bc bb 1b bd 80 3e 13 b8 58 3e
       0.039924897 -0.005743306 0.25144276 0.21163969
000320 bd da 52 3e 6c 70 60 3c b9 9b 51 3e 9f 22 bc 3d
       0.20591255 0.013698678 0.2046956 0.09186291
000330 97 7e 30 bd ca cf cc bc 4a e1 87 3e 20 f8 82 3e
       -0.043089475 -0.025001425 0.2653907 0.2557993
000340 76 11 50 3e d0 b8 d7 bc b7 c1 da 3c c7 a2 e7 3d
       0.20319161 -0.026333243 0.026703699 0.11310344
000350 26 8c 1d 3e 46 e4 41 3e 07 fc 2c bd 36 21 7b 3e
       0.15385494 0.18934736 -0.04223254 0.24524388
000360 cd 8a 92 3e 96 14 5f bc 2c 64 53 39 ed 6d d1 3c
       0.28621522 -0.013615748 0.00020159845 0.025565112
000370 78 67 05 bf e0 15 33 3e 08 0f 71 3e a4 10 3f 3e
       -0.52111006 0.17488813 0.2354089 0.18658692
000380 de bd 1b bd 20 1b 41 bd 66 8c 1a 3e 1a 32 76 3e
       -0.03802287 -0.04714501 0.1509262 0.2404255
000390 db aa 43 3e e0 7f 7d 3e 6f e1 43 bd 2e 16 74 3b
       0.19108145 0.24755812 -0.047822412 0.0037244665
0003a0 44 ff 22 bc b3 7b b8 3c 08 22 3c 3c 9d ac 3d 3e
       -0.009948555 0.022519922 0.011482723 0.18522878
0003b0 4d fe 82 3e 46 77 70 3e 68 64 39 3e 87 b2 11 3c
       0.2558464 0.23482999 0.18104708 0.008892662
0003c0 cd b5 2d bc f7 ce 1b bd 9a d7 8c bc 6b d1 81 3e
       -0.010602427 -0.038039174 -0.01719265 0.25355086
0003d0 26 ed 39 bd 0f 3b 8e 3e 3c 69 7e 3e 20 89 1e 3d
       -0.045392178 0.27779433 0.24844831 0.03870499
0003e0 3c 17 45 3e 08 b7 89 3e c1 ae 02 bc 0c 33 68 3e
       0.19247144 0.26897454 -0.007976235 0.22675723
0003f0 e2 36 3b 3e f0 9c 8a 3e 16 53 72 3b b3 3a 88 3e
       0.18282655 0.2707286 0.0036975793 0.26607284

linear_stack.4.weight f4 [5, 400]
000000 39 61 d9 3d c5 eb 80 bb 7d 9f 8e 3d 10 01 03 3d
       0.10614247 -0.003934356 0.06964014 0.031983435
000010 f8 a8 22 bd db d8 9a 3e fe b0 45 3e b2 9d 8b 3d
       -0.039711922 0.30243573 0.19305798 0.06817187
000020 2d 90 d7 3d b1 1e 7f 3d 2f dc da bc c1 3e 6e 3c
       0.10525546 0.06228513 -0.02671632 0.014541329
000030 6c c4 34 bd 83 64 c6 3d 00 a8 3d b9 aa 0b 10 bd
       -0.044132635 0.0968714 -0.0001808703 -0.035167374
000040 4d 1d de 3d 07 b2 5e bc af 01 e5 3d 53 46 d1 3d
       0.108454324 -0.01359225 0.11181962 0.102184914
000050 fe 89 5d ba dd b4 70 3d ca c8 2e 3e b2 09 7e bc
       -0.00084510434 0.058766235 0.17068782 -0.015505241
000060 81 6c 54 3e 7a 8f f6 bc 22 02 cb bb 04 0a c7 3c
       0.20744516 -0.030097712 -0.0061953226 0.024296768
000070 5f ef 0a 3e 22 cb 4c 3e ce 39 09 3e bd 50 ff 3c
       0.13567875 0.19999364 0.13400957 0.031166429
000080 8a a1 e7 3d 42 9f 0e 3e 5f 9b e9 3d f1 e2 97 bc
       0.11310108 0.1392794 0.11406588 -0.018540831
000090 c6 e4 6a 3e cd b6 0e 3e 47 4f f9 bc 82 8b 18 bc
       0.22938833 0.1393692 -0.03043331 -0.009310605
0000a0 56 69 75 3e 6c b1 08 3e e0 95 c9 bc 26 4b d2 3c
       0.23965964 0.13348931 -0.024607599 0.0256706
0000b0 10 de 15 bd ff fa 1a 3d 13 f1 59 3e 3d 96 fc 3d
       -0.03658873 0.037837025 0.21283369 0.12333343
0000c0 ae 87 3a bd 7a 16 f4 3c c8 ec bd 3e 15 54 c8 3d
       -0.04553955 0.029795874 0.37094712 0.097816624
0000d0 33 8f 7b bb 17 cd 7c 3c 15 b9 1e 3e 51 82 03 bd
       -0.0038384914 0.015429757 0.1550029 -0.0321067
0000e0 e4 38 40 bd a2 c3 69 bb c9 56 40 3e c6 41 87 3d
       -0.046929255 -0.0035669585 0.18783106 0.06604342
0000f0 d3 6e dd 3d 1b 26 09 3d d7 0f 9a 3c ed 1b c1 bc
       0.10812154 0.033483606 0.018806381 -0.023572886
000100 6d 1a 9b 3c 13 5e f0 bc 68 e0 08 3e 1e 47 01 bd
       0.0189335 -0.029341733 0.13366854 -0.031561963
000110 53 64 3e 3d ef d9 4a bc b0 27 10 3e 6f 10 c2 3d
       0.046482395 -0.012381061 0.1407764 0.09475791
000120 97 2b ce 3a f6 8d f3 ba 75 ef b6 3d 15 9a 27 3c
       0.0015729544 -0.0018581736 0.089323916 0.010229607
000130 a1 2b ba bd 3d 91 91 3d 27 b6 04 be 4a dc fe 3c
       -0.09090353 0.0710778 -0.1296011 0.031110901
000140 d6 f6 92 3b 5d df b0 3d 39 c7 23 bc e1 c3 7e 3e
       0.0044849915 0.08636353 -0.009996229 0.2487941
000150 99 5f 25 3e ec 87 f4 3c d3 36 05 3d 52 61 d2 bc
       0.16149749 0.029849969 0.032522988 -0.025681172
000160 3f 5e 48 3e ee 78 df 3d 52 10 fc 3c 6a 10 95 3d
       0.19567202 0.109117374 0.0307695 0.07278521
000170 d5 60 10 be 38 95 e5 3c ee bc 48 3e ad 2f e8 3d
       -0.14099438 0.028025255 0.19603321 0.113372184
000180 7d 85 6a 3d b0 a1 90 ba d5 e6 0c 3e 42 e7 da bc
       0.05725621 -0.0011034515 0.1375993 -0.0267216
000190 dc 8e 91 3d a6 d6 ce 3d 53 58 32 3d 23 97 06 3d
       0.071073264 0.10099535 0.043541264 0.03285898
0001a0 8b 0f 8f 3c e0 25 07 3e 12 c5 f8 3c 31 35 9d 3d
       0.017463466 0.13198042 0.030367408 0.07676161
0001b0 4e 95 2a bd 8d 1f a0 3c 2e f8 c2 3d 5b 2a 00 3e
       -0.041646294 0.019546295 0.09519993 0.12516157
0001c0 17 24 c5 bb 7c 26 31 3e 07 73 8b 3c 55 f6 36 3e
       -0.006016265 0.17299837 0.017022623 0.17867406
0001d0 ba 47 c1 bc 55 5d 5c be 97 7e 1a 3d 0a 05 1a bf
       -0.023593772 -0.21519978 0.03771838 -0.6016394
0001e0 94 a7 21 3e 57 c8 a5 bc fc d2 9b 3d 72 2a 29 3e
       0.15786582 -0.020237131 0.076086015 0.16520098
0001f0 5f 1d 5d bc 5a 10 21 bc 6d 1e 7b 3d 87 5f 2e bd
       -0.013495772 -0.009830559 0.061308313 -0.04257157
000200 b5 ca e1 3d 7d cc d1 3c 08 55 22 bc a0 21 02 3e
       0.110249914 0.025610203 -0.009907968 0.1270814
000210 0c cc 23 3e 51 3e f3 be af f8 5f 3d c3 4b 84 bc
       0.15995806 -0.4750848 0.054680523 -0.016149407
000220 13 34 38 3e 9d ba f2 3c 79 cd b1 3d 5b 6d fd 3d
       0.17988615 0.02963 0.08681769 0.123743735
000230 b0 8b 19 bd 93 91 6f 3a b8 94 12 3e ad 14 d0 3c
       -0.037486732 0.0009138819 0.14314544 0.025400484
000240 59 5f 02 bd 23 02 eb bc 90 a4 f8 bc bd 36 9c 3d
       -0.03182921 -0.028687542 -0.030351907 0.07627628
000250 28 41 33 3c 8a 4e fb 3d ae e0 51 3d 3a 7f ed bc
       0.010940827 0.122708395 0.051239662 -0.02899133
000260 01 7c ca 3e 5c bc b6 3d 33 da 2b 3d 11 85 08 3e
       0.39547732 0.089226454 0.041956138 0.13332011
000270 0b 24 ba 3d ca 24 d3 bc 02 c3 ba 3d e4 75 d8 3d
       0.09088906 -0.025774378 0.09119226 0.10569361
000280 79 64 15 bd f4 82 18 3e c6 b0 27 bd 46 cb 24 bd
       -0.03647277 0.14893705 -0.04094007 -0.04023292
000290 15 49 d1 3d 8b 3e d4 3b 2d fd 15 3e 7a da 80 bc
       0.102190174 0.0064771823 0.1464736 -0.015729178
0002a0 c7 a3 40 3c 7e 66 2c 3e 29 60 1c 3e d3 05 9c 3c
       0.011757798 0.16835973 0.15271057 0.019045746
0002b0 7a 3c ed 3d cd 0b 2d bd c5 8e b1 be 9d d8 a2 bc
       0.115838006 -0.042247582 -0.34679237 -0.01987868
0002c0 18 19 12 bd 4f 50 8c 3d f6 64 5d 3e ee d0 f1 3d
       -0.035668463 0.06851255 0.21620545 0.11807428
0002d0 e0 7d 08 3c 79 4f 40 3e 33 c3 b0 ba b8 86 18 3e
       0.008330792 0.18780316 -0.0013485908 0.14895141
0002e0 ad b3 cf 3c 2d 46 0c 3e ed 0b 06 3e 06 00 0e 3d
       0.02535423 0.13698645 0.13090487 0.03466799
0002f0 3f e0 17 bd c3 46 b6 bc 5e 46 2e 3e c5 d4 08 3e
       -0.037079092 -0.022250539 0.1701903 0.13362415
000300 ab 84 b1 3d 9f 14 e5 bc da c1 ff 3d c3 37 b4 3d
       0.086678825 -0.027963934 0.12488146 0.08799698
000310 f3 f3 0c 3d 6d c7 cc 3c 30 c7 6b 3e 82 c1 14 3e
       0.034412336 0.024997437 0.23025203 0.14526942
000320 25 6e a1 3d 67 52 13 3d 35 2b da 3d fe 35 8e bd
       0.078823365 0.035967257 0.10652772 -0.06943892
000330 18 55 3a 3d b7 44 a6 3c c1 cd 2a 3e d5 21 4c 3e
       0.045491308 0.020296438 0.16680051 0.19934781
000340 33 83 35 3e f3 df b9 bc 3b 48 4c 3d 45 27 85 3c
       0.1772583 -0.022689795 0.04987357 0.016254077
000350 3f a4 91 3c 46 61 e1 3d 76 c9 9d bc 35 8e d8 3d
       0.017778514 0.110048816 -0.019261103 0.10573999
000360 67 03 27 3e 61 69 b4 bc 0c db e1 bc 6c ce dc ba
       0.16309892 -0.022022905 -0.02757027 -0.0016846186
000370 07 c8 0a bf 82 da 6f 3d 2b 20 9c bc 89 aa e5 3c
       -0.5421147 0.058557995 -0.019058308 0.028035419
000380 1b 8b c2 3c cd d1 dc 3c 9c 98 d3 bd 4b 65 3f 3e
       0.023747971 0.02695551 -0.10331842 0.18690984
000390 19 6e f2 3d 0f 3f 20 3e c0 06 e7 3c 06 11 20 bd
       0.11837406 0.15649055 0.02820146 -0.039078735
0003a0 c6 9f ef 3b cd db 2a 3c f1 b2 02 bc 29 15 59 3d
       0.0073127476 0.010428381 -0.007977233 0.052998696
0003b0 e8 44 6c 3e d9 a4 b2 3d 0c 9d 39 3e 20 90 62 bc
       0.2307316 0.087228484 0.18126315 -0.013828307
0003c0 a7 e8 98 3c 2d 81 36 3c ca 95 a6 bc 75 5c f0 3d
       0.018665625 0.011139196 -0.020335097 0.11736385
0003d0 36 d2 c3 3c 34 7c e9 3d a8 c7 12 3e 83 26 08 bd
       0.023903947 0.11400643 0.14333975 -0.033239853
0003e0 69 a8 9d 3d 55 c0 09 3e 15 07 3b be b7 9c 45 3e
       0.07698137 0.13452275 -0.1826442 0.19298063
0003f0 57 19 23 3e be 70 d8 3d 94 e2 a3 3c 34 32 26 3e
       0.15927635 0.10568379 0.020005502 0.16230088

linear_stack.4.bias f4 [5]
000000 aa 4d 53 3e 7f 7f f5 3d af c8 6e 3e 49 6b 4d 3e
       0.20635095 0.119872086 0.23318742 0.20060457
000010 ec 85 cd 3d
       0.10035309
