data/U1_new/model_UAV_1.pth (torch, 660400 bytes, 6 tensors)

linear_stack.0.weight f4 [400, 4]
000000 01 b0 8d bc 5c d2 d4 3e be 95 97 3e 24 ba cf 3d
       -0.01729584 0.4156674 0.29606432 0.101429254
000010 19 8f 02 be 48 79 aa 3e 7b ec bb bf 5c bd 3a bf
       -0.127499 0.33295655 -1.4681543 -0.7294519
000020 51 6b e0 3e bd 88 a3 3e bb e7 13 3f 18 53 89 be
       0.43831876 0.3194026 0.5777547 -0.26821208
000030 43 71 d4 3e a1 25 7e 3d 7c f1 23 3e f7 76 11 be
       0.41492662 0.062047604 0.16010088 -0.14205538
000040 65 aa 9f 3d 70 0f 42 3e c0 ab 5f be 5b 44 99 be
       0.07796172 0.18951201 -0.21842861 -0.29934964
000050 40 95 a0 3e ef 35 5a 3e 9b 53 c5 3e 34 65 4b 3d
       0.3136387 0.21309637 0.38540348 0.04965706
000060 f3 55 4d be 6a 81 8d 3e 90 9a 09 3d 06 0c d8 3e
       -0.20052318 0.27637798 0.033594668 0.42196673
000070 66 ff a9 be 55 c0 c5 3e a7 49 42 bf 60 23 4a bf
       -0.33202666 0.386233 -0.75893635 -0.7896023
000080 b2 e5 ae 3e af e8 56 3e 46 7e e2 be d1 5f 8b be
       0.3415962 0.20987199 -0.44236964 -0.2722154
000090 9f 85 2d 3c 63 e3 6f be dc 26 f2 bc b3 3c 98 3f
       0.01059094 -0.23426585 -0.029559545 1.1893524
0000a0 8b 1c f5 3d 38 cb 93 3e d3 b5 ca 3d fb 35 92 be
       0.11968335 0.2886598 0.098979615 -0.2855681
0000b0 2b 58 69 bf 49 1a a9 bd a7 0f 9c 3f d3 e8 9a 3f
       -0.9115016 -0.082569666 1.2192277 1.2102302
0000c0 b6 62 76 be 2a 33 8a 3e af 6b 07 be 6f a9 80 be
       -0.24061093 0.2699216 -0.13224672 -0.25129268
0000d0 3b 6f 8c 3e dd 51 d7 be d6 ec 92 3e 63 90 14 3f
       0.27428612 -0.42054644 0.28696316 0.58032817
0000e0 27 c3 76 be f9 8c 89 bd 9a b1 44 3d 3e 37 b9 3e
       -0.24097882 -0.067163415 0.048020937 0.3617496
0000f0 00 5c d5 bc 80 51 37 be 98 13 da bd ee d8 98 be
       -0.026044846 -0.17902184 -0.106482685 -0.29853004
000100 60 f0 4b be 00 8c 5f 3b 00 dd 72 bd 80 e7 72 3c
       -0.19915915 0.0034110546 -0.059292793 0.014825702
000110 5c d4 3b bf ae d5 d3 3d 09 b9 33 3f 26 62 11 be
       -0.7337091 0.103434905 0.70204216 -0.14197597
000120 d2 1e f9 be c8 ba d1 bd 88 01 95 3e 20 57 c6 3d
       -0.48656327 -0.10240704 0.2910273 0.096845865
000130 76 f8 1e bf ff e8 61 bd e8 ea 1b 3f 53 ac 3c bf
       -0.6209787 -0.055153843 0.60905313 -0.73700446
000140 d9 94 12 3d ad 98 99 3d 05 57 0b 3f 9e 85 b6 bd
       0.035786483 0.07499824 0.54429656 -0.08912204
000150 67 aa a8 3e e5 4d 54 be 65 9f 99 3e 32 ea 73 3e
       0.32942507 -0.2073284 0.3000442 0.23819807
000160 b3 f2 55 bf b5 cc 9d bd 8d 39 0b 3f 4b a8 38 bf
       -0.83573455 -0.077050604 0.5438469 -0.72131795
000170 56 26 00 3e e8 2d e5 3d 92 80 38 3e 7d f3 35 3f
       0.12514624 0.111903965 0.18017796 0.7107466
000180 a5 93 10 3f c1 97 03 3e 4d 3d 08 be 36 e3 a8 3e
       0.5647529 0.12850858 -0.13304634 0.32985848
000190 c1 57 2d 3e 4e db 35 3e b8 9e 22 be 1a a1 4f bd
       0.16928007 0.1775944 -0.15880859 -0.050690748
0001a0 e4 b3 98 bd 31 16 da 3e ff 4e 1e be 22 25 db be
       -0.074561864 0.42595056 -0.15459822 -0.42801768
0001b0 ae b2 ba 3e a4 17 1f be 8f e6 2f 3f 95 bf c6 3e
       0.36464447 -0.15536362 0.6871118 0.3881804
0001c0 16 ca 6b 3e 7b ad 9b bd d0 5d 09 3d 56 6d 1e 3e
       0.23026308 -0.07601448 0.033536732 0.15471396
0001d0 62 38 96 be 34 47 51 3b 6b 7a 92 3e 4e 8a 7f be
       -0.29339892 0.003193331 0.28609022 -0.24955103
0001e0 a4 9f de 3e cf 8f 84 3e 72 fb d7 3d c1 9e 89 3d
       0.4348117 0.25890967 0.10546006 0.06719733
0001f0 6b 65 d8 3d 61 bd a0 3d 80 bc 57 3e a9 42 f1 3e
       0.10566219 0.07848621 0.21068001 0.4712117
000200 c2 4e 90 3e 84 bf 17 bd a4 a2 e9 be a3 d4 e3 3e
       0.28185087 -0.037047878 -0.45631897 0.44498166
000210 21 5a 84 be 6d ff 43 3e f2 df be 3e 3b 35 01 3f
       -0.25850013 0.19140406 0.37280232 0.5047185
000220 09 8a a9 be 0e 62 b7 3e 89 5d f9 be d3 21 3b bf
       -0.33113125 0.35816997 -0.48704174 -0.73098487
000230 21 91 16 bc a1 5c dc 3e 0a 0a 80 bb a3 8a 18 3e
       -0.009189875 0.4303942 -0.0039074467 0.14896636
000240 1f 41 f1 3d ae e4 28 bf 85 d3 74 3f 69 48 23 3e
       0.11779999 -0.6597394 0.95635253 0.15945591
000250 40 a2 76 3c 7a 9b db be 34 56 fb be a0 e4 80 3c
       0.015053332 -0.42892057 -0.49089205 0.015734017
000260 40 c8 8b be dc e0 a9 be bc c7 d3 be 90 ac 98 be
       -0.27301216 -0.33179367 -0.41363323 -0.29819155
000270 a0 ad 19 3d e3 58 9d bd 9c 55 bf 3e 78 b4 f1 bf
       0.037519097 -0.076829694 0.37370002 -1.88832
000280 65 2a cb 3e 38 02 9d be 9f e5 07 3f 3f 39 c2 3e
       0.39680782 -0.30665755 0.5308475 0.379343
000290 b7 c5 a4 3e 9f 22 b2 3e 72 4b 4a 3e 46 b1 43 be
       0.32182094 0.3479204 0.19755343 -0.19110593
0002a0 72 0b ce be 14 37 fe 3e 7a a7 94 3e 4a 35 37 be
       -0.40243107 0.49651396 0.29034024 -0.17891422
0002b0 00 71 e4 be 50 0e b0 be 48 cd dc 3e f2 5d e6 be
       -0.44617462 -0.3438592 0.43125367 -0.4499355
0002c0 99 88 5a bf 76 ac 0b be 20 cc ee 3e 01 f1 6f bf
       -0.8536468 -0.13640007 0.4664011 -0.9372712
0002d0 f7 8e d4 3d 26 96 e4 3e 02 09 17 3e 60 5c 80 be
       0.10378831 0.44645804 0.1474953 -0.25070477
0002e0 0b 5e a4 3e cf ab 8e 3e 53 ed 12 be e6 2c 85 be
       0.32103 0.27865455 -0.14348345 -0.26010817
0002f0 a6 84 a3 3e e0 55 29 be e4 5d 81 bd 1b ce 12 bf
       0.3193714 -0.16536665 -0.06316736 -0.5734574
000300 2b 7a 4f 3e 81 82 a4 3e c7 bc 79 3e 5b 9c be be
       0.20261447 0.32130817 0.24388419 -0.37228665
000310 bc cc 09 3e 89 1d 88 3e 8e 01 a6 3d c3 41 e8 3e
       0.13457006 0.26585034 0.08105765 0.45362672
000320 0f 86 01 bf 4a 5c 9a 3d 62 57 70 3f 9b cc 9d 3e
       -0.5059518 0.07537134 0.93883336 0.30820164
000330 6a ac 89 be 26 d0 dc be 18 18 fa 3e c0 e4 96 3d
       -0.26889354 -0.43127555 0.48846507 0.07367849
000340 c4 ac 24 3e 8f 4b ad 3e f1 f7 8c be d1 46 a2 be
       0.1608153 0.3384671 -0.27532914 -0.31694654
000350 57 15 5b 3e 3c 0b a3 bd ad 74 c4 bd 86 01 0a 3f
       0.21394859 -0.07961127 -0.09592567 0.53908575
000360 85 1b b7 3e 8d e4 89 3e cb cc 5d 3d fd 1d 27 3f
       0.35763183 0.26932183 0.054150384 0.65280133
000370 51 bd 18 3f 93 e8 ca 3d 8e 2b ad be 3b 82 d3 3d
       0.59663874 0.09907641 -0.33822292 0.10327574
000380 42 19 c8 3e 9b d8 fa 3d e4 09 f8 3e 42 93 cd be
       0.3908177 0.122483455 0.48445046 -0.4015141
000390 2f 51 87 3c 58 a6 7a bc 16 f7 33 3f 89 a7 dd 3e
       0.016518204 -0.0152984485 0.702989 0.43291882
0003a0 ed 01 78 3e 1d f9 2f 3e 69 04 ed be e2 6f b0 be
       0.24219485 0.17184873 -0.46292427 -0.3446036
0003b0 8a d7 27 be 19 e4 85 3e 3f af c7 be 9f ea 86 be
       -0.16390815 0.26150587 -0.3900089 -0.26350877
0003c0 b9 cc 7a be 2d 73 c9 3e 88 99 a2 be 66 95 c0 bd
       -0.24492158 0.39345685 -0.3175776 -0.094034955
0003d0 f8 0e 21 bf 18 68 de 3e 39 98 92 bf 82 93 ca 3e
       -0.62913465 0.43438792 -1.1452705 0.39565665
0003e0 c0 67 55 bf 3a 5d d4 bd 6c 6d 9f 3f b7 1e 35 3f
       -0.83361435 -0.10369344 1.2455268 0.7074999
0003f0 ef be 7a bf 17 e4 7b bf 51 a0 84 bf 54 b0 0c 40
       -0.9794759 -0.9839491 -1.0361425 2.1982622

linear_stack.0.bias f4 [400]
000000 7b 23 08 be 2c 35 6f bf 9c 0b 9a be 57 3d e5 be
       -0.13294785 -0.9344051 -0.30086982 -0.4477336
000010 48 96 0f bf 42 f6 28 3f 84 d8 0b be fd 4e 54 bf
       -0.56088686 0.6600076 -0.13656813 -0.82933027
000020 a0 8c 4e 3f 96 57 14 3f 7b 9f b1 3e cd cb 0d 3f
       0.80683327 0.57946146 0.34691986 0.553891
000030 2f 71 1d bf 38 56 b2 3e b3 63 4a 3f 40 ac 1a be
       -0.6150083 0.34831405 0.7905838 -0.1510477
000040 c0 22 59 be 80 52 8c 3e d8 65 9f be 59 44 0d 3f
       -0.21204662 0.27406693 -0.31132388 0.55182415
000050 c0 e5 33 3a 74 63 09 3f 57 1c 47 3f d9 3a db bd
       0.00068625435 0.5366738 0.7777762 -0.10704584
000060 7b 6f 16 3f 37 e2 4e 3f 0e 25 05 3f fa e0 a9 be
       0.58763856 0.80813926 0.52009666 -0.33179456
000070 18 ef fd bd 49 6b 42 3f b4 3f 5c bd 1c 9b 04 bf
       -0.12399119 0.75944954 -0.05377169 -0.5179918
000080 8d 7e 1e bf 52 d8 00 be e9 e1 1c bf 0a 1e e3 3e
       -0.6191185 -0.1258252 -0.6128221 0.44358855
000090 38 be ce 3e 14 ef 0d be 0c f3 11 be a6 aa 64 3f
       0.403795 -0.13860732 -0.14252871 0.8932289
0000a0 ba 10 8d 3d a9 e0 7e 3e 4c e7 e8 3e 4e b1 a5 be
       0.06887956 0.24890389 0.45488966 -0.32361835
0000b0 af fe 85 3f 36 53 30 3f 5f c9 89 be 96 ba d0 3e
       1.0468348 0.6887697 -0.26911446 0.40767354
0000c0 2a da 01 3f 5a 70 56 3f 35 73 1e 3e d4 89 2b be
       0.50723517 0.83765185 0.15473635 -0.16751796
0000d0 d5 fb 8b be a9 c5 c2 be ac 70 e6 bc ed be e9 3e
       -0.2734057 -0.38041428 -0.028129898 0.45653477
0000e0 c3 92 2e 3f d0 01 46 3f 5a 11 3c bf cf 7a 4b bf
       0.6819269 0.77346516 -0.73463976 -0.79484266
0000f0 04 9d 05 be cf 7c 40 be 46 76 19 3f c1 e7 61 3f
       -0.13048178 -0.1879761 0.59946096 0.88244253
000100 88 f0 ea bd 6c 8e be 3e c8 e0 dc be 80 74 d5 3e
       -0.11471659 0.37218034 -0.43140244 0.41690445
000110 e1 18 87 3f 57 f0 42 3f a0 09 22 3f 3e 6c a8 be
       1.0554467 0.7614798 0.63295937 -0.32895082
000120 d6 34 cf 3e f2 ca f4 3e 20 b9 a9 3d 01 8d 08 3f
       0.40469998 0.47811085 0.08287263 0.53340155
000130 86 9a 90 3e 36 62 42 bf ea 6a 39 bf 82 a4 c2 3e
       0.28242892 -0.7593111 -0.7242876 0.38016135
000140 9a 5e 6a 3f 83 b9 e9 bb 7a e8 d0 3e 68 01 2f be
       0.915506 -0.0071327104 0.40802366 -0.1709038
000150 3a 47 4a 3f 12 bd 39 3b cd fb 3e bf c0 f1 56 bd
       0.79014933 0.0028341454 -0.7460297 -0.052476645
000160 4b 51 c2 3e a8 a8 4a 3f e9 bb d2 3e 0e 64 ec be
       0.37952647 0.791636 0.4115899 -0.46170086
000170 bd f0 c4 3d 2f 13 7d 3f ac 44 c4 3e a9 6c 37 3f
       0.0961623 0.98857397 0.38333642 0.7165018
000180 cc a5 22 3f 58 03 bc be a7 d6 02 3f 23 8a 53 bf
       0.63534236 -0.367213 0.51108783 -0.82632655
000190 50 a3 cd bd f5 2d 74 3f da e6 80 bf d2 d1 16 3f
       -0.10040915 0.95382625 -1.007045 0.5891391
0001a0 90 4d c1 3b d8 f5 8a be 87 2a 0f 3f 02 9d f7 3e
       0.0058991387 -0.2714069 0.55924267 0.48361975
0001b0 48 20 7a be 13 73 85 be 57 a6 8a 3e 92 41 12 3f
       -0.24426377 -0.26064357 0.27080032 0.571313
0001c0 0f 14 8c bc 23 ca b4 be cd bc 29 3f 2a 3c 1b bf
       -0.017099408 -0.35310468 0.6630371 -0.6063868
0001d0 fe 9c 0a 3f 3e f4 aa be 82 de 83 3f ef 9d ef be
       0.541458 -0.33389467 1.0302279 -0.4680018
0001e0 a7 ef b3 3e 95 2b c0 3e 74 16 0f 3f be f8 35 bf
       0.35143778 0.3753325 0.55893636 -0.71082675
0001f0 c0 bc 2e 3f bc 98 cd 3e 32 bd 3a 3f 6a 90 31 be
       0.6825676 0.4015559 0.7294494 -0.17340246
000200 b3 4b 1d 3d 36 6a 91 be ef f0 e7 3e 82 26 95 be
       0.03840227 -0.28401345 0.45301005 -0.29130942
000210 a7 ec 0e 3f ed c3 6a 3d 36 af 59 3f 31 05 ec 3e
       0.5582985 0.057315756 0.85032976 0.4609771
000220 85 61 62 3f 53 12 84 bf 7f 07 d8 3e d4 c2 26 bf
       0.88430053 -1.0318092 0.4219322 -0.65141034
000230 2a f9 21 bf 87 44 f6 be d2 2a 45 3e 54 48 22 be
       -0.6327082 -0.48099157 0.19254616 -0.15847903
000240 87 26 80 3e 13 9b 11 3f a4 e2 bb be 06 b5 99 be
       0.25029394 0.5687725 -0.3669635 -0.30020922
000250 2d aa 19 bf 0f db 26 3e 9d f4 50 3f 92 8c 77 3f
       -0.6002529 0.16294502 0.8162325 0.9669887
000260 85 bb 0d 3f ca 89 e1 3e 18 d3 d4 bd f5 6b 6e 3f
       0.5536426 0.44050437 -0.103918254 0.9313348
000270 33 b6 c6 3d 10 bf 7c bd 1e 18 0e 3f e7 44 05 bf
       0.097027205 -0.06170565 0.5550555 -0.5205826
000280 be a2 23 3f 4d 70 ff be 5a 85 25 3f 77 4e cf be
       0.639202 -0.49890366 0.64656603 -0.4048955
000290 f8 a1 95 3e 58 34 29 bf 00 85 00 be df 19 f0 3e
       0.29225135 -0.66095495 -0.12550735 0.46894738
0002a0 dd ed 84 bc 6f 3d db be 00 37 2d bf 95 e7 81 3f
       -0.016226703 -0.42820308 -0.6766205 1.0148798
0002b0 d6 8f 70 3e 20 82 09 bd e2 de c8 be 3a 10 82 be
       0.23492369 -0.033571362 -0.39232546 -0.25403005
0002c0 97 1e 59 be ee ac e4 3e 14 1c ca bb 85 4e 0f 3f
       -0.21203075 0.44663185 -0.006167898 0.55979186
0002d0 5d 89 47 bf b6 51 1b 3f 8c 71 3e 3e fc 35 dd 3e
       -0.77943975 0.60671556 0.18598002 0.4320525
0002e0 28 c2 2c 3e ab 2e 1f 3f 17 54 4c 3f 15 c2 44 3f
       0.1687094 0.62180585 0.7981581 0.76858646
0002f0 95 18 0a 3e 58 d8 6d 3f 14 1f 30 3d b0 d6 01 bf
       0.1348594 0.9290824 0.04299839 -0.5071821
000300 14 e4 00 bf a6 75 5f 3f 8b e4 af bd 8c 29 9d be
       -0.5034802 0.8728889 -0.08588513 -0.3069576
000310 86 05 c3 be c1 c6 a1 3e 2a d1 3c 3e 00 69 0e 3f
       -0.38090152 0.3159695 0.18439165 0.5562897
000320 66 fd ac be 9a d8 a3 3e 02 24 ad be d3 83 32 3f
       -0.33787078 0.3200119 -0.33816534 0.697324
000330 e3 df b1 3e 87 02 5e bd c9 91 6f 3b a7 a4 1b bf
       0.34741125 -0.05420163 0.00365554 -0.60798115
000340 f9 6e 66 3f f8 25 86 bd ac fc 36 3f 9f d9 2c 3e
       0.9001308 -0.06550211 0.71479297 0.16879891
000350 34 d9 b9 bd 7f 9a 6c be 30 be 11 3f 94 d0 18 be
       -0.09074631 -0.2310581 0.5693083 -0.14923316
000360 20 52 e2 3e 03 33 ed 3e 0e 82 7e 3f f7 b3 00 be
       0.4420328 0.4632798 0.994172 -0.12568651
000370 bc d4 3f bf 1e 3c 63 3f 35 a5 68 bf 9e f8 23 bf
       -0.7493398 0.88763607 -0.90877086 -0.64051235
000380 3e 91 a2 3e 38 b2 04 3f 48 5a f2 bd f6 2a b4 be
       0.31751436 0.5183444 -0.11833626 -0.35189027
000390 1d e5 24 3e 10 e2 53 bf 6c 49 16 3f 14 c5 07 3f
       0.16103025 -0.8276682 0.5870578 0.5303509
0003a0 e6 b3 26 3f 3b 09 59 3f 53 47 df be 7c 72 fc be
       0.65118253 0.8477971 -0.43609104 -0.49306095
0003b0 9d 16 8b 3f ec 4f 4c 3f 6e 7a 23 bf ee a8 dd be
       1.0866276 0.7980945 -0.6385869 -0.43292946
0003c0 de 09 e6 be 3e 14 f3 be 49 bc 93 3e b0 fa 75 3f
       -0.44929403 -0.4747638 0.28854588 0.96085644
0003d0 eb 8b d5 3e 13 1d 8f be 4b db a4 3e a2 79 25 3f
       0.4170831 -0.2795187 0.32198557 0.6463872
0003e0 79 33 12 3f 13 35 d8 3e 6c c4 2c 3f 48 91 8b 3b
       0.5710979 0.42227992 0.67487216 0.0042592622
0003f0 82 28 e1 3e 80 84 60 3f d0 60 ed 3e a3 71 2e bf
       0.43976218 0.8770218 0.46362925 -0.68142146

linear_stack.2.weight f4 [400, 400]
000000 2a 39 30 bd cd bc 9e bc 40 f5 fe bb 93 24 03 bd
       -0.043023266 -0.019377137 -0.007780701 -0.0320173
000010 0f c7 fb 3c f5 80 aa 3a 9b 02 aa 3b b7 ef 9b 3c
       0.030734567 0.0013008403 0.005188299 0.019035203
000020 75 85 d0 bc 9b ea 2e bd ea 12 47 bd 86 dd 40 3c
       -0.025454262 -0.042704206 -0.048602022 0.011771565
000030 20 90 4e bc 1b 19 13 bd 09 24 cc bc 5b 37 00 3d
       -0.012607604 -0.035912614 -0.024919527 0.03130279
000040 03 7f 8b bc 50 18 9c 3c 40 41 22 bc 85 de 80 3c
       -0.017028337 0.019054562 -0.009903252 0.015731106
000050 fa 23 43 bd 00 4b 65 3b 56 aa 07 3c 1b 00 fe 39
       -0.04764173 0.003498733 0.008280357 0.00048446734
000060 d2 c6 98 3c 87 e9 4a bd 9a cd 95 38 10 68 74 3c
       0.018649492 -0.049539115 7.14317e-05 0.014917389
000070 21 10 b0 3b 9d 8e 2f 3d 24 46 34 bd 48 df fd 3c
       0.0053730165 0.042860616 -0.044012204 0.030990258
000080 b1 13 04 3c d8 27 07 bc 67 47 ca bc 28 25 ad 3c
       0.008061335 -0.008249246 -0.02469225 0.021135882
000090 4e c2 0a 3d 62 a2 45 3d 2d e2 fb 3c ff 64 67 3c
       0.03387671 0.048250563 0.030747497 0.0141232
0000a0 75 80 2d bd d8 36 4b bc d2 f1 04 3d 33 7f 5e ba
       -0.042358834 -0.0124032125 0.03245718 -0.0008487582
0000b0 3e 64 93 bc 38 d7 02 3d 7d de c8 bb fd 22 19 bd
       -0.017992135 0.03194353 -0.0061300383 -0.037386883
0000c0 68 75 c2 bb 46 86 2c bd 87 c0 2a bd e7 b9 59 3b
       -0.005934406 -0.04212024 -0.041687515 0.0033222379
0000d0 23 e7 20 3b de 20 f5 3c f1 86 fa 3c fb e8 73 bd
       0.002455183 0.029922899 0.030581923 -0.05954836
0000e0 59 41 c5 bc 19 0f e8 3c 4b e3 f4 3b 40 5e b2 3b
       -0.024079012 0.028327512 0.0074733845 0.0054433644
0000f0 af 81 5d bd 20 fb 1d bd 21 39 c8 bc a3 aa 33 3d
       -0.054078754 -0.03856957 -0.024441304 0.043863904
000100 17 bd 2c 3c a0 f0 07 bd d3 1e c0 bc 64 da 6a 3b
       0.010543129 -0.033188462 -0.023452198 0.0035835737
000110 16 2d 64 3c 40 bd 48 bc 91 23 24 bd 17 23 88 3c
       0.013926765 -0.012252152 -0.04007298 0.016618295
000120 4d fa a9 3c 67 35 03 3d 6d 78 17 bc 2b e4 ee 3c
       0.020749236 0.03203335 -0.00924502 0.029161533
000130 57 13 28 bd 2a 47 12 bd e8 7a 25 3c 61 dd 23 3c
       -0.04103407 -0.0357124 0.010100104 0.010001511
000140 35 e7 14 3d 5d 72 b3 bc e0 bd 26 bd d4 53 f8 3c
       0.03635331 -0.021905119 -0.040708423 0.03031341
000150 fa bf fe bc cc 93 73 bd a7 d9 e5 bc 7d f1 a5 bc
       -0.031097401 -0.059467122 -0.028057886 -0.020256752
000160 b9 c5 03 3d 32 9a 15 3b 55 ef f1 b9 ff b7 60 bd
       0.032170985 0.0022827503 -0.00046145418 -0.054862972
000170 08 92 22 3c 9e 49 11 bd ef bd 65 bd 0f 43 93 bb
       0.009922512 -0.035470597 -0.056089338 -0.004494078
000180 b0 24 38 3c 60 2b 6b 3c 6b 9d 4c bd 5e 92 77 bd
       0.011239216 0.014353603 -0.049954813 -0.06044232
000190 80 25 76 3c f7 34 29 bd bb 9a 43 3d 8f 3e 42 bc
       0.015023589 -0.041310277 0.047754984 -0.011855735
0001a0 a9 4d 33 bd c0 3c 3e bc 2a 6d 61 bd b8 df 4b bd
       -0.043775234 -0.011611164 -0.055035748 -0.0497739
0001b0 85 d2 06 bd 67 f5 a9 bb 5a d8 ce 3b c8 bc 73 3b
       -0.03291561 -0.005186725 0.006312412 0.003719138
0001c0 5e 15 8c bc 3c 50 7c 3b 42 f4 02 bd 34 54 9c 3c
       -0.017100032 0.0038499972 -0.031971224 0.01908312
0001d0 90 07 ac 3c e7 e8 ec 3c 4d 54 3a bc 83 6d 83 bc
       0.0209997 0.02891965 -0.011372638 -0.01604343
0001e0 15 91 83 bc 9c c9 33 bd 60 bc 43 bc d3 43 26 3c
       -0.016060391 -0.04389344 -0.011946768 0.0101480065
0001f0 c5 3e 07 bd ca ef e8 3c 73 50 27 bc 0c 53 92 3c
       -0.033018846 0.028434653 -0.010212052 0.017861865
000200 45 65 9b 3c 9a 6a 2a 3d c9 f1 26 3d 67 55 85 bc
       0.018969188 0.04160557 0.040757928 -0.016276075
000210 af 4f 10 3c 75 46 11 3d cd da cd bb 8d 20 c8 3c
       0.008808061 0.035467584 -0.0062821866 0.024429584
000220 24 76 17 3c da 77 86 bc 02 86 c6 3a dc bb 0a 3d
       0.0092444755 -0.016414572 0.0015146139 0.033870563
000230 e3 97 6a 3c a7 02 2a 3c 51 29 67 bd 5a de bf bb
       0.014318439 0.010376609 -0.056435887 -0.005855364
000240 82 c3 0d bd 24 a6 3e 3c b0 66 d1 bc 9f e0 28 bd
       -0.03461028 0.011636291 -0.02556166 -0.04122984
000250 bf c7 db 3c d0 0d d2 3c b4 ae 68 3c ca 5a f0 3c
       0.026828645 0.025641352 0.014201809 0.029340167
000260 6e c0 29 bd e7 cd d1 3c 1d dc e5 bc 6f 8e 27 bd
       -0.04144328 0.025610877 -0.02805906 -0.04090732
000270 f7 e9 05 bd ca 4b 9c bc 15 7f a7 bc 56 59 8d bc
       -0.03269383 -0.019079108 -0.02044634 -0.017254513
000280 45 1f a8 3c 26 d8 b7 bb 1c 28 11 3d 73 34 44 bc
       0.020522723 -0.0056104837 0.035438642 -0.0119753955
000290 d9 34 a9 bc 8d 3d 96 bc 4a 69 12 bd 38 b9 3e bd
       -0.020655083 -0.018339897 -0.035744943 -0.046563357
0002a0 e3 03 d7 3c da eb f5 bc c6 12 da bb 52 08 07 bd
       0.02624697 -0.03001969 -0.00665507 -0.03296692
0002b0 2e 77 84 bc f0 ca e2 bc 97 80 28 bd fb e2 ae 3b
       -0.01617011 -0.027684659 -0.041138258 0.005337117
0002c0 c5 48 14 bd 4e 64 6c 3c a3 42 ba bb 12 5d b9 bc
       -0.03620221 0.014428211 -0.0056842132 -0.022627387
0002d0 b3 8c fa bb d9 e2 f2 bc ee 6f e3 bc 97 ef dc 3b
       -0.007646167 -0.029649185 -0.027763333 0.0067424285
0002e0 23 6d 08 bd 3d 51 0a 3d 80 e6 96 3b 1b b6 f3 3c
       -0.033307206 0.03376888 0.0046051145 0.02974992
0002f0 e6 0a 30 3c cc 3a a8 3c f6 d6 8f bc 38 a9 26 3d
       0.010744786 0.020535849 -0.017558556 0.040688723
000300 1b 2c 49 3d 2d 09 b9 3c 2d bd 43 bd f9 95 3e bd
       0.049114328 0.022587383 -0.047787834 -0.046529744
000310 40 6e 9e 3b 75 01 1b bd 0a f6 22 bd 1c 8d 7c bd
       0.00483492 -0.037843186 -0.039785422 -0.06165801
000320 0d 44 4c bc b2 bc da 3c 07 ac 2c 3c 46 90 fd bc
       -0.012467396 0.026701305 0.010539061 -0.030952584
000330 75 5b 23 bd 2e 2c 3f bd 74 96 a2 3c a1 aa cd bc
       -0.039882142 -0.046672992 0.019847132 -0.025105776
000340 4c 8c 85 bc 8b c1 0c 3d 69 d4 db ba 68 54 1b bd
       -0.01630225 0.034364264 -0.0016771677 -0.037922293
000350 db c2 2d 3c d2 b3 29 bd 05 8d 6a 3c 57 0d 8b bc
       0.010605539 -0.041431256 0.014315848 -0.016974134
000360 b8 40 9f 3c 91 02 05 3d 82 c3 a8 bc 13 8f 19 3c
       0.01944004 0.03247315 -0.020601038 0.00937249
000370 cb da 20 3c 2c c1 0d 3d c0 76 44 3c c5 aa 75 bc
       0.009817789 0.03460805 0.011991203 -0.014994328
000380 d7 e4 95 bb 81 86 0f bd c8 d5 40 3d 67 a3 bd 3c
       -0.004574399 -0.035040382 0.047078878 0.023149205
000390 a2 d0 71 3b 0a 21 09 3d 95 62 17 3d 91 eb bd 3c
       0.0036898036 0.033478774 0.03695925 0.023183616
0003a0 07 09 89 bc 2b 25 53 bd c4 7b 03 bd a2 38 29 bd
       -0.016727937 -0.051549118 -0.032100454 -0.041313775
0003b0 0a 2a 16 3d 91 7d 82 bc f2 56 ac 3c e4 48 35 bd
       0.036661185 -0.015929015 0.021037553 -0.044258967
0003c0 b8 5e 13 bd 38 05 cd bc 7f d0 5a bd 93 30 06 3b
       -0.035979003 -0.025026903 -0.053421494 0.002047573
0003d0 f1 12 95 3c 6a 04 73 bd 07 76 95 3c c3 d1 d9 bc
       0.018197509 -0.05933038 0.018244756 -0.02658928
0003e0 d8 a2 39 3d f6 b5 ee bc 83 e0 1c bd ff 09 f9 3a
       0.045321316 -0.0291395 -0.03830005 0.0019000171
0003f0 a9 91 ad bc f5 19 f0 3c 7d 83 0a bb 4e ce 82 bc
       -0.02118762 0.029309252 -0.0021135502 -0.015967514

linear_stack.2.bias f4 [400]
000000 04 32 57 bd ab af 37 be c8 23 11 bd bb cb 29 3e
       -0.052537933 -0.17938106 -0.035434514 0.16581623
000010 e5 b9 62 3e b8 25 21 3e 7e 7c 9b bd 1d 91 0e 3e
       0.22141226 0.15737045 -0.075921044 0.13922544
000020 4f 6c bc ba b4 eb 5b 3c ed cf 05 3d ef 80 3f 3e
       -0.001437554 0.013422895 0.032668997 0.18701528
000030 b3 49 10 3e 2a 5a 77 3c a1 0c 1a 3e c3 8f 4e 3e
       0.14090614 0.01509718 0.1504388 0.20172028
000040 ea f6 9b 3d 5f 98 29 bc fd 83 29 3d 94 98 05 bd
       0.076154545 -0.0103512695 0.04138564 -0.032616213
000050 db 9b d1 3a 3f 9e c9 3c 52 d1 0d 3e 73 6c c7 be
       0.0015991883 0.02461159 0.1384938 -0.38949928
000060 dc 28 a6 3d 3a ec 31 3e 7e db dd 3c 5e 20 58 bd
       0.08113262 0.1737527 0.027082201 -0.052765243
000070 9a b3 0e 3e 22 35 b9 3d 89 f5 c5 3d d3 1d 56 3e
       0.139357 0.090433374 0.09665973 0.20909815
000080 47 b0 84 3c f2 7b 28 be b7 2a 3e 3d 65 fb 9f 3d
       0.016197337 -0.16453531 0.046427455 0.078116216
000090 9e fe 18 3e d1 fe 21 3d 28 89 20 3d b1 44 44 3e
       0.14940879 0.039549652 0.039193302 0.19166829
0000a0 68 8d 24 3e 47 2b 04 bc 6f ed 14 bd 73 3f ae 3c
       0.16069567 -0.008066959 -0.036359247 0.02127049
0000b0 4a d3 bc bd aa be 15 3e d3 af 82 bb 9c 37 38 3e
       -0.09219988 0.14623514 -0.003988245 0.17989963
0000c0 f2 29 60 3e c2 5f 32 3e 10 da 39 3e 79 04 d2 3c
       0.21891001 0.17419341 0.1814959 0.025636898
0000d0 59 81 ef 3d 6a c3 1f be 96 ac 3e 3e b0 ef 3e 3e
       0.11694593 -0.15601888 0.18620524 0.18646121
0000e0 4e c1 45 3e 1d 1c 35 3e fb f9 37 be 6a 37 53 3e
       0.19312021 0.17686506 -0.17966454 0.20626608
0000f0 27 92 08 be f6 05 ba 3d 30 0a c8 bc bf 62 1e 3d
       -0.13337003 0.09083168 -0.02441892 0.03866839
000100 ed 0f 21 3d 0e fa d4 3d 7c f5 e4 3d bd 54 11 3e
       0.03932183 0.10399257 0.11179635 0.14192481
000110 a0 26 4e 3e 20 94 07 bc 7a 8f 37 3d ed c9 fd bc
       0.20131922 -0.008275062 0.044814564 -0.030980075
000120 ec 4d 2c 3e 37 f9 33 3d 9b b1 e9 3c 2b b7 26 be
       0.168266 0.04393884 0.028527072 -0.1628081
000130 67 8a 3a 3c a2 b9 00 3e 84 04 c2 3d a4 e0 92 bc
       0.011385537 0.12570813 0.094735175 -0.017929383
000140 2f cc 37 be 7d 14 11 3e 63 6a d7 3c 00 4d 1f 3e
       -0.17948984 0.14167972 0.026295846 0.15556717
000150 0a 90 2c 3e 6f b5 c5 3d 1b 72 03 3e 9e 25 0b be
       0.16851822 0.09653746 0.12836497 -0.13588569
000160 59 07 5b 3e f5 b7 3f bd 4b 50 c7 3d 3f 3b 44 3e
       0.21389522 -0.046806294 0.097321115 0.19163226
000170 fb aa 87 3d df 9e 2e 3e 59 8b 1b 3e 44 87 4b 3e
       0.06624409 0.17052792 0.15189876 0.19875818
000180 cb a6 0a 3e 5f e4 04 3d 5f 46 7c 3e 01 2b 1e 3d
       0.13540189 0.032444354 0.2463622 0.03861523
000190 50 c4 c6 3c 6b 24 30 3e 26 36 41 3e 70 26 fa bd
       0.024263531 0.17201392 0.18868312 -0.122143626
0001a0 a3 26 aa be a5 8d 1e 3e c4 5e 70 be 5a 1f 85 3b
       -0.33232602 0.1548372 -0.2347365 0.0040625753
0001b0 a4 28 76 bc cc 6c 21 bd 97 86 de 3d a2 7a 06 bc
       -0.015024338 -0.039410397 0.10865515 -0.008207949
0001c0 d3 11 09 3e 41 85 61 3e ea 55 09 bc f1 fa 81 be
       0.13385706 0.22023489 -0.0083823 -0.25386766
0001d0 b3 39 0b be 87 ad 36 3e 13 23 2c 3e be d8 b1 3c
       -0.1359623 0.17839633 0.16810255 0.021709796
0001e0 39 d1 8a 3e 60 c3 82 be 12 e5 6e 3d 1f 14 53 3e
       0.2711275 -0.25539684 0.058323927 0.20613144
0001f0 c6 a5 4b 3e 53 89 09 3d 4d f4 23 3e 9a 5f 5c 3c
       0.19887456 0.03357823 0.16011162 0.013450528
000200 8d 58 62 be 0d 28 c1 bc 88 47 a8 3c 3d ae 89 bc
       -0.22104092 -0.023578668 0.020541921 -0.016806716
000210 53 e1 d4 3d 54 a4 fc bc 4d dc 04 3b 73 05 43 be
       0.1039454 -0.030840077 0.002027291 -0.19045047
000220 6a ff f8 3d 8d 4b 36 3e 52 db 3f 3e 75 ac 04 3e
       0.12158091 0.17802258 0.18736008 0.12956412
000230 60 a2 18 bd dc cb 03 3e a9 af 4e 3e b1 f2 20 bd
       -0.037264228 0.12870735 0.20184197 -0.03929395
000240 4f 93 0c be ce 02 4d bd 57 f7 d5 bc 8d 7a 3d 3e
       -0.13728069 -0.050051503 -0.026118917 0.1850378
000250 ad 2f 7a bc 87 0d 85 bc 27 3b 20 3e 79 54 c1 3b
       -0.015270156 -0.016241802 0.15647565 0.0058999625
000260 9c 49 20 3e 79 d6 18 3e ac 9b 27 3e ff 73 13 3e
       0.1565308 0.14925565 0.16367978 0.14399718
000270 26 0e 32 3e 4c 4d 4c 3e a4 71 13 be de e7 54 bd
       0.1738821 0.19951361 -0.14398819 -0.05197894
000280 44 c8 36 bd 88 6c fc 3d e7 28 1f 3e 28 c3 39 3d
       -0.044624582 0.12325388 0.15542947 0.04535213
000290 d6 38 34 3e 3f aa 35 3e 7b a8 b1 3d 44 de 17 3e
       0.17599806 0.17740725 0.08674713 0.14830881
0002a0 4f 32 07 bd 8d db 51 3e 72 63 9e 3d 2f 8e 05 bd
       -0.033006962 0.20493908 0.077338114 -0.0326063
0002b0 69 06 21 bd 64 da 49 3e c8 21 80 3d c5 90 0a bd
       -0.039312754 0.19712216 0.06256443 -0.03382947
0002c0 9d 82 39 3e 0a d0 20 3e 25 1c 46 3d 44 b0 2e 3e
       0.18116231 0.1570436 0.048366684 0.17059427
0002d0 06 c2 03 3e 70 2c 4e 3e 67 7b 8f 3c 09 42 13 3e
       0.12866983 0.20134139 0.017514898 0.14380659
0002e0 a0 69 5c 3e b6 03 b3 3d 22 06 9b 3e 5f f4 27 3e
       0.21524668 0.08740942 0.30278116 0.16401814
0002f0 02 c9 f2 bd e1 99 0c 3e 0a 6f 1b bd 9c 56 44 bd
       -0.118547454 0.13730575 -0.037947692 -0.04793416
000300 ac 17 34 3e 5d ce a3 3c c0 11 02 3e a7 e8 57 3e
       0.17587155 0.019995863 0.12702084 0.21084844
000310 57 f6 f0 bd ae fe 20 bd 14 ed 02 3e d6 08 8a be
       -0.117657356 -0.03930538 0.1278575 -0.26959866
000320 51 3b bb 3d b5 92 f5 3c 40 77 01 3e 33 e5 af 3d
       0.09142173 0.029977182 0.12643147 0.08588638
000330 3d 81 d0 bc dd b4 3a 3e 09 e8 00 3e a2 df 20 3d
       -0.02545225 0.18233056 0.12588514 0.039275773
000340 f3 d3 55 3d e2 b0 24 3d 37 f0 bf 3b 47 1a 16 3e
       0.052204084 0.04020775 0.0058574933 0.14658462
000350 53 13 16 3e af c0 05 bd a4 e2 8f 3b 2b 9b 77 be
       0.14655809 -0.03265446 0.0043910313 -0.24180286
000360 87 c9 56 be ef bb 12 ba 61 3a 10 3e 4b 05 8b 3d
       -0.20975314 -0.00055974623 0.1408477 0.06788119
000370 a0 a9 b8 3d 37 1c d2 3d 36 62 4e 3c 2a f4 d0 3c
       0.090167284 0.10259288 0.0125966575 0.025507051
000380 d6 2f 05 3e 4a 75 1a 3e f4 bb b1 bc 24 8c 54 bd
       0.13006529 0.15083805 -0.021696068 -0.05189146
000390 67 ea 21 3c 76 ec 2b be bb 95 5f be 73 90 5b bb
       0.009882546 -0.16789421 -0.21834461 -0.0033502846
0003a0 55 e8 2f bd f0 af ce 3d 0d 82 84 3d 8a d0 8e bc
       -0.04294618 0.10092151 0.06470118 -0.017433424
0003b0 28 b7 fb 3d 27 f3 36 3e c3 a1 bf 3d 63 d4 f1 bd
       0.12290794 0.17866193 0.093570255 -0.11808088
0003c0 0f ce bc 3d 34 3e 51 3e 20 68 ea 3d 80 ef 1a 3d
       0.0921899 0.20433885 0.114456415 0.03782606
0003d0 87 f4 50 3e e8 44 21 3e cb 32 fd bc 81 69 06 3e
       0.2040578 0.15748942 -0.030908009 0.13126184
0003e0 2b f3 08 3e aa 22 a3 bc 6b 1b 3b 3d 2f 34 43 3e
       0.13374011 -0.01991399 0.045680445 0.19062875
0003f0 8b ff 14 3e 81 db 02 3e 3a 35 18 3e 31 c6 4e 3e
       0.14550607 0.12779047 0.14864054 0.20192792

linear_stack.4.weight f4 [5, 400]
000000 a4 1c 41 3d 0f a1 8c be 6a be 31 3d cb 42 3d 3e
       0.047146454 -0.27466628 0.043394484 0.18482511
000010 32 6a 8b 3e 5e 32 d8 3d 73 2f 1b 3d 2c ce 8e 3e
       0.27229458 0.10556482 0.037887048 0.27891672
000020 5a 2e 58 bc 48 21 40 bc c1 ca 12 bb 44 33 9e 3e
       -0.013194645 -0.011726685 -0.0022398683 0.30898488
000030 00 6f 81 3e d3 34 b1 3c 30 b4 1a 3e 0c 9f 75 3e
       0.2528 0.021631634 0.15107799 0.23986453
000040 9d fe 01 3f 5c 43 0f 3c 50 0e c8 bc d7 e9 d8 bc
       0.50779134 0.008744087 -0.024420887 -0.026478691
000050 8d d6 95 3b 3f 82 39 3c 5d d4 f7 3d a6 cb 56 be
       0.0045726956 0.011322557 0.12101052 -0.20976123
000060 af a2 ee 3d 01 f0 31 3e 4d b1 1a bd d8 52 9c 3e
       0.11652123 0.1737671 -0.037766743 0.30531955
000070 fc cd 6d 3e b2 db 89 3e 9e a4 07 3e b6 5e 9d 3d
       0.23223108 0.26925427 0.1324639 0.0768408
000080 80 a2 55 bb fa c2 e0 be e7 f5 32 bb fc e1 58 3e
       -0.0032598078 -0.43898755 -0.0027307214 0.21179956
000090 0c b6 00 3e 08 d8 4b 3d 70 6b 99 bc 70 59 47 3e
       0.12569445 0.04976657 -0.018727988 0.19467711
0000a0 e2 71 65 3e ed 7d d0 bc b8 d7 1b 3d 4a a5 4c bd
       0.22406724 -0.025450671 0.038047522 -0.04996232
0000b0 87 4e 7f bd 26 80 47 3e 2f da 37 bd 7f 4c 01 3e
       -0.06233075 0.19482478 -0.04488581 0.12626837
0000c0 f0 57 63 3e d7 13 2e 3e 49 17 44 3e 48 6b 61 3c
       0.22201514 0.16999756 0.19149508 0.013758488
0000d0 28 c6 8c 3d c8 2c bb bd 7f 22 8b 3e e8 6b be 3d
       0.06873733 -0.09139401 0.27174756 0.09297925
0000e0 95 21 fe 3d 3f 82 a9 3e cf 80 fb 3d ad 03 97 3e
       0.12408749 0.33107182 0.12280428 0.29494992
0000f0 8c 43 1a bd 41 4f f3 3d c0 d5 09 3d 70 d2 60 bc
       -0.037662074 0.11880351 0.033651114 -0.013722047
000100 a0 b3 c8 3c 17 30 ef 3d f7 3f 30 3e 05 30 0d 3e
       0.024499714 0.11679094 0.172119 0.13787849
000110 be 62 b5 3e 17 76 b7 3c ad c7 72 bc 4d 7a 09 bd
       0.35426897 0.022395177 -0.014818114 -0.0335639
000120 d7 0a 4b 3e 57 20 db bc 9e f7 05 bd 02 79 df be
       0.19828354 -0.02674882 -0.03270685 -0.4364701
000130 0d 5a c3 bc 18 5a c1 3e 41 df b6 3d 4a b5 a6 3c
       -0.02384665 0.3776405 0.08929301 0.020350117
000140 ed 76 91 bd e6 be 90 3d 31 9b 29 bd 89 16 24 3e
       -0.071027614 0.07067661 -0.041407768 0.16024221
000150 3e 47 83 3e 34 23 bc 3d ab 79 1d 3e 3b d6 ba bd
       0.2564029 0.09186402 0.15378444 -0.091228925
000160 8d 19 90 3e 9f d7 cf bc d5 e8 4a 3e 87 64 2a 3e
       0.28144494 -0.02537137 0.19815381 0.1663991
000170 df 48 e6 3d cc 9c 64 3e 13 7b 13 3e a6 e6 48 3e
       0.11244368 0.22325438 0.14402418 0.19619235
000180 27 f7 52 3e 07 f5 2b 3c f5 45 8c 3e 84 2e 0a bd
       0.20602094 0.010495431 0.27397123 -0.033735767
000190 b7 13 c5 bc 1c db f3 3d ef 36 81 3e c3 58 a0 bd
       -0.024057252 0.11907026 0.25237224 -0.0782943
0001a0 7f 26 00 bf 19 76 80 3e 24 ec 46 be bb 1a 00 bd
       -0.5005874 0.250901 -0.19426018 -0.031275492
0001b0 9a 67 d8 ba 11 51 26 3c fe 37 10 3e a0 79 03 bd
       -0.0016510368 0.010151164 0.1408386 -0.032098413
0001c0 c4 f1 4d 3e 09 b1 7c 3c 70 43 40 bd f1 ee 44 be
       0.20111758 0.015423068 -0.046939313 -0.19231774
0001d0 bc 8f df bd 2d 17 96 3e ba f4 79 3e 22 69 dd 3c
       -0.10916087 0.29314557 0.24409762 0.02702767
0001e0 43 97 fd 3e 6d 6c 47 be f1 29 e1 3d ba 2f d8 3d
       0.49529466 -0.19474955 0.10994328 0.10555978
0001f0 01 44 a0 3e d1 40 58 3d b2 26 1a 3f 72 63 28 3d
       0.31301883 0.05279619 0.60215294 0.041110463
000200 62 a5 0f 3f c7 92 b1 3c 0f 39 2f bb 11 79 be 3b
       0.5611173 0.021676434 -0.002673689 0.005812772
000210 df dc 17 3e 1a 67 e0 3b 33 6a fd bc e1 3c 62 bc
       0.1483035 0.006848228 -0.030934429 -0.01380846
000220 31 ac 53 3e 42 91 7b 3e 64 7e 33 3e c7 47 43 3e
       0.20671155 0.2456713 0.17528683 0.1907035
000230 c7 70 94 3c b5 d3 12 3e 14 e0 56 3e de aa 12 bb
       0.018120183 0.14338572 0.20983917 -0.0022379677
000240 4a 1f 12 bd 30 93 97 bc e2 c4 2f bd a6 77 4c 3e
       -0.03567437 -0.018502802 -0.04291237 0.19967517
000250 40 8e b1 3b e2 8b 4c bd 20 5b a6 3e fe 81 26 3c
       0.005418569 -0.04993809 0.32491398 0.0101628285
000260 88 56 37 3e 55 b7 64 3e dd b8 6d 3e 8f fb be 3d
       0.17904103 0.2233556 0.23215051 0.09325325
000270 9b 45 32 3e 61 a0 a2 3e af 27 fb bd d3 3a 9d 3c
       0.17409365 0.31762984 -0.122634284 0.019193089
000280 36 b9 37 3f e7 6e 0f 3e 2b 75 48 3e 0d c7 28 3d
       0.71766984 0.1400715 0.19575946 0.041205455
000290 bb ea 7d 3d 83 3f e2 bd 72 2e 68 3d 1b 04 4a 3e
       0.061991435 -0.1104727 0.05668492 0.19728129
0002a0 c1 00 07 3d 91 fb 8e 3e 4d f9 56 3e 37 34 09 3d
       0.032959703 0.27926305 0.20993538 0.03349706
0002b0 44 d6 a6 bc 31 d8 92 3e b5 21 ff bb 1b dc 03 3d
       -0.020365842 0.28680566 -0.0077860006 0.03219233
0002c0 e9 8c a6 3e b4 b2 b9 3d 5b b8 8b 3d 9f 07 94 3e
       0.3252938 0.09067288 0.068222724 0.28912064
0002d0 e8 2e 15 3a ac c1 77 3e 28 fe 35 3d 41 7f a8 3d
       0.00056908885 0.24194974 0.044431835 0.08227397
0002e0 e6 8e 22 3e eb ac 4d 3e cd d5 85 3e ba fb 93 3e
       0.15874824 0.20085494 0.2613968 0.2890299
0002f0 a8 ec 29 3f 6c 17 05 3e 67 32 71 3b e1 f9 2b bd
       0.66376734 0.12997216 0.0036803724 -0.04198635
000300 79 b1 0a 3e 60 09 94 bc 30 1f 94 3d e9 78 2e 3e
       0.13544263 -0.018070877 0.07232511 0.17038311
000310 62 66 7e be 88 1d de bc 1b e6 ea 3c 01 d7 c4 be
       -0.24843743 -0.027113691 0.028674176 -0.38445285
000320 6a 78 e4 3d 39 a7 15 bd 22 11 80 3e 37 d2 83 3d
       0.1115578 -0.03653643 0.2501307 0.0643658
000330 c2 3d 09 3d 32 cf 55 3e d2 98 9a 3d 03 19 0a bc
       0.033506162 0.2087982 0.075486794 -0.008428815
000340 0c 93 c6 3d 62 4f 18 bd 48 3e 29 bd 24 51 bd 3d
       0.09696016 -0.03718508 -0.04131916 0.09243992
000350 b6 0f a2 3e 85 02 14 bd bf 31 94 3a 89 f2 d5 3d
       0.31652611 -0.036135215 0.0011306329 0.104466505
000360 0d c0 31 be dc 9e a0 bb 6f 58 50 3d 0f 09 8f 3f
       -0.17358418 -0.00490175 0.050865587 1.117464
000370 e8 77 c3 3d 86 4e 72 3e 5f 49 f4 bd 60 ad 2f 3d
       0.09544355 0.23662767 -0.11928057 0.042889953
000380 fc c9 47 3e 0e 31 37 3e 0c dc 04 3d 80 e6 b7 bb
       0.19510645 0.17889807 0.032436416 -0.0056121945
000390 83 34 1d 3d be 5e e6 3e cf 3e ef be 76 e5 2f 3d
       0.038380157 0.44994158 -0.46727607 0.04294344
0003a0 89 bd 2c bd 0d 3d c4 3d bb 4a 12 3f 88 be 43 3d
       -0.042172942 0.09581957 0.5714528 0.047789127
0003b0 f2 e5 de 3d 44 b7 3b 3e b8 21 df 3d b6 2e 7b bd
       0.10883702 0.18331629 0.10895103 -0.061323844
0003c0 98 81 a5 3d b5 0a 4d 3e 36 8f 90 3d c7 1b 00 3c
       0.08081359 0.20023616 0.07058565 0.007819123
0003d0 6c 99 47 3e 7d 73 43 3e 9d 0b 37 bd b4 73 30 3e
       0.1949212 0.19087024 -0.04468881 0.17231637
0003e0 3d 27 1a 3e c3 dc a1 bc cd d4 d1 3b ff 92 63 3e
       0.1505403 -0.019758588 0.0064035417 0.22224043
0003f0 9e c3 3e 3e b7 f4 13 3e 55 a1 47 3e f2 02 10 3e
       0.1862931 0.1444882 0.19495137 0.14063624

linear_stack.4.bias f4 [5]
000000 49 46 7a 3e 1d ef 6a 3e ed cf 77 3c d0 cf 41 3c
       0.24440874 0.22942777 0.015125257 0.0118293315
000010 77 ee e7 bc
       -0.028311951
