data/U1_new/model_UAV_0.pth (torch, 660400 bytes, 6 tensors)

linear_stack.0.weight f4 [400, 4]
0	0x3e917961	0.28412917
1	0xbe11fac2	-0.14255813
2	0xbe25f46a	-0.16206518
3	0x3f517b36	0.8182863
4	0xbef31a73	-0.47481117
5	0x3dfee10c	0.12445268
6	0x3df56676	0.119824335
7	0x3ed642bf	0.41847798
8	0x3c0c0b6e	0.008547647
9	0xbd5e15ce	-0.054220013
10	0x3f0f3d06	0.5595249
11	0x3e4403ca	0.1914207
12	0x3ed4c572	0.4155689
13	0x3e0394fa	0.12849799
14	0xbd424bde	-0.047435634
15	0x3e5aea30	0.21378398
16	0x3e9369a2	0.2879153
17	0x3ea4e2cf	0.3220429
18	0x3efd14db	0.49429974
19	0x3e1d9386	0.15388307
20	0xbe3eac08	-0.18620312
21	0xbe9a9d36	-0.30198067
22	0xbdaba370	-0.083807826
23	0xbe5cd8b0	-0.21567035
24	0x3e018167	0.1264702
25	0x3ecd8d62	0.4014693
26	0x3f122a5f	0.57095903
27	0x3f114806	0.56750524
28	0xbe8f9b61	-0.28048232
29	0x3f3328e8	0.69984293
30	0x3e038d01	0.12846757
31	0x3f172a25	0.5904868
32	0x3ec189b6	0.37800378
33	0xbf273777	-0.6531901
34	0xbebea326	-0.37233847
35	0xbeb0b084	-0.3450967
36	0x3ec5a123	0.385995
37	0xbdab1c31	-0.083549865
38	0x3e19de10	0.15026116
39	0xbe1afe32	-0.1513603
40	0x3f0780e1	0.5293103
41	0xbe049304	-0.12946707
42	0x3db10dd7	0.08645218
43	0x3d34634d	0.044040013
44	0xbefd88df	-0.49518487
45	0x3dc759d9	0.09733934
46	0xbf475741	-0.77867514
47	0x3dd65a48	0.104664385
48	0xbe13d7fc	-0.1443786
49	0xbd608800	-0.0548172
50	0xbef61d88	-0.48069406
51	0xbe741cbc	-0.23839086
52	0x3e16fa04	0.14743811
53	0xbe4f619f	-0.20252083
54	0x3f840105	1.0312811
55	0x3f12e832	0.5738555
56	0x3ea3af3c	0.3196963
57	0x3d327165	0.043565173
58	0x3e8af078	0.27136588
59	0x3ec8bb7c	0.3920554
60	0xbecddae4	-0.40206063
61	0x3ea70bf8	0.3262632
62	0x3ea01db0	0.3127265
63	0x3f1fc5e3	0.62411326
64	0xbf68c4d3	-0.9092533
65	0xbce3464d	-0.027743483
66	0xbe6c747e	-0.23091313
67	0xbfab3d9d	-1.3378178
68	0xbfd5bc4e	-1.6698091
69	0x3ccdd6e6	0.025126886
70	0x40061f7e	2.0956721
71	0xc0656a67	-3.5846193
72	0x3e043d65	0.12914045
73	0xbdc07bad	-0.09398589
74	0x3e772457	0.24134956
75	0x3e26a6a9	0.16274513
76	0x3ccc3d25	0.0249315
77	0x3deb4bae	0.11489044
78	0xbee395e2	-0.4445029
79	0x3ef0aaff	0.4700546
80	0xbf022dc3	-0.50851077
81	0xbe8a7d0f	-0.27048537
82	0xbd45961e	-0.048238866
83	0xc0890042	-4.2812815
84	0x3eb17e91	0.34666875
85	0xbe8b3194	-0.27186263
86	0xbf308a1e	-0.6896075
87	0x3ecb48ed	0.39704075
88	0xbdf26323	-0.11835315
89	0x3de9f67a	0.11423965
90	0x3e8def97	0.27721855
91	0xbeb543f4	-0.35403407
92	0x3d72583c	0.059166178
93	0x3e1168b9	0.14200105
94	0xbe92050c	-0.28519475
95	0xbe745548	-0.23860657
96	0x3ccfa582	0.025347475
97	0x3d0abbce	0.03387051
98	0xbdd0d886	-0.101975486
99	0x3cabffcc	0.020995997
100	0x3eb6f58f	0.3573422
101	0xbe2f4012	-0.17114285
102	0x3e76608c	0.24060267
103	0x3eb3167b	0.3497809
104	0xbedb674e	-0.42852253
105	0xbf6ab34e	-0.9167985
106	0xbffdd0c2	-1.9829333
107	0x40022889	2.033724
108	0x3e8146df	0.25249383
109	0x3b856a4e	0.0040715104
110	0x3e679a72	0.2261751
111	0x3ed3a7b1	0.41338876
112	0x3eeda4c6	0.46414775
113	0xbe413120	-0.18866396
114	0x3ea2e1c2	0.31812865
115	0x3ee500e9	0.44727257
116	0x3e871f6c	0.2639116
117	0x3e01eb93	0.1268752
118	0xbeacf111	-0.3377767
119	0xbebb81a5	-0.36622348
120	0xbe174ca0	-0.14775324
121	0x3ed8512c	0.4224943
122	0x3ed178db	0.40912518
123	0xbe97e8c0	-0.29669762
124	0x3e83c783	0.25738153
125	0xbf04199f	-0.51601595
126	0xbec21a48	-0.37910676
127	0x3e1855b7	0.14876448
128	0x3e174a47	0.14774428
129	0x3e4b5094	0.19854957
130	0xbeace12b	-0.3376554
131	0x3d68d0c4	0.05683972
132	0x3e9e318d	0.3089718
133	0x3db19d89	0.086726256
134	0x3ecf0b59	0.40438345
135	0x3eaf456e	0.34232658
136	0x3e8259fb	0.25459275
137	0x3dc60160	0.09668231
138	0xbeca8282	-0.39552695
139	0xbe30989e	-0.17245719
140	0xbe66e154	-0.22546893
141	0x3e3f91a3	0.187079
142	0xbe815f65	-0.25268093
143	0x3e9fc729	0.31206635
144	0x3e724c0e	0.23661825
145	0xbda26ba4	-0.07930687
146	0x3e83aeec	0.25719392
147	0x3daff627	0.08591872
148	0x3e5fb4a7	0.21846257
149	0x3e708336	0.23487553
150	0xbd9cc280	-0.076542854
151	0x3f0ae72c	0.5425899
152	0xbd6cc3c0	-0.05780387
153	0xbc8cb8e0	-0.017177999
154	0xbef1a220	-0.47194004
155	0xbea4c408	-0.3218081
156	0x3e0c86a5	0.13723238
157	0x3ea63bb2	0.3246742
158	0x3f398072	0.72461617
159	0x3e62d9fb	0.22153465
160	0xbf20e5ee	-0.62850845
161	0x3ce712f3	0.028207278
162	0x3f41992e	0.7562436
163	0x3ebe7798	0.37200618
164	0xbc6e87ca	-0.014558742
165	0x3efadc72	0.4899631
166	0xbe6b8aa1	-0.23002101
167	0x3b81c465	0.0039601796
168	0xbf3e7eaf	-0.74412054
169	0xbe605a40	-0.21909428
170	0xc070aa87	-3.7604082
171	0x3ff562f3	1.9170822
172	0xbc82c80b	-0.015964529
173	0xbdb747c0	-0.08949232
174	0x3f44c7ab	0.7686717
175	0x3efbbf49	0.49169376
176	0x3e5b51fd	0.21417995
177	0xbd42ed47	-0.047589567
178	0xbe92fbc4	-0.28707707
179	0x3f3d1870	0.73865414
180	0xbe000850	-0.12503171
181	0xbd259240	-0.040422678
182	0xbedc8b32	-0.43074948
183	0xbdca44f0	-0.0987643
184	0xbee28bc1	-0.4424725
185	0x3e96d2a4	0.2945758
186	0xbe70766f	-0.23482679
187	0xbeceec81	-0.40414813
188	0x3deb21fd	0.11481092
189	0xbd51c5ec	-0.051214144
190	0x3f24c162	0.6435758
191	0xbf6187dc	-0.8809793
192	0xbd70563c	-0.05867599
193	0x3ec35a2f	0.38154742
194	0x3eb9ee3f	0.3631458
195	0xbedbdfc4	-0.42944157
196	0x3e058469	0.13038792
197	0x3de7f803	0.11326601
198	0x3f1fb679	0.62387806
199	0xbece7781	-0.4032555
200	0x3e2010ad	0.15631361
201	0xbf3d8ad2	-0.7403995
202	0x3e421dea	0.18956724
203	0x3dcdc635	0.100475706
204	0x3e8d317f	0.27576825
205	0x3da89cfe	0.08233069
206	0x3c8cd9ef	0.017193763
207	0xbb305c19	-0.0026910363
208	0x3d1fd1cc	0.039018437
209	0x3e90828b	0.28224596
210	0x3e21b396	0.15791163
211	0x3e33a485	0.17543228
212	0xbef23c0e	-0.47311443
213	0x3e564630	0.20925212
214	0x3efcba84	0.4936105
215	0x3f099e09	0.5375677
216	0x3eb4d08a	0.35315353
217	0xbeac0501	-0.33597568
218	0xbe61cb8e	-0.22050306
219	0x3dc485d8	0.09595841
220	0xbefd8c5a	-0.49521142
221	0x3e61510a	0.2200357
222	0x3d160332	0.03662414
223	0xbee38c23	-0.44442853
224	0x3ed6ec05	0.41976944
225	0xbe44120b	-0.19147508
226	0xbf0a070a	-0.5391699
227	0x3f0d644c	0.55231166
228	0x3e40c61d	0.18825574
229	0x3e344fa2	0.17608503
230	0xbd1931ba	-0.03740094
231	0xbe55fafd	-0.20896526
232	0x3ec81a3e	0.3908252
233	0xbda8fddd	-0.082515456
234	0xbdb1927c	-0.08670518
235	0x3ed1560e	0.40885967
236	0xbebb4130	-0.36573172
237	0x3dcb0791	0.099135526
238	0x3f12d7ae	0.5736035
239	0xbea8981c	-0.3292855
240	0xbed24576	-0.4106862
241	0xbd3365c0	-0.04379821
242	0x3e570d94	0.21001273
243	0xbc6d4200	-0.014481068
244	0xc0038b28	-2.0553684
245	0x3e35517b	0.17706864
246	0x3f05efa9	0.5231882
247	0xbfbdbf23	-1.4823955
248	0xbed5ad8a	-0.41733962
249	0x3ede55aa	0.43424731
250	0x3ea0d2df	0.31410882
251	0xbd9b0e90	-0.07571137
252	0xbdebef6b	-0.11520275
253	0xbc8a8b39	-0.01691209
254	0x3ea75214	0.32679808
255	0xbf02174c	-0.508168

linear_stack.0.bias f4 [400]
0	0xbdda1ec1	-0.10650397
1	0x3ed3c34f	0.41359946
2	0xbf1da72a	-0.615832
3	0x3f5d261a	0.86386263
4	0x3f3124bd	0.69196683
5	0xbe8a1650	-0.26970148
6	0x3f8766c7	1.057824
7	0x3f35ffa3	0.71093196
8	0xbe3c9254	-0.18415195
9	0x3d800791	0.06251443
10	0x3f2572c0	0.6462822
11	0xbf284027	-0.6572289
12	0xbda06c38	-0.07833141
13	0xbeb023a8	-0.34402204
14	0x3f60d5b4	0.87826085
15	0x3ea7993b	0.32734093
16	0x3f6b280b	0.91857976
17	0x3f780fde	0.9689921
18	0x3d42a891	0.04752404
19	0xbf5ecdb5	-0.87032634
20	0x3f07441c	0.528383
21	0xbd8a2167	-0.06744652
22	0x3ed85ec4	0.422598
23	0x3eee43f2	0.46536213
24	0xbf1ad9f7	-0.6048884
25	0x3da8846f	0.08228385
26	0x3eb1db68	0.34737706
27	0x3ea1c6d6	0.31597012
28	0x3ebd7ecc	0.370108
29	0x3ebbf56c	0.3671068
30	0x3ef59413	0.47964534
31	0xbf0e05ba	-0.5547749
32	0x3dc6f047	0.09713798
33	0x3e02e553	0.12782793
34	0xbf330d0f	-0.699418
35	0x3eb625e3	0.3557578
36	0x3e011b6f	0.12608121
37	0x3f156319	0.58354336
38	0xbef459d6	-0.4772479
39	0x3fa6ce8d	1.3031784
40	0xbd419373	-0.04725976
41	0x3f206161	0.6264859
42	0x3f3b5b07	0.7318577
43	0x3d7f2723	0.062293183
44	0xbe8bd05e	-0.2730741
45	0xbdaa01e8	-0.08301145
46	0xbee4ed81	-0.4471245
47	0x3f185e2e	0.59518707
48	0x3f00c505	0.5030063
49	0x3e81f6f4	0.25383723
50	0xbe802882	-0.25030905
51	0x3efbcebe	0.4918117
52	0x3f348438	0.7051425
53	0x3d1e1cf4	0.03860183
54	0x3f1649a1	0.587061
55	0x3c13064e	0.008973671
56	0x3f09bb05	0.53800994
57	0xbf46c3ff	-0.77642816
58	0xbf206d9b	-0.62667245
59	0x3e9c8a7a	0.305744
60	0xbed7b3f2	-0.42129475
61	0x3f2adbb5	0.66741496
62	0x3f350658	0.70712805
63	0x3d5fdb2f	0.05465239
64	0x3d76fcef	0.06029981
65	0x3e230e3a	0.15923396
66	0xbf0bc92d	-0.54603845
67	0x3ef9c6c5	0.48784462
68	0x3e9a54a0	0.3014269
69	0x3f2def7c	0.6794355
70	0xbf1affa8	-0.6054635
71	0x3f04704f	0.5173387
72	0xbf2775e5	-0.6541427
73	0x3c812351	0.01576391
74	0xbcce8873	-0.025211548
75	0xbe557f48	-0.20849335
76	0x3f781d38	0.96919584
77	0x3f0b627c	0.5444715
78	0xbe469fac	-0.19396847
79	0x3e017dc2	0.12645629
80	0xbe1cec00	-0.15324402
81	0x3e5aac14	0.21354705
82	0x3f223f23	0.6337759
83	0x3f410df0	0.7541189
84	0xbeeacfca	-0.45861655
85	0x3f22334d	0.6335953
86	0xbe9a2a30	-0.30110312
87	0xbed10e24	-0.408311
88	0x3f86f150	1.0542393
89	0xbe29b99c	-0.1657471
90	0xbe8f8d44	-0.28037465
91	0x3eb68399	0.35647276
92	0xbe960737	-0.2930238
93	0xbeea527a	-0.4576605
94	0xbeb1c514	-0.3472067
95	0xbe584b74	-0.21122533
96	0x3e4841c1	0.19556333
97	0xbea8ffc6	-0.3300764
98	0xbf0c0b10	-0.5470438
99	0x3eed24b9	0.4631708
100	0xbf256ec8	-0.64622164
101	0xbd77f090	-0.060532153
102	0x3f2e22ce	0.6802186
103	0xbe68a6d9	-0.22719897
104	0xbf1ad711	-0.60484415
105	0x3ec550db	0.3853825
106	0x3f2df5ee	0.67953384
107	0xbe0057f3	-0.1253355
108	0x3e676786	0.22598085
109	0x3ee58923	0.4483119
110	0x3eab6ef6	0.33483094
111	0x3e92b267	0.28651735
112	0x3f730f6a	0.94945395
113	0x3ed28572	0.41117436
114	0xbeb755bc	-0.35807598
115	0xbe2fabfd	-0.17155452
116	0x3f110d8a	0.56661284
117	0x3eb03291	0.3441358
118	0x3e728795	0.23684533
119	0x3f4511f7	0.7698054
120	0x3f1cb584	0.6121447
121	0x3edf05cc	0.4355911
122	0x3f32c5e1	0.6983319
123	0xbee93ce8	-0.4555428
124	0x3e8a081d	0.26959315
125	0x3ee353ac	0.44399774
126	0xbdb20e10	-0.086940885
127	0xbf0cae50	-0.5495348
128	0x3ed3de5b	0.4138058
129	0xbed39bcc	-0.413298
130	0xbe5a2030	-0.21301341
131	0x3f941503	1.1568912
132	0xbe3c1c4c	-0.1837017
133	0xbec4e050	-0.38452387
134	0x3edb570a	0.42839843
135	0xbe8acbcf	-0.2710862
136	0x3e82cfa8	0.25549054
137	0xbf31c59b	-0.69442147
138	0x3f2ebc2e	0.6825589
139	0xbe6b9f1b	-0.23009913
140	0x3ebed2fb	0.3727034
141	0xbf0df32f	-0.55449194
142	0xbf5b9a3d	-0.85782224
143	0x3fa154ac	1.2603965
144	0xbeae280c	-0.34014928
145	0x3d6f86ff	0.05847835
146	0xbdb0985e	-0.08622812
147	0x3f29431b	0.6611802
148	0x3ea2f72e	0.31829208
149	0x3f3e82aa	0.7441813
150	0xbbad2f08	-0.0052851476
151	0xbe617ae8	-0.22019541
152	0x3f12de4e	0.5737046
153	0x3ec4cb80	0.38436508
154	0x3e95acd7	0.2923343
155	0xbf10ca94	-0.5655911
156	0xbf06e2b2	-0.5268966
157	0x3e8e86aa	0.27837116
158	0xbec01cce	-0.37521976
159	0x3f94376a	1.1579411
160	0x3f89e0ed	1.0771767
161	0xbe89c41c	-0.26907432
162	0xbea50066	-0.32226866
163	0x3f837170	1.0268993
164	0xbeb957d9	-0.36199835
165	0xbf07944a	-0.52960646
166	0xbefd8f6c	-0.49523485
167	0x3e9b4041	0.3032246
168	0x3f635504	0.888016
169	0x3ead5b95	0.33858934
170	0x3f121940	0.5706978
171	0x3f5dfd3d	0.86714536
172	0x3f0915ea	0.53549063
173	0x3f921346	1.1412132
174	0x3d551038	0.05201742
175	0xbeab6928	-0.33478665
176	0x3f8973dc	1.0738482
177	0xbe8ab9d4	-0.270949
178	0x3ee419d1	0.44550946
179	0x3eb0943b	0.3448809
180	0x3ea54122	0.32276255
181	0xbd321224	-0.04347433
182	0xbee4dc55	-0.4469935
183	0x3f6666a3	0.9000036
184	0x3f61914e	0.8811234
185	0xbecb4a1c	-0.39704978
186	0xbe11c9f8	-0.14237201
187	0x3e43116e	0.19049618
188	0x3f10bc67	0.5653748
189	0xbd4eeee0	-0.050520778
190	0xbe6079b0	-0.2192142
191	0x3f664431	0.899478
192	0xbf25731b	-0.6462876
193	0x3f1dbb7d	0.6161421
194	0x3e7db612	0.24776486
195	0x3f1ed88e	0.62049186
196	0x3f0b8705	0.545029
197	0x3e194815	0.14968903
198	0x3f1c3bad	0.6102856
199	0x3e66327c	0.22480196
200	0x3f0b3559	0.5437828
201	0x3f58b43f	0.84650034
202	0xbe8ee2f6	-0.27907532
203	0x3f07fc16	0.5311903
204	0xbedfb21e	-0.4369058
205	0x3ec9df53	0.39428195
206	0xbe9d3573	-0.3070484
207	0x3ef65be6	0.48116988
208	0x3e4bf679	0.1991824
209	0xbe093673	-0.13399677
210	0xbe9264e1	-0.2859259
211	0x3f202f82	0.6257249
212	0x3efadf15	0.48998323
213	0xbeea2860	-0.4573393
214	0x3f882c26	1.0638473
215	0xbf19a409	-0.6001592
216	0xbe9d0e1c	-0.30674827
217	0x3ec442c4	0.38332188
218	0x3f3943d4	0.7236912
219	0x3f118fc4	0.56859994
220	0xbe8eda5c	-0.2790097
221	0x3e88893f	0.2666721
222	0xbec6189f	-0.3869066
223	0x3ed53d62	0.41648394
224	0x3e568462	0.20948938
225	0x3ec46423	0.38357648
226	0xbee5ef89	-0.44909313
227	0x3ee50c7b	0.44736084
228	0x3f2e9fbb	0.6821248
229	0xbf0463cb	-0.5171477
230	0x3ec4c539	0.3843172
231	0xbd78e256	-0.060762726
232	0xbe1590ca	-0.14606014
233	0x3f2f3fb6	0.6845659
234	0xbf39b32d	-0.72539026
235	0x3df68445	0.12036947
236	0x3eae8d84	0.34092343
237	0x3ee67b7c	0.45016086
238	0xbf1285d5	-0.5723546
239	0xbedbdc0b	-0.42941317
240	0x3e7cbf0b	0.24682252
241	0xbf27b5c5	-0.65511733
242	0x3eb6eac7	0.35725996
243	0xbea1e9fe	-0.31623834
244	0x3c498d69	0.012301781
245	0x3f27ee83	0.65598315
246	0xbed494d6	-0.41519803
247	0xbdcce325	-0.10004262
248	0xbf079492	-0.52961075
249	0x3f32dc02	0.69866955
250	0x3f9de31a	1.2334931
251	0xbf078fa7	-0.5295357
252	0x3f7ccceb	0.9875018
253	0x3ef297a0	0.47381306
254	0xbebf028f	-0.3730664
255	0x3f17b3ce	0.59258735

linear_stack.2.weight f4 [400, 400]
0	0x3d1944bb	0.037419062
1	0xbd0fb710	-0.03508669
2	0xbdd7f73b	-0.10545202
3	0x3dc62117	0.0967428
4	0x3c87880a	0.01654436
5	0x3d4958e0	0.049157023
6	0x3df79953	0.12089791
7	0x3c923983	0.01784969
8	0xbda65fd2	-0.08123745
9	0xbddce2d2	-0.1078545
10	0x3c4aaed2	0.012370782
11	0xbef17e84	-0.47166836
12	0x3c40b53a	0.011761958
13	0xbe421610	-0.18953729
14	0x3da82f95	0.082122006
15	0xbd894edc	-0.06704494
16	0x3f690f85	0.91039306
17	0x3e727a17	0.23679386
18	0xbd987120	-0.07443452
19	0xbe5bb7ee	-0.21456882
20	0xbe9de612	-0.30839592
21	0x3e3fe88c	0.18741053
22	0xbde1a9ac	-0.110186905
23	0xbc157ea2	-0.00912443
24	0xbe106ce8	-0.14104044
25	0xbe0c1064	-0.13678128
26	0xbcdde875	-0.027088383
27	0xbdc0ac33	-0.094078444
28	0xbd302bff	-0.043010708
29	0xbdb6e7ba	-0.08930917
30	0x3c487f54	0.012237389
31	0xbc65d8e2	-0.01402876
32	0xbddb43db	-0.10706302
33	0xbe0709de	-0.13187358
34	0xbe78a8b5	-0.24283107
35	0x3e18c5a4	0.14919144
36	0xbd432594	-0.04764326
37	0xbd193fd3	-0.037414383
38	0x3d27e4ad	0.040989567
39	0x3e940d1b	0.2891625
40	0xbdda0059	-0.106445976
41	0xbad9c2e4	-0.0016613868
42	0xbdb11590	-0.08646691
43	0xbdd624b3	-0.104562186
44	0xbdf35244	-0.11880925
45	0xbd3ad240	-0.045610666
46	0xbe49d5a6	-0.19710407
47	0x3e9d9410	0.30777025
48	0xba7ba6f2	-0.0009599767
49	0xbda0df5e	-0.07855104
50	0x3e032d25	0.1281019
51	0x3b755701	0.0037435892
52	0xbd464c49	-0.048412595
53	0xbe139ca3	-0.14415221
54	0x3e319b2d	0.17344351
55	0xbde73633	-0.112896346
56	0x3ea6a9cf	0.3255143
57	0xbe128243	-0.14307503
58	0xbdef8a4c	-0.116963
59	0xbd24e837	-0.04026052
60	0xbd3f0caf	-0.046642955
61	0x3eeab5fe	0.45841974
62	0xbd9ca966	-0.07649498
63	0xbe25fcc9	-0.16209711
64	0xbe1013b0	-0.1407001
65	0xbdd598d4	-0.1042954
66	0x3e2239d7	0.15842377
67	0xbb03a251	-0.0020085762
68	0xbe089b5f	-0.1334052
69	0x3edb5bfb	0.42843613
70	0xbd63a927	-0.055581238
71	0x3ebcabb5	0.36849752
72	0xbefa38d6	-0.48871487
73	0xbda0c266	-0.078495786
74	0xbd3d5370	-0.04622215
75	0x3d314a72	0.043283887
76	0x3e816057	0.25268814
77	0xbd40a757	-0.047034588
78	0xbc1d2b20	-0.009592801
79	0xbdaa0a75	-0.08302776
80	0xbd2b040d	-0.04175191
81	0x3dc44fbb	0.0958552
82	0x3ea0a352	0.31374604
83	0x3e6d1d36	0.23155674
84	0xbcacaa17	-0.021077199
85	0x3e9e2e5d	0.30894747
86	0x3d0883c7	0.033328798
87	0xbc6579a0	-0.014006048
88	0x3e5c3790	0.2150557
89	0xbe29651c	-0.16542476
90	0xbd085aad	-0.0332896
91	0xbd9cdd62	-0.07659413
92	0x3cdabf0f	0.026702432
93	0x3c63c100	0.013900995
94	0xbe24ae6c	-0.16082162
95	0xbc8d78a0	-0.017269433
96	0xbd36970d	-0.044577647
97	0x3c074e5a	0.008258427
98	0xbe82bd99	-0.25535277
99	0xbda728ee	-0.081621036
100	0xbe3d1bce	-0.18467638
101	0x3cbf38e3	0.023342555
102	0x3d0eb316	0.03483876
103	0x3dc547dd	0.096328475
104	0xbe27786a	-0.16354528
105	0xbd8196be	-0.0632758
106	0xbd34d50a	-0.044148482
107	0xbf0c5473	-0.5481636
108	0xbbaec3e1	-0.005333409
109	0xbd562850	-0.05228454
110	0xbd61c6b1	-0.055121128
111	0xbde5ba06	-0.11217122
112	0x3d48fe55	0.049070675
113	0xbdb0285a	-0.086014464
114	0xba9d9b00	-0.0012024343
115	0x3c68153a	0.014165217
116	0xbac87a13	-0.001529517
117	0x3c19d927	0.009390152
118	0xbda4e5c8	-0.0805164
119	0xbc12f85d	-0.008970347
120	0x3d60b63c	0.054861292
121	0xbc88dfa2	-0.016708199
122	0xbcd4216d	-0.025894845
123	0xbc7be755	-0.015374978
124	0x3d12a6df	0.035803672
125	0xbe12be88	-0.14330494
126	0x3c88174d	0.016612673
127	0x3cd26012	0.025680576
128	0xbd964754	-0.073378235
129	0xbd3c8dc3	-0.046033632
130	0xbd48d5ea	-0.04903213
131	0x3e4585a4	0.19289261
132	0x3bcc8f80	0.0062426925
133	0xbe4ae295	-0.19812997
134	0xbd06b5a4	-0.03288807
135	0x3dc630de	0.096772894
136	0xbd08561e	-0.033285253
137	0xbe493e46	-0.19652662
138	0x3e53602e	0.20642158
139	0xbdb98379	-0.090582795
140	0xbdaa8159	-0.08325452
141	0xbe6d1abd	-0.23154731
142	0xbe45f335	-0.19331057
143	0x3e3bc357	0.18336235
144	0xbde9319b	-0.113864146
145	0xbd4811d6	-0.048845135
146	0x3e4a0bc4	0.1973105
147	0xbcd239a3	-0.025662249
148	0xbd29dd9e	-0.041471116
149	0x3e11ad3e	0.14226243
150	0xbdb62126	-0.08893041
151	0x3ee017e4	0.43768227
152	0xbcafca2e	-0.021458711
153	0xbbc39d17	-0.0059696543
154	0xbd2380e4	-0.03991784
155	0x3d2511dc	0.040300235
156	0xbdc55b34	-0.09636536
157	0xbd67eb78	-0.056621045
158	0x3d2005d0	0.039068043
159	0x3e8e0321	0.27736762
160	0x3e314754	0.17312366
161	0xbdfed6a6	-0.12443285
162	0xbcd3d62d	-0.025858963
163	0x3e3f344e	0.18672296
164	0xbe267494	-0.16255409
165	0xbe127113	-0.14300947
166	0xbe400721	-0.1875272
167	0x3df62abc	0.1201987
168	0x3f1625ff	0.5865173
169	0xbdd1c5b6	-0.102427885
170	0xbda3d622	-0.07999827
171	0x3e39109b	0.1807274
172	0xbe8a5cce	-0.2702393
173	0x3e6d70a2	0.23187497
174	0xbaa25e8b	-0.0012387795
175	0x3f1c3c32	0.6102935
176	0x3e3a220a	0.18177047
177	0x3e1128fc	0.1417579
178	0xbc9590d4	-0.018257536
179	0xbca94874	-0.020664431
180	0xbe0e3af9	-0.13889684
181	0xbe194c31	-0.14970471
182	0x3dae9d3f	0.08526086
183	0x3e023e94	0.12719184
184	0x3e5a56ec	0.2132222
185	0xbd20c460	-0.039249778
186	0xbdffc3a4	-0.12488487
187	0xbd944d46	-0.07241301
188	0x3eb26975	0.34846082
189	0xbe07036c	-0.13184899
190	0x3c451800	0.012029648
191	0x3d7e8388	0.062137157
192	0xbe925508	-0.285805
193	0xbce11eaa	-0.027480442
194	0xbd97cd22	-0.07412173
195	0xbc1cd2c5	-0.009571736
196	0xbef5e23e	-0.48024172
197	0xbd7555c4	-0.059896246
198	0xbca91376	-0.020639163
199	0xbdb165e1	-0.0866201
200	0xbdc92987	-0.09822374
201	0x3e1aae14	0.15105468
202	0x3ccc0233	0.024903392
203	0xbcf861a0	-0.030319989
204	0xbdd5d61d	-0.104412295
205	0xbdf35405	-0.1188126
206	0xbebd8e3b	-0.37022576
207	0x3def5355	0.11685816
208	0xbb9101a4	-0.0044252444
209	0x3e4a018b	0.19727151
210	0x3e0aae8b	0.13543145
211	0x3e4d0e80	0.20025063
212	0xbc8c1db8	-0.017104015
213	0x3cf72dc0	0.030173182
214	0xbe2e7601	-0.17037202
215	0xbe883efb	-0.2661055
216	0xbdb74927	-0.089494996
217	0xbcf67633	-0.030085659
218	0xbd2964df	-0.041355964
219	0xbda648fd	-0.0811939
220	0xbd0623ab	-0.03274886
221	0xbd210a4d	-0.039316464
222	0xbe04e941	-0.12979604
223	0xbd8fd93e	-0.070238575
224	0xbd8da85f	-0.0691688
225	0xbeb67551	-0.3563638
226	0xba8d1a2b	-0.0010765245
227	0xba3f02d6	-0.00072864944
228	0xbda7b392	-0.08188547
229	0xbe62f03c	-0.22161955
230	0x3aff3a38	0.0019472307
231	0xbd990d07	-0.07473188
232	0xbe1ed338	-0.15510261
233	0xbb9029b9	-0.004399505
234	0xbec6bd1e	-0.3881616
235	0xbd726229	-0.059175644
236	0xbce31a94	-0.027722634
237	0xbda325c3	-0.07966187
238	0xbe44b52b	-0.19209735
239	0xbe31cf5c	-0.17364258
240	0x3e2dc8c3	0.16971116
241	0xbde1958b	-0.11014851
242	0xbd38bced	-0.04510205
243	0xbc74ace7	-0.014933801
244	0xbd09d4a9	-0.033650074
245	0xbd7e56ca	-0.062094487
246	0x3d4caaad	0.049967457
247	0xbe5ee115	-0.2176555
248	0xbdd37b34	-0.103262335
249	0x3e404cbf	0.18779276
250	0x3e9f37b0	0.31097174
251	0xbe0bc81b	-0.13650553
252	0x3e93c742	0.2886296
253	0xbda93060	-0.0826118
254	0xbda15e6c	-0.07879338
255	0x3ce18d6e	0.02753326

linear_stack.2.bias f4 [400]
0	0x3e857a4a	0.26069862
1	0x3e564222	0.20923665
2	0x3ca5043d	0.020143623
3	0x3c65eb5a	0.014033163
4	0x3e0c1dc1	0.13683225
5	0xbd187bff	-0.037227627
6	0x3e716970	0.23575377
7	0x3e46c8d0	0.19412541
8	0x3e130c59	0.14360179
9	0x3e589ba7	0.21153127
10	0xbc4c60a0	-0.012474209
11	0x3ddb637b	0.10712334
12	0x3c6ab872	0.014326202
13	0x3e1e1d7a	0.15440932
14	0x3c2fe210	0.01073505
15	0xbcc95f3d	-0.024581546
16	0x3e3060bb	0.172244
17	0xbd2877b0	-0.041129768
18	0x3e207dd3	0.15672998
19	0xbd03d1b9	-0.03218243
20	0x3e2cf5bc	0.16890615
21	0x3e19f536	0.15034947
22	0xbd1485ab	-0.03626029
23	0x3cea458b	0.028597614
24	0x3c54a804	0.012979511
25	0xbd4bcbb3	-0.04975481
26	0xbc2ec943	-0.010668102
27	0x3dfdafe0	0.12387061
28	0x3d1ddc7a	0.03854034
29	0x3e3d5d90	0.18492723
30	0x3e1a3a8d	0.15061398
31	0xbc96a023	-0.018386906
32	0x3e4b7718	0.1986965
33	0x3dff86bb	0.1247687
34	0x3decacb0	0.11556375
35	0x3eb6836e	0.35647148
36	0x3e822afa	0.25423414
37	0x3e374ae7	0.17899667
38	0xbd446485	-0.047947425
39	0x3e103c58	0.1408552
40	0xbd07ab68	-0.03312245
41	0x3deddc74	0.11614314
42	0x3c827c5d	0.015928442
43	0x3e7a3a47	0.24436294
44	0x3bd6b998	0.006552886
45	0xbc3a7993	-0.011381525
46	0x3e0905c7	0.1338111
47	0x3d3a503f	0.045486685
48	0x3dcccd93	0.10000148
49	0x3c79091a	0.015199924
50	0x3e50a2df	0.2037463
51	0x3e4ece10	0.20195794
52	0xbd35c1a2	-0.044374116
53	0xbce20206	-0.027588855
54	0x3e3da2df	0.18519162
55	0x3bc32985	0.0059558772
56	0x3ccc058f	0.024904994
57	0xbcf55e65	-0.029952237
58	0x3e28a8e6	0.1647068
59	0x3e14862b	0.14504306
60	0x3e048489	0.12941183
61	0x3e1dbd86	0.15404329
62	0x3bfbd930	0.007685803
63	0xbd3e2627	-0.046423104
64	0x3ce9d35a	0.028543163
65	0xbe4932cc	-0.19648284
66	0x3d42aa53	0.047525715
67	0xbcfdfa44	-0.031003125
68	0xbcd56df9	-0.026053416
69	0xbca81372	-0.020517085
70	0x3e67e45c	0.22645706
71	0x3e44eb17	0.19230305
72	0x3e303b12	0.17210034
73	0x3dfce25e	0.123478636
74	0x3ca9a09b	0.020706465
75	0x3d232347	0.039828565
76	0x3da97e81	0.08276082
77	0x3e1d540c	0.15364093
78	0x3cfd38de	0.030910905
79	0x3dafc7fc	0.08583066
80	0x3b9d92ec	0.004808774
81	0x3e25ee17	0.16204105
82	0xbd5059fc	-0.050867066
83	0xbcb67c9a	-0.022276212
84	0x3e220013	0.15820341
85	0x3e4a2e57	0.1974424
86	0x3d21a92c	0.039467975
87	0x3d11b2ca	0.035570897
88	0x3e821556	0.25406903
89	0x3d7768cc	0.060402676
90	0x3ca997d3	0.020702278
91	0x3e0fa81d	0.14028974
92	0xbd23e703	-0.04001523
93	0x3ca631b8	0.02028738
94	0x3c0f0d44	0.00873119
95	0x3e4d87d9	0.20071353
96	0x3e1899cc	0.14902419
97	0x3e6966a8	0.22793067
98	0x3e5fdb2e	0.21860954
99	0x3b66d985	0.0035224867
100	0xbd0d869d	-0.034552205
101	0x3e16e8e4	0.14737278
102	0xbbdafbf3	-0.0066828667
103	0x3e5b5d24	0.21422249
104	0xbce7d6aa	-0.028300602
105	0x3e18e57d	0.14931293
106	0x3e09f443	0.13472085
107	0x3e49b21b	0.19696848
108	0x3d1666c4	0.0367191
109	0x3e5f8e0e	0.21831533
110	0x3e422f2f	0.18963312
111	0x3e6d1b6e	0.23154995
112	0x3e08fd15	0.13377793
113	0x3e3933e3	0.180862
114	0xbd4d90e8	-0.05018702
115	0x3e72ec6c	0.23723
116	0xbb810dd3	-0.0039384156
117	0x3c47aaf2	0.012186753
118	0xbd0a4a6e	-0.033762388
119	0xbcc56429	-0.024095612
120	0x3d24701f	0.04014599
121	0x3cbc378d	0.022975707
122	0x3e33315c	0.17499298
123	0x3e4da514	0.20082504
124	0xbd5404e9	-0.051762495
125	0xbcc1f05d	-0.023674184
126	0x3e455bfc	0.1927337
127	0x3d20dd39	0.039273474
128	0x3e5ba860	0.21450949
129	0xbc7c9ede	-0.015418736
130	0x3e82f9f7	0.25581333
131	0xbca90881	-0.020633938
132	0x3df08cc8	0.11745602
133	0xbc7dab1d	-0.015482691
134	0xbd7a54a2	-0.06111587
135	0x3c8c0e61	0.0170967
136	0xbaa97b35	-0.0012930395
137	0x3e19eb8c	0.1503126
138	0x3c8c755f	0.01714581
139	0x3e1aaf0d	0.15105839
140	0xbb9e42f3	-0.0048297583
141	0x3c93c895	0.01803998
142	0x3e195501	0.14973833
143	0xbad5c8cd	-0.0016310454
144	0x3ca1eeac	0.019767128
145	0xbd2d1b85	-0.042262573
146	0xbd3d4f67	-0.046218302
147	0xbc373f4d	-0.011184526
148	0x3db23ab4	0.08702603
149	0x3e4d22e6	0.20032844
150	0x3de06a47	0.10957771
151	0x3cfca2ed	0.030839408
152	0xbc0439c2	-0.008070411
153	0xbcce0e1c	-0.025153212
154	0x3cf82317	0.03029017
155	0x3e29ae34	0.1657036
156	0x3de21d33	0.110407256
157	0x3d1c36d0	0.03813821
158	0x3e22aeac	0.15886945
159	0x3e7d8351	0.24757124
160	0xbd19e65a	-0.037573196
161	0x3e3f43de	0.18678233
162	0xbcfb5b47	-0.030683173
163	0x3e32aeae	0.17449448
164	0x3e217546	0.15767393
165	0xbc33351a	-0.010937953
166	0x3e145b8a	0.14488044
167	0xbb80bd09	-0.0039287847
168	0x3e2f3a03	0.17111973
169	0x3e4adc64	0.19810635
170	0x3e1f9d48	0.15587342
171	0xbd2415fc	-0.04006003
172	0x3e3555d5	0.17708524
173	0x3cd7ebda	0.02635758
174	0x3d1f3b16	0.038874708
175	0xbcaff6bd	-0.021479959
176	0x3ad5e00b	0.001631738
177	0x3e314634	0.17311937
178	0xbc2c7cfa	-0.010527844
179	0xbcb49e6a	-0.022048194
180	0xbd18a321	-0.037264947
181	0x3eb90c34	0.36142123
182	0x3e31bd63	0.17357402
183	0x3e49c9af	0.19705842
184	0x3d10711b	0.035264116
185	0x3df0a0e4	0.117494375
186	0x3e54aae5	0.20768316
187	0x3d01d6a9	0.031698857
188	0x3e196aed	0.14982195
189	0x3c065113	0.008198041
190	0xbd155042	-0.036453493
191	0x3e4b63bc	0.19862264
192	0x3e15d13f	0.14630602
193	0x3d3091d5	0.043107826
194	0x3e52fc58	0.20604074
195	0xbd4565f6	-0.04819294
196	0x3e94cdc9	0.29063252
197	0x3badc767	0.0053033116
198	0x3e5c385d	0.21505876
199	0x3e49eea9	0.19719948
200	0x3e31e387	0.17371951
201	0x3e47bb90	0.19505143
202	0x3e1481d7	0.14502655
203	0xbbfe0d22	-0.0077530304
204	0xbd32383c	-0.04351066
205	0xbccccfca	-0.025001425
206	0x3e6dafa4	0.23211533
207	0x3e8dd41f	0.27700898
208	0x3e2879ec	0.1645276
209	0xbcdb71ec	-0.02678772
210	0x3cdcc2b7	0.026948316
211	0xbcd9043c	-0.026491277
212	0x3de0400e	0.109497175
213	0x3e29089f	0.16507195
214	0xbd2a43df	-0.041568633
215	0x3e39d3c3	0.18147187
216	0x3d308052	0.043091126
217	0xbc58c678	-0.013230912
218	0x3b2cf6b3	0.0026392161
219	0x3e29b572	0.16573122
220	0xbd4ae3cf	-0.04953366
221	0x3df11064	0.117707044
222	0x3ea5898e	0.32331508
223	0x3e128d79	0.1431178
224	0x3c871b48	0.0164925
225	0xbd1ca7c2	-0.038245924
226	0x3dc6b6e6	0.09702854
227	0x3df2dd4d	0.11858616
228	0x3e863d2b	0.26218542
229	0x3e39cf5e	0.1814551
230	0xbd76e44c	-0.060276315
231	0x3e1530c2	0.14569381
232	0x3e0e82f8	0.13917148
233	0x3cb87bb3	0.022519922
234	0x3e2d9283	0.16950421
235	0x3df009a1	0.117205866
236	0xbd50b201	-0.050951008
237	0x3e2b2e47	0.16716872
238	0x3e65cc52	0.22441223
239	0x3c11b287	0.008892662
240	0xbc2db5cd	-0.010602427
241	0x3e8fec95	0.28110185
242	0xbce76d55	-0.028250376
243	0x3c91f4a3	0.017816847
244	0x3e3d8647	0.18508254
245	0x3e59cb90	0.21269059
246	0x3e3c003c	0.18359464
247	0x3d2293a4	0.039691582
248	0x3de565a4	0.11201027
249	0x3e82c862	0.25543505
250	0xbc2a32f8	-0.010388128
251	0x3e30145b	0.17195265
252	0x3de65334	0.112463385
253	0x3e59e444	0.21278483
254	0x3e24706e	0.16058514
255	0x3e7ce5c7	0.24697028

linear_stack.4.weight f4 [5, 400]
0	0x3e9d1933	0.30683288
1	0x3e66e9f9	0.22550191
2	0xbbe1c4ea	-0.006889929
3	0x3d030110	0.031983435
4	0xbcda75d3	-0.026667511
5	0xbccc398c	-0.024929784
6	0x3e439d67	0.19103013
7	0x3e303b35	0.17210086
8	0xbc549ff6	-0.012977591
9	0x3e364f17	0.17803608
10	0xbce1e909	-0.02757694
11	0x3d82700a	0.06369026
12	0x3d2ac7b5	0.04169436
13	0x3e529320	0.20563936
14	0xb93da800	-0.0001808703
15	0xbd100baa	-0.035167374
16	0x3e42aae5	0.19010504
17	0xbc5eb207	-0.01359225
18	0x3cd72ccf	0.026266484
19	0x3b99c608	0.0046927966
20	0x3e3df220	0.18549395
21	0x3e92b587	0.2865412
22	0x3d329e11	0.043607775
23	0xbc991a80	-0.018689394
24	0xbd2123e1	-0.039340857
25	0xbcf68f7a	-0.030097712
26	0xbc26ed76	-0.010188451
27	0x3d48cf5d	0.049025882
28	0x3d20e11b	0.039277177
29	0x3e6d57bf	0.23178004
30	0x3e5988ba	0.21243563
31	0x3cff50bd	0.031166429
32	0x3e51a883	0.20474438
33	0x3e40f431	0.18843152
34	0x3dc0d461	0.09415508
35	0x3f1c30b6	0.61011827
36	0x3e2a5005	0.16632088
37	0x3ea90a50	0.3301568
38	0xbcf94f47	-0.03043331
39	0x3de6ad52	0.11263527
40	0x3cfec3f9	0.031099306
41	0x3d5430fd	0.05180453
42	0xbcc995e0	-0.024607599
43	0x3e474ad7	0.19462143
44	0xbcf48c78	-0.029852137
45	0x3d405278	0.04695365
46	0x3e0da933	0.13834076
47	0x3d1b0caa	0.037853874
48	0x3a3a082f	0.00070965564
49	0x3cf4167a	0.029795874
50	0x3e88c7e1	0.26714996
51	0x3e1a7831	0.15084912
52	0xbb7b8f33	-0.0038384914
53	0x3c92e77a	0.017932642
54	0x3e73000e	0.2373049
55	0xbd10f195	-0.03538664
56	0xbd3d29f6	-0.046182595
57	0xbbe6b100	-0.007040143
58	0x3d5579e1	0.052118186
59	0x3e383254	0.17987949
60	0x3e5e8355	0.21729787
61	0x3d041065	0.032242198
62	0x3c712118	0.014717363
63	0xbc55a65f	-0.013040154
64	0x3c898b87	0.016790165
65	0xbe38ab2b	-0.18034045
66	0x3dacb792	0.08433451
67	0xbd020ab6	-0.031748496
68	0x3d6be932	0.05759544
69	0x3a0a9201	0.00052860385
70	0x3e11c0af	0.14233659
71	0x3e5bd927	0.21469556
72	0x3e41b094	0.18915015
73	0x3e4530bc	0.19256872
74	0x3d0f17d4	0.034934834
75	0x3c05328d	0.008129728
76	0xbcd518a8	-0.026012734
77	0x3e432665	0.19057615
78	0x3ca2c66c	0.019870006
79	0x3d3a551a	0.045491315
80	0xba84959a	-0.0010115386
81	0x3d83df75	0.064391054
82	0xbc3eb04a	-0.01163871
83	0xbd118a80	-0.035532475
84	0x3e820d22	0.25400645
85	0x3e58de43	0.21178536
86	0x3c486bca	0.01223273
87	0xbd17b4d7	-0.037037697
88	0x3ea0d431	0.3141189
89	0x3dcea9f9	0.100910135
90	0x3d2b9165	0.041886706
91	0x3dd8b601	0.105815895
92	0xbc97ddc2	-0.01853836
93	0xbc8e3b8c	-0.017362379
94	0x3dc23943	0.09483578
95	0x3e477014	0.19476348
96	0x3e26dbc6	0.16294774
97	0x3dbbd5f4	0.09171668
98	0x3e2ef199	0.1708435
99	0xbcd29232	-0.025704477
100	0x3d22b9f8	0.039728135
101	0x3e2118be	0.15732095
102	0x3d325853	0.043541264
103	0x3eb9a086	0.36255282
104	0x3b524280	0.0032083094
105	0x3e392925	0.18082102
106	0x3b810792	0.00393767
107	0x3e2b1d2d	0.16710348
108	0xbcc47f5c	-0.023986511
109	0x3e1700be	0.14746377
110	0x3dae5235	0.085117735
111	0x3e640322	0.2226682
112	0x3d435f95	0.047698576
113	0x3e70470a	0.23464599
114	0x3c8b7307	0.017022623
115	0x3e9fd00d	0.31213418
116	0xbce96b26	-0.028493475
117	0x3d0b304e	0.033981614
118	0x3cee858d	0.029116416
119	0xbc312767	-0.010812617
120	0x3d3d0cb1	0.04615468
121	0xbca5c857	-0.020237131
122	0x3e38e164	0.1805473
123	0x3e1e16ed	0.15438433
124	0xbc8d8348	-0.017274514
125	0xbc1f9ae0	-0.009741515
126	0x3e415662	0.18880609
127	0x3c80a3ff	0.0157032
128	0x3e82177c	0.25408542
129	0x3ce2e404	0.027696617
130	0x3e87b1f1	0.26502946
131	0xbc798034	-0.01522832
132	0x3c89d29e	0.016824063
133	0xbcc45ad6	-0.023969095
134	0xbc7348da	-0.014848912
135	0x3bab4b75	0.005227501
136	0x3d4f1875	0.050560433
137	0x3e26a8c4	0.16275316
138	0xbc44bf31	-0.012008474
139	0x3e662ac5	0.22477253
140	0xbd198bb0	-0.037486732
141	0x3c0b61f2	0.008507239
142	0x3e52cb2b	0.20585315
143	0x3cd014ad	0.025400484
144	0xbcc62fe6	-0.024192762
145	0xbceb0223	-0.028687542
146	0xbcf8a490	-0.030351907
147	0xbc8a365e	-0.016871627
148	0xbc0b30bb	-0.008495505
149	0x3e68962a	0.22713533
150	0x3e234306	0.15943536
151	0xbcd09a5c	-0.02546423
152	0x3c58365a	0.013196552
153	0xbce45245	-0.02787126
154	0x3d45f53a	0.04832957
155	0x3e56f69a	0.20992509
156	0xbd1974ea	-0.037465014
157	0xbc73afca	-0.014873454
158	0x3da8bbf6	0.08238976
159	0x3ea989ab	0.33112845
160	0xbd149a3f	-0.036279913
161	0x3e79e590	0.24403977
162	0xbd23a52a	-0.039952435
163	0x3eab292b	0.33429846
164	0x3c3e0d23	0.011599812
165	0x3c748c8d	0.014926088
166	0x3e3fd080	0.1873188
167	0xbcd1a76a	-0.025592525
168	0x3e4ffe09	0.2031175
169	0x3e6e7824	0.23288018
170	0x3e52da4e	0.20591089
171	0x3caf06ec	0.021365605
172	0x3e16dbf5	0.14732344
173	0xbd2d0bcd	-0.042247582
174	0xbc9b4ba9	-0.018956976
175	0xbca2d89d	-0.01987868
176	0xbd1444dd	-0.036198486
177	0x3e39ee82	0.1815739
178	0x3cfe09da	0.031010557
179	0x3d09137f	0.03346586
180	0x3c087de0	0.008330792
181	0x3fb12420	1.383915
182	0x3e108cc9	0.14116205
183	0x3e282ce9	0.16423382
184	0x3ccfb3ad	0.02535423
185	0x3d693805	0.05693819
186	0x3e6d1984	0.23154265
187	0x3d362786	0.044471286
188	0x3e340350	0.17579389
189	0xbcb646c3	-0.022250539
190	0x3c674a9e	0.014116911
191	0x3e62d6aa	0.221522
192	0x3e42b2df	0.19013546
193	0xbd061cd0	-0.03274232
194	0x3e1048ba	0.14090243
195	0xbc3d439c	-0.011551764
196	0x3ebf3910	0.37348223
197	0x3cccc76d	0.024997437
198	0x3e500560	0.2031455
199	0x3e2936ee	0.1652486
200	0x3e394653	0.18093233
201	0x3e76803e	0.24072358
202	0x3e4c6e19	0.19963874
203	0xbcb977a4	-0.022640057
204	0x3d465fd5	0.048431236
205	0x3ca644b7	0.020296438
206	0x3e5bf2f0	0.21479392
207	0x3eaa4d29	0.33261994
208	0x3ddc28d0	0.10749972
209	0xbca8aa63	-0.02058906
210	0x3d3401e0	0.0439471
211	0x3b348260	0.002754353
212	0x3ce07686	0.027400266
213	0x3d8b46bc	0.06800601
214	0xbcb414cd	-0.021982575
215	0x3e3098ba	0.1724576
216	0x3d33dc65	0.043911356
217	0xbcc59f5d	-0.024123842
218	0xbcf5bcc7	-0.029997243
219	0x3e164a85	0.14676864
220	0xbb6297b3	-0.0034575283
221	0x3ddb33cf	0.10703241
222	0x3eacbb4c	0.33736646
223	0x3e136cf1	0.14397027
224	0x3f68bbb3	0.90911406
225	0x3d0188a1	0.03162444
226	0x3ec690c7	0.3878233
227	0x3d8849f2	0.06654729
228	0x3e9b903c	0.3038348
229	0x3e501818	0.20321691
230	0x3d1fc686	0.039007686
231	0xbd4ea833	-0.050453376
232	0x3d41e6a5	0.0473391
233	0x3c2adbcd	0.010428381
234	0x3e91693a	0.28400594
235	0x3e1d3da6	0.15355548
236	0xbd9db1a6	-0.076998994
237	0x3d07dd23	0.033169877
238	0x3eca2971	0.39484742
239	0xbc629020	-0.013828307
240	0x3c98e8a7	0.018665625
241	0x3ec951f2	0.39320332
242	0xbca695ca	-0.020335097
243	0x3cc3836b	0.023866376
244	0x3ec35226	0.38148612
245	0x3e362c93	0.17790441
246	0x3e22fffe	0.15917966
247	0xbd08ac28	-0.033367306
248	0x3da373d7	0.07981079
249	0x3e919642	0.2843495
250	0xbd374196	-0.044740282
251	0x3de3fb5d	0.11131928
252	0x3e2ce35e	0.16883609
253	0x3e6e58ac	0.23276013
254	0x3db55a49	0.08855111
255	0x3e8e7d6a	0.27830058

linear_stack.4.bias f4 [5]
0	0x3e401f6d	0.18761988
1	0xbcb3c2e9	-0.021943526
2	0x3e5bfac7	0.21482383
3	0x3e49597c	0.19663042
4	0x3d4aea8b	0.049540084
