data/U1_new/model_UAV_4.pth (torch, 660400 bytes, 6 tensors)

linear_stack.0.weight f4 [400, 4]
0.06442083 0.04396505 -0.3026859 0.7364721 0.20149392 0.1552985 0.1579044 0.22032396
-0.27092877 0.2646091 0.10777149 0.53864855 -0.3240773 -0.26005882 0.39052165 -0.21565819
-0.025087636 0.34733284 0.3533426 -0.34559888 -0.9998493 0.01868431 -0.109640054 0.7982071
0.3551731 0.19696179 -0.41187716 0.1208598 -1.5310458 0.1327991 0.79266316 -0.22195967
-0.046421997 0.45450112 0.051983695 0.24639133 0.024104416 -0.10637742 -0.16735601 0.42980158
-0.77915716 -0.4690278 -0.41314095 0.96211547 0.40542084 -0.18267147 -0.038344022 -0.5475363
-0.43483135 0.35526186 0.51770866 0.77734584 -0.15424421 0.39895546 -0.20945849 0.5348489
-0.10034153 0.3400573 -0.024992427 0.14109434 0.24833447 0.04556977 0.42803413 -0.30860695
0.32035476 0.29685402 0.32510886 0.14958096 -0.15151614 0.3079536 0.10878332 -0.5033665
-0.45252103 -0.04559648 -0.25350368 -0.27740526 -0.20246899 -0.26961893 0.3708269 -0.21102786
0.31757164 0.20370567 -0.033121992 -0.027863316 -0.04650144 0.071253605 0.30788234 0.5139266
0.10218172 0.3279127 -0.26560935 -0.040458106 0.3372908 -0.3762164 0.10344509 0.8999858
-0.038322926 -0.1919148 -0.06912142 0.19627851 0.3311687 0.08110348 0.058975752 -0.3200947
0.07503119 -0.16029187 0.6680845 0.14886317 0.1616108 0.004007891 0.29257149 0.5495546
-0.11025375 -0.104857385 0.30891103 0.09550315 0.3208218 0.1387834 0.42475796 -0.13773194
0.3144474 -0.46291503 -0.04063334 0.32818973 -0.25509906 0.28006336 -0.22275025 -0.20588452
0.2814651 0.33450055 0.56946635 0.68057936 -0.14442347 0.16320747 -0.2879426 -0.4220776
-0.24181293 0.14414334 0.10949278 -0.10331659 -1.7068156 0.0329481 1.1535301 -0.50260603
-0.3187197 -0.20055845 0.48695028 -1.7350379 0.16563934 0.4010098 0.24905317 -0.2234807
0.15541485 -0.18064436 0.54783285 -0.049581297 0.18796526 0.16226454 0.49836165 -0.13515526
0.21060243 0.15917525 0.30093414 -0.08928378 -0.38298315 -0.047174394 0.0054678917 -0.18060845
0.09575378 -0.3554518 0.3989967 0.72501093 0.16779679 0.23907831 0.17287253 -0.101611935
-0.020935906 0.1358237 -0.14499003 -1.3047992 -0.2475231 0.24578562 0.089287736 -0.28868917
-0.31013387 0.316349 0.07228978 -0.31052265 0.102662355 0.0655425 -0.18540594 -0.63280654
-0.28751877 0.52465314 -0.040659703 -0.45776334 -0.7221936 -0.32993597 -5.0055814 2.4612
-0.78932464 0.18859224 -0.4051771 -0.9022193 -0.30603418 -0.39803678 -3.4175956 2.4625864
-0.009023678 0.16473974 0.29615262 -0.25033227 0.20347013 0.28414008 -0.34159517 0.031630516
-0.6271178 -0.30340594 0.55210996 0.87209934 -0.07232487 0.017849922 -0.18997675 0.11733711
0.28448996 -0.00015274413 -0.3038566 -0.21976048 -0.16261616 0.61638016 -0.42705587 -0.26820144
0.52628595 0.08137077 -0.33468667 0.00018479388 0.48770818 -0.003064555 -0.20130111 -0.35537994
0.33722153 0.10817986 0.4370968 -0.2107053 -0.97535735 0.05612324 0.6142856 0.34216085
-0.79946357 0.043795656 0.5328881 0.25387487 0.26331404 -0.14042094 -0.5042758 -0.5554595
00000000: 11ef 833d b214 343d a5f9 9abe 6f89 3c3f
00000010: 6c54 4e3e 9206 1f3e b1b1 213e 9b9c 613e
00000020: 2db7 8abe d87a 873e 4db7 dc3d dfe4 093f
00000030: 76ed a5be 6e26 85be 74f2 c73e 80d5 5cbe
00000040: 9684 cdbc 9cd5 b13e 52e9 b43e 56f2 b0be
00000050: 20f6 7fbf d70f 993c f78a e0bd 4d57 4c3f
00000060: 40d9 b53e 5ab0 493e 90e1 d2be 5885 f73d
00000070: 4ff9 c3bf 7dfc 073e f9eb 4a3f 6549 63be
00000080: fe24 3ebd 5fb4 e83e dbec 543d 024e 7c3e
00000090: a076 c53c 68dc d9bd 605f 2bbe f40e dc3e
000000a0: d876 47bf 6924 f0be 3687 d3be 334d 763f
000000b0: 5293 cf3e 3b0e 3bbe 9f0e 1dbd 572b 0cbf
000000c0: 37a2 debe e2e4 b53e 8e88 043f 2300 473f
000000d0: 32f2 1dbe e443 cc3e 497c 56be dceb 083f
000000e0: dc7f cdbd fe1b ae3e ebbc ccbc 097b 103e
000000f0: 644b 7e3e 5ea7 3a3d 4a27 db3e bb01 9ebe
00000100: 8a05 a43e 40fd 973e ab74 a63e c02b 193e
00000110: 0c27 1bbe 18ac 9d3e cac9 de3d a0dc 00bf
00000120: d6b0 e7be 60c3 3abd 3ccb 81be 1008 8ebe
00000130: 0854 4fbe 7e0b 8abe 06dd bd3e b017 58be
00000140: c098 a23e 3898 503e edaa 07bd 9c41 e4bc
00000150: 4b78 3ebd 69ed 913d c1a2 9d3e b290 033f
00000160: a644 d13d 2ce4 a73e f3fd 87be 66b7 25bd
00000170: 61b1 ac3e 709f c0be 05db d33d 7865 663f
00000180: 80f8 1cbd 5085 44be 888f 8dbd 3cfd 483e
00000190: f28e a93e 9519 a63d 8f90 713d 74e3 a3be
000001a0: f4a9 993d 8d23 24be 9607 2b3f 966f 183e
000001b0: 4d7d 253e a054 833b eecb 953e 9caf 0c3f
000001c0: b8cc e1bd 78bf d6bd 9629 9e3e 2897 c33d
000001d0: c142 a43e 3c1d 0e3e e079 d93e 9a09 0dbe
000001e0: 40ff a03e 3303 edbe 256f 26bd 7c08 a83e
000001f0: 589c 82be 7764 8f3e a418 64be 64d3 52be
00000200: 321c 903e a843 ab3e 8cc8 113f 733a 2e3f
00000210: bfe3 13be dc1f 273e 366d 93be 8e1a d8be
00000220: cf9d 77be 509a 133e c03d e03d a697 d3bd
00000230: ef78 dabf 96f4 063d e0a6 933f caaa 00bf
00000240: 3b2f a3be 325f 4dbe 8c51 f93e b915 debf
00000250: 5c9d 293e 2851 cd3e cb07 7f3e 20d8 64be
00000260: 1225 1f3e d6fa 38be c63e 0c3f c215 4bbd
00000270: f779 403e ad28 263e 4229 ff3e 2466 0abe
00000280: 2aa8 573e d6fe 223e 0a14 9a3e 6ada b6bd
00000290: 5e16 c4be f039 41bd 002c b33b 6cf1 38be
000002a0: 8f1a c43d c7fd b5be 4c49 cc3e 519a 393f
000002b0: ecd2 2b3e f2d0 743e 7f05 313e eb19 d0bd
000002c0: c781 abbc 5e15 0b3e 4478 14be a903 a7bf
000002d0: b276 7dbe 3aaf 7b3e 7ddc b63d 11cf 93be
000002e0: dec9 9ebe 7ff8 a13e aa0c 943d d3fc 9ebe
000002f0: a440 d23d 253b 863d 0edb 3dbe 9cff 21bf
00000300: a935 93be ab4f 063f ca8a 26bd f55f eabe
00000310: aee1 38bf 5eed a8be b92d a0c0 4d84 1d40
00000320: 2e11 4abf 531e 413e 5f73 cfbe d8f7 66bf
00000330: 83b0 9cbe 7acb cbbe e3b9 5ac0 049b 1d40
00000340: 0cd8 13bc 89b1 283e 51a1 973e 8d2b 80be
00000350: 795a 503e cf7a 913e 90e5 aebe 008f 013d
00000360: cb8a 20bf 0658 9bbe 1457 0d3f e741 5f3f
00000370: 101f 94bd 003a 923c 4489 42be 704e f03d
00000380: aba8 913e f129 20b9 1893 9bbe e408 61be
00000390: da84 26be 17cb 1d3f 11a7 dabe b351 89be
000003a0: adba 063f b8a5 a63d 0d5c abbe 3bc5 4139
000003b0: e3b4 f93e b4d6 48bb e121 4ebe 5cf4 b5be
000003c0: 4da8 ac3e 678d dd3d 27cb df3e 21c3 57be
000003d0: 05b1 79bf 7ce1 653d d241 1d3f b52f af3e
000003e0: a5a9 4cbf 1363 333d 5b6b 083f e3fb 813e
000003f0: 19d1 863e 82ca 0fbe 3818 01bf 9832 0ebf

linear_stack.0.bias f4 [400]
-0.39089888 0.80906105 -0.47206748 -0.48079133 0.57912177 0.7325799 0.44518763 0.41109115
0.46902582 -0.4533009 0.6433705 0.11023322 -0.4869003 0.5672303 0.5475368 -0.34858316
0.4499849 -0.69002414 -0.07356596 -0.4955336 0.63812417 -0.75006974 -0.6507198 0.32338977
-0.40659332 0.59085095 -0.4218072 0.11382059 -0.46655053 -0.41596225 -0.9441261 0.2673684
-0.5393714 -0.23205574 -0.70392185 0.6176092 0.28183112 0.7117439 0.12290865 0.9629304
0.19112888 -0.4125731 -0.12069765 0.37059283 0.2143601 -0.66796666 0.4344657 -0.6406405
0.4676108 0.85711294 0.5117163 0.31303254 -0.37797648 0.61905426 0.48806393 -0.46663046
0.44705856 0.67102534 0.44251952 0.56941485 -0.30883318 0.5586649 0.42831302 -0.60397977
0.5811948 -0.62463754 0.26786435 -0.64913595 0.29861566 0.2692365 0.35662308 -0.4238105
-0.4561634 0.3306233 0.42813575 -0.035568893 -0.085348174 0.20999974 -0.44340497 0.648381
-0.5990461 0.343262 0.15315425 0.5443221 0.3719214 0.36659345 0.441145 0.63121086
0.9095573 -0.20429915 0.38328645 -0.19463217 0.30715802 -0.55088633 -0.18028563 -0.31261256
-0.45303708 0.17022783 0.38027853 0.9233072 0.6835824 0.54378057 0.50484335 -0.60744655
-0.06651288 -0.22316036 0.14909029 0.5220169 -0.3449179 0.36828467 0.25420818 0.24004768
0.4631598 -0.033898234 -0.5694183 0.44483247 0.43859547 -0.3505086 0.0542792 -0.41968894
-0.4004419 0.40288737 -0.16570541 0.19973229 -0.21596462 -0.33756912 0.53961897 -0.7993403
0.5425437 0.5456498 0.717469 0.4241686 0.98854387 -0.76949817 -0.2992049 -0.26401207
-0.276608 1.0155951 -0.17725605 0.9295302 0.6559398 -0.5532064 -0.2346431 -0.0421965
-0.09084362 -0.3194425 0.80690825 0.41458446 -0.5041343 -0.15387738 -0.30015278 -0.16801113
-0.505257 0.18235368 0.28630623 -0.27143 0.11324061 0.5199348 -0.0016747877 0.68172896
0.111997426 -0.45422995 0.4362178 0.47975314 0.5056225 0.2936804 -0.15322894 -0.42921498
0.49509722 -0.4209873 -0.19627206 0.73857945 0.2563094 -0.94341946 0.57200176 -0.2645737
-0.45274323 0.57802653 -0.67379206 -0.67112726 -0.060166657 0.03827519 0.36664018 1.0424267
0.823951 0.28709552 -0.4132624 -0.45296076 -0.16447338 0.53920984 -0.27658635 -0.36671495
0.36702088 0.16660832 -0.1052264 0.3627232 -0.118154824 0.43160966 -0.3751284 0.5603654
-0.16806722 0.5422638 -0.5052067 0.47301117 -0.095165014 0.042680513 0.318349 0.99515224
-0.64753 -0.41148484 -0.47916877 0.72314894 -0.11499663 0.17505585 -0.44229925 0.34008744
0.94311595 -0.73497504 -0.26065466 0.4749752 0.2730549 0.010881342 0.23293635 0.23100261
-0.49290544 -0.71217865 0.89959884 -0.2895556 0.31951684 -0.3627404 -0.19114982 0.3226342
-0.6150103 -0.6888762 -0.56400037 -0.046442103 -0.155141 0.22639737 0.42323628 0.41100317
-0.3455426 0.49844974 0.094148085 -0.4396785 0.59445065 0.59898883 0.6210332 -0.4071888
0.66922456 0.79400104 0.831996 0.4504837 -0.068157904 0.8658567 -0.036323298 -0.6234621
00000000: e623 c8be a01e 4f3f d4b2 f1be 482a f6be
00000010: 5341 143f 5b8a 3b3f a2ef e33e 8a7a d23e
00000020: 2724 f03e 0e17 e8be eeb3 243f f4c1 e13d
00000030: ff4a f9be 0136 113f 5f2b 0c3f 7e79 b2be
00000040: 6c64 e63e 6ca5 30bf c0a9 96bd 94b6 fdbe
00000050: 1b5c 233f 9204 40bf 9395 26bf 5893 a53e
00000060: 002d d0be 0242 173f 1df7 d7be c51a e93d
00000070: b6df eebe 01f9 d4be 40b2 71bf 83e4 883e
00000080: 3e14 0abf 05a0 6dbe 3934 34bf a31b 1e3f
00000090: 2b4c 903e d934 363f 88b7 fb3d 9b82 763f
000000a0: 4ab7 433e c83c d3be 5430 f7bd 58be bd3e
000000b0: 3781 5b3e ddff 2abf 4a72 de3e 0401 24bf
000000c0: af6a ef3e c16b 5b3f d7ff 023f cd45 a03e
000000d0: 2286 c1be 577a 1e3f 84e3 f93e 30ea eebe
000000e0: dce4 e43e 51c8 2b3f eb91 e23e 2cc5 113f
000000f0: 621f 9ebe aa04 0f3f d84b db3e 6b9e 1abf
00000100: 2fc9 143f 3fe8 1fbf 8425 893e c62d 26bf
00000110: 27e4 983e 5ed9 893e 4d97 b63e b1fd d8be
00000120: 408e e9be 7547 a93e 9c34 db3e b0b0 11bd
00000130: 06cb aebd 2c0a 573e fa05 e3be 4cfc 253f
00000140: 165b 19bf 09c0 af3e 78d4 1c3e b158 0b3f
00000150: 7b6c be3e 23b2 bb3e c2dd e13e 0997 213f
00000160: bfd8 683f cc33 51be 1f3e c43e a84d 47be
00000170: d143 9d3e e306 0dbf cc9c 38be c10e a0be
00000180: 7af4 e7be 3450 2e3e deb3 c23e dc5d 6c3f
00000190: 42ff 2e3f 3435 0b3f 6a3d 013f 9e81 1bbf
000001a0: e837 88bd 2684 64be 20ab 183e e6a2 053f
000001b0: 1499 b0be cf8f bc3e 9327 823e 0fcf 753e
000001c0: 4823 ed3e e0d8 0abd 66c5 11bf 15c1 e33e
000001d0: 968f e03e dd75 b3be de53 5e3d 78e1 d6be
000001e0: b906 cdbe 4147 ce3e aeae 29be 9f86 4c3e
000001f0: d425 5dbe dcd5 acbe 7824 0a3f 91a1 4cbf
00000200: 25e4 0a3f b5af 0b3f 0cac 373f a02c d93e
00000210: 3611 7d3f d5fd 44bf 6231 99be 972c 87be
00000220: 909f 8dbe 05ff 813f 9c82 35be b1f5 6d3f
00000230: aceb 273f ef9e 0dbf 4846 70be 3dd6 2cbd
00000240: 380c babd f88d a3be 8a91 4e3f 6a44 d43e
00000250: f20e 01bf 0892 1dbe a0ad 99be 1c0b 2cbe
00000260: 8658 01bf ecba 3a3e bb96 923e dff8 8abe
00000270: b1ea e73d 721a 053f 8d84 dbba ca85 2e3f
00000280: e85e e53d d490 e8be f157 df3e 34a2 f53e
00000290: 7a70 013f 475d 963e 0ce8 1cbe 11c2 dbbe
000002a0: 627d fd3e a68b d7be 8bfb 48be 8b13 3d3f
000002b0: fc3a 833e f083 71bf b56e 123f 3476 87be
000002c0: f6cd e7be 8cf9 133f a37d 2cbf ffce 2bbf
000002d0: 5071 76bd 72c6 1c3d 43b8 bb3e 3d6e 853f
000002e0: 74ee 523f 2ffe 923e 2197 d3be 79ea e7be
000002f0: b66b 28be a809 0a3f ba9c 8dbe 10c2 bbbe
00000300: 29ea bb3e 5f9b 2a3e f080 d7bd dbb6 b93e
00000310: 28fb f1bd f1fb dc3e d410 c0be 1b74 0f3f
00000320: d019 2cbe cdd1 0a3f 3a55 01bf 852e f23e
00000330: e0e5 c2bd c3d1 2e3d a4fe a23e 4cc2 7e3f
00000340: 87c4 25bf 24ae d2be 9c55 f5be 4a20 393f
00000350: 5a83 ebbd d741 333e 0c75 e2be f11f ae3e
00000360: 0c70 713f 5327 3cbf 8774 85be f32f f33e
00000370: dacd 8b3e a847 323c de86 6e3e f38b 6c3e
00000380: 1a5e fcbe 5751 36bf 1c4c 663f a240 94be
00000390: b697 a33e 1cb9 b9be c7bc 43be 4f30 a53e
000003a0: 5171 1dbf 315a 30bf 5462 10bf 133a 3ebd
000003b0: 48dd 1ebe b6d4 673e 6db2 d83e 026f d23e
000003c0: f6ea b0be ce34 ff3e b6d0 c03d 8a1d e1be
000003d0: eb2d 183f 5557 193f 08fc 1e3f 0d7b d0be
000003e0: 4d52 2b3f a743 4b3f b1fd 543f cda5 e63e
000003f0: 5f96 8bbd c9a8 5d3f bdc7 14bd 369b 1fbf

linear_stack.2.weight f4 [400, 400]
-0.01912868 0.048389714 0.015809238 -0.029001057 -0.041380968 0.037807234 0.038545627 -0.00770002
-0.021133948 -0.013797427 0.012504518 -0.027394254 0.0011076212 -0.003699744 0.0051598134 -0.011918396
-0.033012062 -0.0069140196 0.01294399 -0.03810538 0.044322502 0.022778321 -0.029602444 -0.027624398
0.0050579193 0.04476076 0.041564655 -0.045132387 0.0465828 -0.042622842 -0.018036503 0.014928872
-0.0030444623 0.025365114 0.013384009 0.0296246 0.031934123 0.014352977 -0.037430096 -0.043048013
-0.029213382 0.0070007085 0.0021930577 0.020233 0.0215424 -0.017283702 0.01093933 0.032217532
-0.015716005 0.03507803 -0.032266714 -0.04254042 0.007343698 -0.016778653 -0.04612813 -0.004193795
-0.0071563306 -6.5779685e-05 -0.040767025 -0.047675725 0.03038618 -0.015737528 -0.028602695 -0.03723785
-0.010671789 -0.03546654 -0.032227434 -0.0035409273 -0.045418896 0.012030745 -0.030715698 -0.0067162514
0.034145325 0.037986536 -0.008562612 -0.03728309 0.025930172 0.049853813 0.013061488 0.00018559098
-0.00042920114 -0.04562906 0.048229303 0.032610625 -0.033446778 0.03274536 0.029106546 0.042674262
0.02503075 0.040231623 0.0153890075 -0.009523481 0.0063239634 0.01792087 0.04500225 -0.04763739
-0.030832266 -0.026501596 0.041036606 0.018002022 0.032292247 -0.04106558 0.033187013 0.023551738
-0.019164765 0.012563735 0.021335715 0.004453075 -0.0047471165 0.026645923 -0.008855581 -0.018987251
0.006029689 0.038455963 -0.040667366 0.003550464 0.036982585 -0.025591081 -0.026760286 -0.0197483
0.018126452 0.0054766894 0.045890667 -0.038976666 0.028602242 0.019868225 0.02657826 0.025373936
-0.048122235 -0.02763843 0.0017856956 -0.009313417 0.038386744 -0.039820623 -0.0433194 -0.030235047
0.038506687 -0.04694807 -0.017431034 -0.0092114685 0.02094599 -0.0325496 -0.017643208 0.021810694
0.013116158 -0.04602201 0.020960355 0.03876402 -0.0007312894 0.030323023 0.0015670777 -0.04154637
0.008082354 0.02543909 0.021343125 0.0418002 -0.0069848183 0.033883877 0.031486895 -0.002014619
-0.026856525 -0.040207792 -0.028429246 -0.04828168 0.02020939 -0.027301496 0.03969654 -0.006747556
-0.04790456 -0.027397573 -0.043976992 -0.0017025889 0.0043165446 -0.048606038 0.04370543 -0.001573807
0.033510238 0.039611835 0.04216476 0.02386902 0.0043974044 -0.027086556 0.0042226613 0.032069273
-0.025419885 0.0090415655 -0.04740807 -0.006029773 -0.041954648 -0.043961275 -0.0024029256 0.0011214495
0.022598863 0.027278347 -0.016274113 0.033958595 0.028985007 -0.028170759 -0.032202344 -0.015210176
0.040831752 0.020442283 0.032618433 -0.005620539 -0.04565757 0.03374899 -0.0348027 -0.037231784
0.014699006 0.012173069 0.030393869 -0.009631115 0.016094554 -0.03989463 0.031586748 -0.04939579
-0.014700139 0.04653014 -0.023576235 -0.02018311 0.025331957 0.013778138 -0.03169631 0.004178816
0.036597557 -0.013139409 -0.04972261 0.031207556 0.020276815 0.031453427 0.043361682 0.03678156
-0.045686927 0.021941263 -0.017787768 0.031073576 0.04364694 -0.0077670515 0.0141826635 -0.029384578
-0.009481221 -0.009493291 0.022307282 0.00013962985 0.02040754 0.031767666 -0.021770095 -0.008005775
0.045997 -0.016092354 0.003635204 0.03989316 -0.04482733 -0.008713717 -0.028778983 -0.026404126
00000000: c0b3 9cbc 4b34 463d 6082 813c a093 edbc
00000010: 177f 29bd c2db 1a3d 05e2 1d3d 7350 fcbb
00000020: 1a21 adbc 9a0e 62bc c0df 4c3c ea69 e0bc
00000030: 9a2d 913a 6777 72bb a713 a93b 6045 43bc
00000040: a837 07bd 008f e2bb 0713 543c 6314 1cbd
00000050: 838b 353d 9a99 ba3c d380 f2bc 904c e2bc
00000060: e7bc a53b 0f57 373d b33f 2a3d bddc 38bd
00000070: 9bcd 3e3d 4a95 2ebd 4ac1 93bc 3a98 743c
00000080: 9a85 47bb 80ca cf3c 9a48 5b3c 4aaf f23c
00000090: 5bcd 023d c028 6b3c 4d50 19bd 1d53 30bd
000000a0: e750 efbc 3366 e53b 67b9 0f3b adbf a53c
000000b0: b079 b03c 8d96 8dbc e03a 333c 88f6 033d
000000c0: dabe 80bc fbad 0f3d 1a2a 04bd dd3e 2ebd
000000d0: 67a3 f03b 6373 89bc daf0 3cbd 1a6c 89bb
000000e0: a77f eabb 33f3 89b8 53fb 26bd 9f47 43bd
000000f0: 70ec f83c fdeb 80bc 3350 eabc b786 18bd
00000100: bad8 2ebc 5d45 11bd ea00 04bd e70e 68bb
00000110: 2a09 3abd 9a1c 453c 7d9f fbbc 0014 dcbb
00000120: f8db 0b3d c597 1b3d 334a 0cbc 27b6 18bd
00000130: 836b d43c 8333 4c3d daff 553c 339b 4239
00000140: 6706 e1b9 8ae5 3abd 178c 453d b892 053d
00000150: 7dff 08bd 0020 063d da70 ee3c 35cb 2e3d
00000160: 4a0d cd3c eac9 243d 2d22 7c3c 6008 1cbc
00000170: 4039 cf3b cace 923c 4754 383d 6d1f 43bd
00000180: f393 fcbc e019 d9bc 0016 283d fa78 933c
00000190: e044 043d 6234 28bd 1bef 073d 93ef c03c
000001a0: 6dff 9cbc 20d8 4d3c 3dc8 ae3c 1aeb 913b
000001b0: b38d 9bbb 8d48 da3c 0017 11bc 278b 9bbc
000001c0: b394 c53b 0084 1d3d d392 26bd e7ae 683b
000001d0: 0d7b 173d 63a4 d1bc 6338 dbbc 30c7 a1bc
000001e0: ed7d 943c cd75 b33b daf7 3b3d ffa5 1fbd
000001f0: 404f ea3c b0c2 a23c a7ba d93c 00dd cf3c
00000200: d21b 45bd fd69 e2bc 000e ea3a 4d97 18bc
00000210: 6b3b 1d3d f31a 23bd af6f 31bd 7daf f7bc
00000220: 30b9 1d3d 9f4c 40bd 87cb 8ebc b3eb 16bc
00000230: ed96 ab3c bb52 05bd 7d88 90bc 57ac b23c
00000240: 27e5 563c 9381 3cbd 0db5 ab3c 05c7 1e3d
00000250: 00b4 3fba fd67 f83c 6766 cd3a 872c 2abd
00000260: da6b 043c a365 d03c c7d7 ae3c b036 2b3d
00000270: e7e0 e4bb d2c9 0a3d 67f8 003d b307 04bb
00000280: 3702 dcbc edb0 24bd 73e4 e8bc 03c3 45bd
00000290: 2a8e a53c 63a7 dfbc d798 223d 9a1a ddbb
000002a0: 9237 44bd e070 e0bc 3821 34bd 6729 dfba
000002b0: cd71 8d3b 2017 47bd 7704 333d 3348 ceba
000002c0: 0842 093d 0540 223d f5b4 2c3d f788 c33c
000002d0: 1a18 903b a0e4 ddbc 405e 8a3b 125b 033d
000002e0: 5d3d d0bc 1323 143c f72e 42bd 6795 c5bb
000002f0: a3d8 2bbd bd10 34bd 677a 1dbb 9afd 923a
00000300: 4021 b93c d776 df3c 4a51 85bc 2b18 0b3d
00000310: f771 ed3c 5dc6 e6bc 9be6 03bd 1a34 79bc
00000320: 323f 273d 9376 a73c e89a 053d 802c b8bb
00000330: 6f03 3bbd 623c 0a3d 478d 0ebd 5b80 18bd
00000340: 1ad4 703c 8d71 473c 90fc f83c d3cb 1dbc
00000350: bad8 833c 8d68 23bd 1b61 013d 3d53 4abd
00000360: dad8 70bc 6396 3e3d f322 c1bc 0d57 a5bc
00000370: f784 cf3c b3bd 613c fdd3 01bd 73ee 883b
00000380: 52e7 153d ad46 57bc efa9 4bbd fda6 ff3c
00000390: 901b a63c 4fd5 003d 059c 313d 43a8 163d
000003a0: 3722 3bbd 2abe b33c a7b7 91bc 038e fe3c
000003b0: 22c7 323d c082 febb 675e 683c edb7 f0bc
000003c0: 2057 1bbc c089 1bbc c3bd b63c 9a69 1239
000003d0: b72d a73c d01e 023d 3357 b2bc a72a 03bc
000003e0: 5a67 3c3d 1dd4 83bc 9a3c 6e3b 0367 233d
000003f0: dd9c 37bd fac3 0ebc e7c1 ebbc 774d d8bc

linear_stack.2.bias f4 [400]
-0.047189634 0.042641655 0.16579564 -0.12660101 0.18010183 -0.032339957 -0.016616488 0.13848232
-0.03254204 -0.04598148 -0.028192127 0.20524973 0.0384049 0.19198087 0.0062290677 0.20630372
0.111151785 0.0064715 -0.033300918 0.014639584 0.18006852 0.0040224153 0.15665644 0.14663069
0.18561351 0.013525623 0.2207263 0.17437553 0.18010482 0.1209656 -0.020601625 0.029635802
0.03453496 0.00027204753 -0.0221274 0.03111851 0.1903195 0.11684012 -0.032523453 0.015527859
-0.044371177 0.042943858 0.19780152 -0.023956116 0.14260773 0.1384609 -0.006886101 0.20047897
0.13306116 0.17471169 -0.009126268 0.09691252 -0.05482485 0.1550624 -0.050080944 0.18998544
-0.02896787 0.2118745 0.21494497 0.011163144 0.15324585 0.19330163 0.20957689 0.091016084
-0.01835314 0.18888009 0.20431097 0.022874702 0.11923229 0.007594974 -0.005954105 0.016502555
0.15236467 -0.03329594 0.14808775 0.12672599 0.19498435 0.041790556 0.07248382 0.16477647
0.18244348 0.11801743 0.01882747 0.13670135 0.006015903 0.22245313 0.15561189 0.1673684
0.116594665 0.11186726 -0.041041106 -0.16100933 0.17885989 -0.025239235 0.18233901 0.22379203
0.039927654 0.00031120778 0.19936001 0.023513772 0.14606506 0.041030716 -0.034728616 0.19416791
0.035727397 -0.015454138 0.17929341 0.022904124 -0.0056262054 0.035626095 -0.044906463 0.14988256
0.20117089 0.01935386 -0.01092276 0.19437155 0.14154163 0.121942095 0.17013934 0.10567029
0.16495556 0.15364143 0.14383046 -0.019476056 0.11275873 -0.028211433 -0.004329507 0.14271168
0.181819 0.1242062 -0.0056175473 0.10021799 0.106517635 0.0105487285 0.17009094 0.1442574
0.044633307 0.00094342796 0.18970376 0.11631539 0.1540463 0.017061431 0.03190465 0.17066588
-0.050006047 -0.059031304 0.024142262 0.20791207 0.15980022 0.04491907 0.157297 0.09117027
0.115847275 -0.015682815 0.039043017 0.006099158 0.042588916 -0.14901906 0.046822906 0.18527786
0.17993778 -0.010224421 -0.046112943 0.0022444471 0.1755172 0.18309924 -0.27787238 -0.011836891
-0.029477013 0.016295236 0.15832032 0.12488464 0.18596525 -0.027946187 0.2055631 0.13099846
0.23187844 0.04038514 0.14649384 0.10863871 0.10885402 0.19986111 0.13091823 0.21279444
0.280802 0.18140423 0.034145188 -0.001792767 -0.07338842 0.026648134 -0.02172405 0.15745363
-0.032531127 0.15101534 -0.01860351 0.15699457 0.16830221 0.20095761 0.11031681 -0.007505329
0.1691247 -0.040169373 0.14477246 -0.04752041 0.16392207 0.17266218 0.16911891 0.011035943
-0.023415226 0.16357554 0.11003986 0.07436047 -0.026991695 0.2002811 0.20273317 0.040178057
-0.029265046 0.03276191 0.1950702 0.02362352 -0.03377247 0.1688334 0.12977235 -0.020313531
0.034573138 0.16040805 0.19357468 0.007085756 -0.045414954 -0.020938383 -0.04934755 0.1620727
-0.0020635007 0.02995746 0.046969023 0.22143288 0.17181627 0.15535639 0.03641736 0.1730522
0.22219601 0.1894326 0.17314422 0.00823019 0.1635043 0.1533822 -0.036108844 -0.036875583
0.14968313 0.14831847 -0.0054116156 0.1271775 0.13639015 -0.18812884 -0.018701673 0.19463558
00000000: eb49 41bd 04a9 2e3d 55c6 293e b2a3 01be
00000010: 9d6c 383e e776 04bd 4d1f 88bc 4fce 0d3e
00000020: cd4a 05bd 1457 3cbd 2df3 e6bc fc2c 523e
00000030: 754e 1d3d a296 443e 351d cc3b 4841 533e
00000040: 8ca3 e33d e00e d43b 8b66 08bd deda 6f3c
00000050: e263 383e 77ce 833b 8c6a 203e 5b26 163e
00000060: 7811 3e3e 939a 5d3c 1306 623e 808f 323e
00000070: 666d 383e d0bc f73d bdc4 a8bc c8c6 f23c
00000080: 8874 0d3d 9aa1 8e39 8544 b5bc 3fec fe3c
00000090: 1de3 423e df49 ef3d 5037 05bd 9068 7e3c
000000a0: 8dbe 35bd e6e5 2f3d 7b8c 4a3e 9e3f c4bc
000000b0: c307 123e b2c8 0d3e cda4 e1bb 5c4a 4d3e
000000c0: 2f41 083e 9fe7 323e 5886 15bc 127a c63d
000000d0: 0690 60bd aec8 1e3e ad21 4dbd 8b8b 423e
000000e0: 074e edbc a1f5 583e 891a 5c3e 9fe5 363c
000000f0: 7bec 1c3e ddf0 453e 539b 563e a466 ba3d
00000100: 5359 96bc c869 413e e536 513e ba63 bb3c
00000110: 0f30 f43d 42df f83b a71a c3bb 5e30 873c
00000120: 7c05 1c3e 5361 08bd 51a4 173e 75c4 013e
00000130: faa9 473e 932c 2b3d 6672 943d 2abb 283e
00000140: 77d2 3a3e 1fb3 f13d 113c 9a3c 70fb 0b3e
00000150: 0d21 c53b c1ca 633e b958 1f3e 9f62 2b3e
00000160: 2fc9 ee3d a91a e53d b81a 28bd a1df 24be
00000170: 0c27 373e 83c2 cebc 14b7 3a3e bd29 653e
00000180: 2e8b 233d 9a29 a339 0825 4c3e f49f c03c
00000190: 1492 153e d30f 283d 983f 0ebd f4d3 463e
000001a0: e456 123d 5a33 7dbc b198 373e 6ea1 bb3c
000001b0: 085c b8bb abec 113d d7ef 37bd d07a 193e
000001c0: beff 4d3e fc8b 9e3c 60f5 32bc 5609 473e
000001d0: 4af0 103e c7bc f93d 0239 2e3e aa69 d83d
000001e0: 1cea 283e 2e54 1d3e 4b48 133e 408c 9fbc
000001f0: 0dee e63d aa1b e7bc 89de 8dbb 0323 123e
00000200: c32e 3a3e d25f fe3d 6713 b8bb 173f cd3d
00000210: eb25 da3d 93d4 2c3c 522c 2e3e 36b8 133e
00000220: 6ad1 363d 6150 773a b441 423e c336 ee3d
00000230: 50be 1d3e 6ac4 8b3c 73ae 023d 09c3 2e3e
00000240: 24d3 4cbd cfca 71bd fec5 c53c e7e6 543e
00000250: aba2 233e 0ffd 373d 7712 213e 7bb7 ba3d
00000260: 5641 ed3d 3f79 80bc 92eb 1f3d 72db c73b
00000270: b771 2e3d 7498 18be 60c9 3f3d 7bb9 3d3e
00000280: 9c41 383e 5484 27bc ede0 3cbd 9317 133b
00000290: c8ba 333e 5e7e 3b3e 4a45 8ebe 85ef 41bc
000002a0: c779 f1bc 967d 853c b91e 223e 85c3 ff3d
000002b0: ad6d 3e3e 67ef e4bc 227f 523e 7624 063e
000002c0: 8b71 6d3e e36a 253d 7b02 163e f97d de3d
000002d0: dbee de3d 64a8 4c3e 6e0f 063e c9e6 593e
000002e0: 48c5 8f3e 08c2 393e d3db 0b3d 47fb eaba
000002f0: ab4c 96bd 304d da3c a3f6 b1bc 863b 213e
00000300: 5c3f 05bd c4a3 1a3e 6366 98bc 2fc3 203e
00000310: 6a57 2c3e d5c7 4d3e c8ed e13d 43ef f5bb
00000320: 062f 2d3e a488 24bd 3b3f 143e c3a4 42bd
00000330: 30db 273e 5bce 303e 822d 2d3e 1ad0 343c
00000340: 4ad1 bfbc 5980 273e 945c e13d 4d4a 983d
00000350: b01d ddbc 7d16 4d3e 4999 4f3e bf91 243d
00000360: 40bd efbc 5a31 063d 7cc0 473e 1d86 c13c
00000370: 0055 0abd aae2 2c3e 0be3 043e 9068 a6bc
00000380: 909c 0d3d 0242 243e 7138 463e a12f e83b
00000390: 0805 3abd f986 abbc a820 4abd 63f6 253e
000003a0: cc3b 07bb 5969 f53c 9762 403d 4dbf 623e
000003b0: 9bf0 2f3e bf15 1f3e 5f2a 153d 9934 313e
000003c0: 5a87 633e 9ffa 413e b84c 313e ebd7 063c
000003d0: ac6d 273e 3910 1d3e dee6 13bd da0a 17bd
000003e0: 8946 193e cce0 173e ec53 b1bb d23a 023e
000003f0: dca9 0b3e d9a4 40be 4034 99bc 8d4e 473e

linear_stack.4.weight f4 [5, 400]
-0.031190986 -0.01852314 0.11630255 0.14339629 0.26695707 -0.022432784 -0.009156001 0.25029325
0.02608468 -0.029291298 0.043469954 -0.1638404 0.00491128 0.45727515 0.038073987 0.25791118
0.12756138 0.010532305 -0.018415624 -0.021841947 0.27148822 0.003970798 0.3588164 0.2557913
0.21286142 -0.0029764236 0.33969948 0.16951391 0.22252639 0.07589206 0.03346019 0.012711752
-0.032705504 -0.011158454 -0.024606422 -0.028569419 0.34548977 0.26514056 -0.010439871 0.006798912
-0.016844524 0.018366285 0.3451224 -0.019202555 0.11267822 0.024413211 -0.040531464 0.15130708
0.38046792 0.33906183 0.040982027 0.26889604 0.009812091 0.08351374 -0.03561011 0.16049321
-0.042337127 0.21787883 0.20439538 -0.026089163 0.111241035 0.25383088 0.31648895 0.12962088
-0.030826809 0.15711716 0.18751262 0.0440907 0.2423884 -0.018924087 -0.019820113 0.020410331
0.2293585 0.017406 0.099612504 0.21561857 0.40638503 0.017129058 0.13378674 0.14117895
0.1088628 0.2536346 0.015570218 0.35896176 -0.009157116 0.12621799 0.40656248 0.3292843
0.13840717 0.2596919 0.0105557805 0.13696156 0.4120617 -0.029510243 0.2581788 0.23477392
-0.012519673 0.019666975 0.38931298 0.022800315 0.23906498 0.07446408 -0.009139172 0.27398914
-0.022231216 0.02716664 0.031895436 0.0167507 -0.029721057 0.0031719448 -0.020935494 0.19209997
0.2829741 -0.05309903 -0.013102353 0.39854318 0.116212964 0.12543763 0.46741456 0.2270009
0.123867795 0.22495365 0.16130662 0.022597982 0.37335432 0.031841207 0.0074163727 0.3515349
0.49280506 0.0959272 -0.027847707 0.09086805 0.26978844 -0.0489071 0.1750575 0.46757823
0.024534686 -0.015574497 0.23075978 0.35770857 0.29325247 0.017591577 -0.003421545 0.24112652
-0.01042089 0.02950105 -0.036103558 0.22526525 0.15267237 0.03768953 0.094251886 0.1407572
0.21665232 -0.011092449 -0.008088238 -0.020461394 0.21370448 -0.29538533 0.048113286 0.1526117
0.24736789 0.11820427 -0.045017373 -0.044694427 0.36019906 0.36570573 0.017563347 0.02956149
-0.03752708 -0.018857198 0.39263278 0.17686246 0.38142937 0.00056250964 -0.21670048 -0.008341591
0.16004886 -0.018774927 0.34241843 0.35773528 0.21309143 0.26747608 0.27728137 0.32886392
0.42967975 0.39674526 -0.021086706 -0.030275682 0.4003917 -0.029736299 -0.043595083 0.37824526
-0.037930667 0.30567738 -0.002734524 0.2086172 0.2840316 0.24911718 0.24261563 -0.039430946
0.27866474 0.016652267 0.10775326 0.009208393 0.33086503 0.3217088 0.44679573 -0.013439
-0.025645101 0.29240882 0.2013374 0.34765065 -0.030693656 0.12091258 0.22570993 0.004028239
0.024816204 -0.0336728 0.27467316 0.03113246 -0.03337107 -0.15633704 0.27932286 -0.0043600174
-0.021077318 0.23922615 0.28595766 -0.035576485 0.015226341 0.053539336 0.035582144 0.21355268
-0.020074645 -0.038482238 -0.0152579965 0.17893073 0.23922662 0.12347315 -0.0036655485 0.21088459
0.30200645 0.295597 0.3284541 -0.025928585 0.20440374 0.37676355 0.025462003 0.017936725
0.17985336 0.15070774 -0.048849452 0.19310826 0.25844154 0.42543685 -0.010814863 0.15838797
00000000: 3d84 ffbc d7bd 97bc 0830 ee3d 7ad6 123e
00000010: 99ae 883e f5c4 b7bc 0d03 16bc 7026 803e
00000020: 8aaf d53c 4ef4 efbc 8d0d 323d c7c5 27be
00000030: cdee a03b f81f ea3e 78f3 1b3d ef0c 843e
00000040: 739f 023e b08f 2c3c 5ddc 96bc e2ed b2bc
00000050: 8100 8b3e 781d 823b c8b6 b73e 14f7 823e
00000060: 58f8 593e 1a10 43bb 17ed ad3e 0e95 2d3e
00000070: f5dd 633e 4c6d 9b3d 8d0d 093d f444 503c
00000080: 35f6 05bd f3d1 36bc 6893 c9bc 6a0a eabc
00000090: 09e4 b03e 81c0 873e fe0b 2bbc 68c9 de3b
000000a0: 87fd 89bc e474 963c e2b3 b03e ad4e 9dbc
000000b0: d7c3 e63d 37fe c73c 5204 26bd 3ef0 1a3e
000000c0: b1cc c23e 8399 ad3e c5dc 273d beac 893e
000000d0: e4c2 203c 4009 ab3d e8db 11bd 5558 243e
000000e0: b269 2dbd a11b 5f3e 064d 513e f1b8 d5bc
000000f0: 57d2 e33d 1ff6 813e d70a a23e 56bb 043e
00000100: 8188 fcbc 52e3 203e 4f03 403e 7398 343d
00000110: aa34 783e b006 9bbc ca5d a2bc 9133 a73c
00000120: f4dc 6a3e 0797 8e3c a401 cc3d 1dcb 5c3e
00000130: b311 d03e 3d52 8c3c 64ff 083e 3791 103e
00000140: 76f3 de3d 65dc 813e 3a1a 7f3c d6c9 b73e
00000150: ba07 16bc 4a3f 013e f528 d03e f497 a83e
00000160: 9cba 0d3e 56f6 843e 27f2 2c3c a73f 0c3e
00000170: c0f9 d23e 77bf f1bc 0330 843e 9368 703e
00000180: 511f 4dbc a31c a13c 0854 c73e bac7 ba3c
00000190: 73cd 743e a080 983d 77bc 15bc 4e48 8c3e
000001a0: 3d1e b6bc 938c de3c caa4 023d c438 893c
000001b0: 9379 f3bc 67e0 4f3b ea80 abbc dbb5 443e
000001c0: fbe1 903e 5e7e 59bd 40ab 56bc da0d cc3e
000001d0: 1001 ee3d b972 003e f650 ef3e ed72 683e
000001e0: 66ae fd3d 405a 663e 902d 253e 671f b93c
000001f0: 4c28 bf3e ed6b 023d 0b05 f33b 62fc b33e
00000200: f250 fc3e 7b75 c43d e020 e4bc 0719 ba3d
00000210: b621 8a3e d052 48bd 4642 333e 6a66 ef3e
00000220: f7fc c83c 2d2c 7fbc 4b4c 6c3e 9425 b73e
00000230: 3025 963e 361c 903c 003c 60bb dfe9 763e
00000240: 61bc 2abc 30ac f13c 53e1 13bd efab 663e
00000250: 2556 1c3e 5660 1a3d 2207 c13d a822 103e
00000260: 1bda 5d3e 1abd 35bc 8784 04bc a79e a7bc
00000270: 59d5 5a3e bf3c 97be 7012 453d 3e46 1c3e
00000280: 024e 7d3e 1515 f23d 2364 38bd 8111 37bd
00000290: 036c b83e c83d bb3e 02e1 8f3c f02a f23c
000002a0: ffb5 19bd 697a 9abc 2a07 c93e 6f1b 353e
000002b0: b64a c33e 6275 133a bbe6 5dbe 2bab 08bc
000002c0: d9e3 233e e0cd 99bc 7851 af3e 1429 b73e
000002d0: a434 5a3e a0f2 883e d3f7 8d3e da60 a83e
000002e0: fcfe db3e 3222 cb3e 07be acbc b504 f8bc
000002f0: 2400 cd3e 8a99 f3bc c290 32bd 5da9 c13e
00000300: 305d 1bbd bf81 9c3e b335 33bb bf9f 553e
00000310: 976c 913e 9318 7f3e 3b70 783e 5882 21bd
00000320: 25ad 8e3e 566a 883c bead dc3d cdde 163c
00000330: 2467 a93e 04b7 a43e 69c2 e43e 402f 5cbc
00000340: ad15 d2bc 9cb6 953e 642b 4e3e 44ff b13e
00000350: 4371 fbbc 04a1 f73d 8120 673e 51ff 833b
00000360: 5a4b cb3c 7dec 09bd f6a1 8c3e 8009 ff3c
00000370: 1ab0 08bd d116 20be 6803 8f3e 7ade 8ebb
00000380: 57aa acbc b3f7 743e 0b69 923e a6b8 11bd
00000390: e777 793c 104c 5b3d 95be 113d 8ead 5a3e
000003a0: 9573 a4bc 8d9f 1dbd adfc 79bc 9e39 373e
000003b0: d3f7 743e 7edf fc3d b339 70bb 21f2 573e
000003c0: 97a0 9a3e 7d58 973e 232b a83e 2f68 d4bc
000003d0: 374f 513e 27e7 c03e b195 d03c 0af0 923c
000003e0: 7b2b 383e 2153 1a3e 5d16 48bd 2cbe 453e
000003f0: 7352 843e dcd2 d93e d330 31bc 7530 223e

linear_stack.4.bias f4 [5]
0.33546448 0.2767889 -0.0011524151 0.13703819 -0.02103079
00000000: 00c2 ab3e 46b7 8d3e a20c 97ba bd53 0c3e
00000010: c348 acbc
