data/U1_new/model_UAV_2.pth (torch, 660400 bytes, 6 tensors)

linear_stack.0.weight f4 [400, 4]
0	0x3e78f7af	0.24313234
1	0x3d0a4e63	0.03376616
2	0x3f04fdca	0.5194975
3	0xbda4e543	-0.08051541
4	0x3d1d561b	0.038412195
5	0xbe4ae26e	-0.19812939
6	0x3eb00b50	0.3438363
7	0xbdf0dabd	-0.11760471
8	0x3dc46923	0.09590366
9	0x3e4df7dc	0.20114082
10	0x3e982892	0.29718453
11	0x3e6fafc1	0.23406889
12	0x3e4c8fc0	0.19976711
13	0xbe69836a	-0.22804037
14	0x3d869e1a	0.06573124
15	0x3ed4e410	0.41580248
16	0xbdd07bc4	-0.101798564
17	0x3eae7dd2	0.34080368
18	0x3f1b31d5	0.6062291
19	0x3e15645c	0.14589065
20	0x3e61a3e0	0.2203517
21	0x3e3da035	0.18518145
22	0x3f01e0ec	0.5073383
23	0x3f247be6	0.64251554
24	0x3ea95f99	0.33080748
25	0xbeeca6a5	-0.4622089
26	0x3f5df6f6	0.8670496
27	0xbe41b7e1	-0.189178
28	0xbf47f2f0	-0.7810507
29	0x3e9dadb7	0.30796596
30	0x3f2b98e0	0.67030144
31	0xbf375aa3	-0.71622676
32	0xbf03dc8a	-0.5150839
33	0x3e2d991b	0.16952936
34	0x3e7d4e49	0.24736895
35	0x3c98504d	0.018592978
36	0x3e512ea7	0.20427953
37	0xbed17aa0	-0.40913868
38	0xbf1853e1	-0.5950299
39	0x3ef1fa17	0.47261116
40	0x3ec2cca7	0.38046762
41	0xbec173e3	-0.37783727
42	0x3e9fdcb5	0.31223074
43	0x3ee9944f	0.45620963
44	0x3eddbc21	0.43307593
45	0x3ebb83e1	0.36624053
46	0xbe9ba76d	-0.30401173
47	0xbec554e4	-0.3854133
48	0xbf1e4cef	-0.6183614
49	0x3e490e35	0.19634326
50	0xbe471e48	-0.19445145
51	0x3de1d924	0.110277444
52	0x3ee93359	0.45546988
53	0x3eb210a5	0.34778324
54	0xbe17003b	-0.14746182
55	0x3e0a10cc	0.1348297
56	0x3d95514e	0.07290898
57	0x3db1594d	0.08659611
58	0x3ca9f7bd	0.020748014
59	0xbe93ced7	-0.28868744
60	0xbf9adfd3	-1.2099556
61	0xbeb41d06	-0.35178393
62	0x402600b3	2.5937927
63	0x3d9d292c	0.076738685
64	0xbe5e7c20	-0.21727037
65	0x3e538bf6	0.2065886
66	0xbf0cea42	-0.5504495
67	0xbef11741	-0.47088054
68	0x3ed5f1c8	0.41786027
69	0xbf20faaa	-0.62882483
70	0xbdd61f62	-0.104552045
71	0xbe82ad9a	-0.25523072
72	0xbec95da4	-0.39329255
73	0xbe8dbc64	-0.27682793
74	0xbebdd436	-0.37075967
75	0xbe1ec1bc	-0.15503591
76	0xbf245f97	-0.6420836
77	0xbe544324	-0.20728737
78	0xbe040b2f	-0.12894891
79	0x3f08ba41	0.534092
80	0xbbf0dc80	-0.0073505044
81	0xbec96e60	-0.39342022
82	0x3d855488	0.06510264
83	0xbee525c2	-0.4475537
84	0xbd2a0750	-0.04151088
85	0xbd7ca070	-0.061676443
86	0xbe4aa418	-0.1978916
87	0xbea45a14	-0.32099974
88	0x3e98d1ee	0.29847664
89	0xbe9e0a36	-0.30867165
90	0x3d1bcb08	0.038035423
91	0x3f7c5694	0.9856961
92	0xbf7e501c	-0.9934099
93	0xbe1a2fff	-0.15057372
94	0x3f72298b	0.9459464
95	0xbfcc290b	-1.5950025
96	0xbd61e770	-0.055152357
97	0xbd9cf5a8	-0.07664043
98	0xbd9ba7a0	-0.07600331
99	0xbd94b258	-0.07260579
100	0xbe0d6b33	-0.13810425
101	0x3e78101f	0.242249
102	0x3e567f8b	0.20947091
103	0x3f0b34ee	0.5437764
104	0x3ea6fd20	0.32614994
105	0xbdb815b3	-0.08988514
106	0x3eda86e7	0.42681047
107	0x3ca3dea5	0.020003626
108	0x3f13d14a	0.57741225
109	0xbe94f654	-0.29094183
110	0x3ecaaea9	0.3958638
111	0x3eff65f8	0.49882483
112	0xbe7ac3c8	-0.24488747
113	0x3e60bc1b	0.21946757
114	0x3f3bba81	0.7333146
115	0x3eae3584	0.34025204
116	0x3e295562	0.16536477
117	0x3ed849e1	0.42243865
118	0xbd413523	-0.047169816
119	0xbeb6b914	-0.35688078
120	0x3e4a5d33	0.19762115
121	0xbe699125	-0.22809274
122	0x3f03c224	0.5146811
123	0x3eb64ac7	0.35603926
124	0x3eddcefe	0.43321985
125	0xbd9b4d7f	-0.075831406
126	0xbdbb7991	-0.09154046
127	0xbdb047d0	-0.08607447
128	0xbead8ded	-0.33897343
129	0x3e9485d8	0.29008365
130	0xbf39e3d2	-0.7261325
131	0x3f08e065	0.534674
132	0x3e871af9	0.26387766
133	0x3d651d88	0.055936366
134	0x3eae318d	0.3402218
135	0x3f277919	0.65419155
136	0x3d4bfbf3	0.049800824
137	0x3ea17f01	0.3154221
138	0x3f2ad30c	0.6672828
139	0x3c544239	0.012955242
140	0x3eac3632	0.33635098
141	0x3e1d0ff8	0.15338123
142	0x3d882181	0.06647015
143	0x39972d5f	0.00028834768
144	0xbe9c4eda	-0.3052891
145	0xbdfe0b98	-0.12404555
146	0xbd674b90	-0.056468546
147	0xbe777ba8	-0.24168265
148	0x3db24ab5	0.087056555
149	0x3ebceb76	0.36898392
150	0xbca3e869	-0.020008283
151	0xbeb8b260	-0.3607359
152	0x3ce47160	0.027886093
153	0xbe8606b8	-0.26177
154	0x3ee02a76	0.43782395
155	0xbd3dda20	-0.0463506
156	0x3e0f5292	0.13996342
157	0xbf776e99	-0.96653134
158	0xbf6f284f	-0.9342088
159	0x3f31939e	0.6936587
160	0x3e89ea10	0.26936388
161	0x3e14b532	0.14522246
162	0xbeb03bb2	-0.34420544
163	0x3e8c66ac	0.27422082
164	0x3e47dca1	0.19517757
165	0x3e45ccb7	0.19316374
166	0xbe1c4102	-0.15259174
167	0x3f172014	0.5903332
168	0xbf357ac2	-0.7089044
169	0x3e62846b	0.22120826
170	0xbc32878b	-0.010896574
171	0x3d99aeb6	0.075040266
172	0x3e9e7593	0.30949077
173	0x3e759e85	0.23986252
174	0xbe97e023	-0.2966319
175	0x3dcc74f0	0.099832416
176	0x3dcab770	0.09898269
177	0x3e81748a	0.25284225
178	0x3ef14448	0.47122407
179	0x3e810290	0.25197268
180	0xbea30b1c	-0.31844413
181	0xbda9d598	-0.08292693
182	0x3ecde926	0.4021694
183	0x3ebf060e	0.37309307
184	0xbd68e860	-0.056862235
185	0xbe37691c	-0.1791119
186	0x3e7dde2c	0.24791783
187	0x3e95970e	0.29216808
188	0x3e04dfd1	0.12976004
189	0x3e8b26aa	0.27177936
190	0x3ebf4031	0.37353662
191	0x3e43d8bc	0.19125646
192	0xbe926c68	-0.28598332
193	0x3eac40bf	0.33643147
194	0x3e9fe2fa	0.31227857
195	0xbdeb6d46	-0.11495452
196	0xbfb432ee	-1.4078043
197	0xbeb18dfe	-0.34678644
198	0x3fd13be4	1.6346402
199	0xbff359cd	-1.901178
200	0x3e70abf2	0.23503092
201	0x3e19c467	0.15016328
202	0xbd6196b3	-0.05507536
203	0xbe9bd0f7	-0.30432865
204	0xbd8a38db	-0.067491256
205	0x3de15b37	0.11003726
206	0x3ebcbb99	0.36861876
207	0x3f05d00a	0.5227057
208	0x3e7dde38	0.24791801
209	0x3ec94c88	0.393162
210	0x3f1c3da3	0.6103155
211	0x3e3afe1d	0.18260999
212	0x3e4e5df1	0.20153023
213	0x3ead5e83	0.3386117
214	0x3d058b00	0.032603264
215	0xbea56135	-0.32300726
216	0x3e78e9b6	0.24307904
217	0xbefc3710	-0.4926076
218	0x3e7054dd	0.23469873
219	0x3e9d617e	0.30738443
220	0xbeff43d5	-0.4985644
221	0x3ed2060a	0.41020232
222	0xbe2b952c	-0.16756123
223	0x3e8f841c	0.2803048
224	0xbf68b207	-0.9089665
225	0xbf054680	-0.520607
226	0xbee09129	-0.43860748
227	0x400f8ee8	2.2430973
228	0xbe29b9fa	-0.1657485
229	0x3e325e29	0.17418732
230	0xbe55b51f	-0.20869873
231	0x3e973587	0.29533026
232	0xbede1090	-0.4337201
233	0xbdca5b68	-0.098807156
234	0x3eaccb76	0.33748978
235	0xbeb35db8	-0.3503244
236	0xbee96051	-0.45581296
237	0x3ed02dc0	0.40659904
238	0xbeefbeac	-0.4682516
239	0x3f8d3f80	1.1035004
240	0x3cae3195	0.021263877
241	0x3e998087	0.2998087
242	0xbdb6d257	-0.08926838
243	0x3da616a4	0.08109787
244	0x3d4af65c	0.049551353
245	0x3e276b12	0.16349438
246	0x3f037669	0.51352555
247	0x3df1085a	0.11769171
248	0x3d8ae455	0.06781832
249	0x3d76a858	0.06021914
250	0xbe6047cc	-0.21902388
251	0x3e7e8441	0.24855138
252	0x3f1a373f	0.6024055
253	0xbdc618f0	-0.09672725
254	0x3e5296f0	0.2056539
255	0xbef111bc	-0.47083843

linear_stack.0.bias f4 [400]
0	0x3f7177f6	0.9432367
1	0xbed7ad9a	-0.42124635
2	0x3f21fb74	0.6327431
3	0x3f56ef73	0.8395912
4	0xbed5a813	-0.41729793
5	0xbe969613	-0.29411373
6	0xbea330bc	-0.3187312
7	0x3eb9eb7f	0.36312482
8	0x3ea504ac	0.32230127
9	0xbe4914ba	-0.19636813
10	0xbedbacea	-0.4290536
11	0x3f019589	0.506188
12	0x3e617966	0.22018966
13	0x3ef1619b	0.4714478
14	0xbef618d3	-0.48065814
15	0x3f890fa0	1.0707893
16	0x3ef8e6cb	0.4861358
17	0x3eca666d	0.3953127
18	0xbd95fcc8	-0.07323605
19	0x3f07d439	0.530582
20	0xbc36b1c0	-0.011150777
21	0xbe6b4634	-0.22975999
22	0xbeed3d84	-0.46335995
23	0x3f9935d9	1.1969558
24	0xbef26690	-0.47343874
25	0x3f63b185	0.8894275
26	0xbf13a7e6	-0.5767807
27	0x3f227478	0.6345897
28	0xbe4011ea	-0.18756834
29	0x3f444734	0.7667115
30	0x3f377a2b	0.7167079
31	0x3eb0d7af	0.34539554
32	0x3e8ab4d1	0.27091077
33	0xbef64d4e	-0.48105854
34	0xbed56159	-0.41675833
35	0x3f2510f5	0.64479
36	0xbedabfa2	-0.4272433
37	0x3f4d4384	0.80181146
38	0xbecb61da	-0.39723092
39	0xbe9d7328	-0.3075192
40	0x3f5688cb	0.8380248
41	0x3e78611a	0.24255791
42	0x3e9bc8b4	0.30426562
43	0x3e88e6c1	0.2673855
44	0xbeed7a45	-0.46382347
45	0xbe6bd7c8	-0.23031533
46	0xbe9738da	-0.29535562
47	0x3de40546	0.11133818
48	0x3f254f5f	0.64574236
49	0x3fc2bde9	1.5214206
50	0x3edc0090	0.4296918
51	0xbf10b05f	-0.5651912
52	0xbf1e3c9c	-0.6181123
53	0x3f36b5b4	0.71371007
54	0xbf2fcb06	-0.68669164
55	0x3ef74b1c	0.4829949
56	0x3eff1392	0.49819618
57	0xbe3eeb5f	-0.18644474
58	0xbebfcf1c	-0.374627
59	0x3ddfd244	0.10928777
60	0xbe4f0e48	-0.20220292
61	0x3f6b0f3b	0.91820115
62	0xbf127384	-0.5720751
63	0x3e323f43	0.17406945
64	0x3e03f36a	0.12885824
65	0x3f213640	0.62973404
66	0x3e9509a7	0.29108927
67	0x3f5761bd	0.8413351
68	0xbd0b3d70	-0.03399414
69	0x3ed15166	0.40882415
70	0x3f08f287	0.5349507
71	0xbdb52694	-0.08845249
72	0x3e8604be	0.26175493
73	0x3e32016d	0.17383356
74	0xbf1d0fe9	-0.613524
75	0x3f4425a0	0.7661991
76	0xbe936002	-0.28784186
77	0xbec92a20	-0.3928995
78	0x3fa30374	1.2735429
79	0x3f99d842	1.2019122
80	0x3f11ae87	0.5690693
81	0x3e1b0c0a	0.15141311
82	0x3e713ed2	0.2355912
83	0x3f787752	0.9705707
84	0x3f2ce8c4	0.6754267
85	0xbe814f23	-0.2525569
86	0x3f343944	0.7039988
87	0x3e440678	0.19143093
88	0xbd6f4a80	-0.058420658
89	0x3f284f3e	0.65745914
90	0xbeee0168	-0.46485448
91	0x3f3907db	0.7227761
92	0xbe4b6589	-0.19862951
93	0x3e526a54	0.20548373
94	0x3f80af57	1.005351
95	0xbc528dc0	-0.012851179
96	0x3e256004	0.16149908
97	0xbdd66198	-0.10467833
98	0xbad2836b	-0.0016060894
99	0xbf1d0dfc	-0.61349463
100	0x3f9dd318	1.2330046
101	0x3f599b64	0.8500273
102	0xbf4633c2	-0.77422726
103	0xbf08082d	-0.53137475
104	0x3e8d3180	0.27576828
105	0x3f07f83e	0.5311316
106	0xbf0ec541	-0.55769736
107	0x3e1ebdab	0.1550204
108	0xbe5299f5	-0.20566542
109	0x3f2938c5	0.6610225
110	0x3e527b4f	0.20554851
111	0x3f17514b	0.5910842
112	0xbeb5ca1b	-0.35505757
113	0x3f398e6e	0.72482955
114	0x3e50da53	0.20395784
115	0x3f008653	0.5020496
116	0xbb617359	-0.0034401028
117	0xbf121c82	-0.5707475
118	0x3ee879d9	0.45405462
119	0xbe74801d	-0.23876996
120	0x3e6f91bc	0.23395437
121	0x3f3b81fb	0.7324521
122	0x3eee9577	0.46598408
123	0x3f29fd71	0.66402346
124	0xbeeff868	-0.46869206
125	0xbef79540	-0.48356056
126	0x3f9efd00	1.242096
127	0x3f75457c	0.9580915
128	0x3f1284b1	0.5723372
129	0x3ef11502	0.4708634
130	0xbe192838	-0.14956748
131	0x3ede6dcd	0.43443146
132	0xbde8260c	-0.11335382
133	0x3f1b7c94	0.60736966
134	0x3e93929c	0.28822792
135	0xbdc842b4	-0.097783476
136	0x3eed3f0b	0.4633716
137	0xbee20a08	-0.44148278
138	0xbe9a5e12	-0.30149895
139	0x3ee902c0	0.4550991
140	0x3f4680a8	0.77540064
141	0x3f2a9460	0.6663265
142	0x3d9fc916	0.07802026
143	0x3f31c2d4	0.6943791
144	0xbc7391cc	-0.014866304
145	0xbe7fee94	-0.24993354
146	0xbe583d94	-0.2111724
147	0x3f4c7a6e	0.7987431
148	0x3f212e0a	0.62960875
149	0xbe082320	-0.13294649
150	0x3ef531b0	0.4788947
151	0x3f1a5c32	0.6029693
152	0xbe467074	-0.19378835
153	0xbf0008fe	-0.5001372
154	0xbe8c23ac	-0.27370965
155	0x3eb2a9cc	0.3489517
156	0xbee66fea	-0.4500726
157	0xbce762a0	-0.02824527
158	0x3e90d095	0.28284135
159	0x3f622755	0.88341266
160	0x3f60a6fd	0.87754804
161	0x3d0b1e78	0.033964604
162	0xbf46b2ea	-0.7761675
163	0xbe9cdbc0	-0.30636406
164	0x3ebc007e	0.36719126
165	0xbd9ad8e8	-0.07560903
166	0xbee71833	-0.4513565
167	0x3ede4928	0.4341519
168	0x3edd601a	0.43237382
169	0x3ed7eed6	0.42174405
170	0x3f5e68f3	0.8687889
171	0x3eaba5f0	0.33525038
172	0xbf2d7043	-0.6774942
173	0xbdec7880	-0.11546421
174	0x3efb5c07	0.4909365
175	0x3f023c35	0.5087312
176	0x3e616db4	0.22014505
177	0x3f74825b	0.95511407
178	0xbed97eba	-0.42479497
179	0xbedb3ad7	-0.4281833
180	0xbe964e7d	-0.29356757
181	0x3e0589f1	0.13040902
182	0x3f74bff2	0.95605385
183	0x3ea24d03	0.3169938
184	0xbea60512	-0.32425743
185	0xbdaa6437	-0.08319896
186	0xbf1a80d7	-0.60352844
187	0xbee894b0	-0.4542594
188	0x3f420913	0.75795096
189	0xbf59b7ed	-0.85046273
190	0x3eb0218e	0.344006
191	0xbf13b6af	-0.5770063
192	0xbe995467	-0.29947206
193	0xbd9afa22	-0.0756724
194	0xbe69efa8	-0.22845328
195	0xbf49d709	-0.7884374
196	0x3f0d6a69	0.55240494
197	0x3eff26dd	0.49834338
198	0xbf285886	-0.65760076
199	0x3f0e67e3	0.5562727
200	0x3e9fdb5d	0.31222048
201	0x3e22d244	0.15900522
202	0x3e1c154f	0.15242504
203	0xbefe9ad8	-0.4972751
204	0xbc42b869	-0.011884787
205	0xbd2033c0	-0.039111853
206	0x3f337263	0.70096415
207	0x3f9bc238	1.2168646
208	0xbcd4bbe0	-0.025968492
209	0x3eddad30	0.43296194
210	0x3f11f646	0.5701641
211	0x3f31fb98	0.69524527
212	0x3f46ee1b	0.7770707
213	0x3e873e1d	0.26414576
214	0xbb9ac836	-0.004723574
215	0x3f65fc36	0.8983797
216	0x3efb96e4	0.49138558
217	0x3e599638	0.2124871
218	0xbdf7b670	-0.12095344
219	0x3eaab272	0.33339268
220	0xbf27a036	-0.6547884
221	0x3ec6de37	0.3884141
222	0x3f424de2	0.7590009
223	0x3df848da	0.1212327
224	0x3f51a730	0.8189573
225	0xbf2206c5	-0.6329158
226	0x3e5a5e9e	0.21325156
227	0x3e945e66	0.2897827
228	0xbf04f61f	-0.5193805
229	0x3ee962d7	0.4558322
230	0x3f885d54	1.0653481
231	0x3f4f37ff	0.8094482
232	0x3ea92f70	0.33044004
233	0xbd57dcc1	-0.05270076
234	0xbf460db9	-0.7736469
235	0xbebd7f02	-0.37010962
236	0x3fa4668b	1.2843794
237	0x3d954056	0.07287662
238	0xbed1cab8	-0.40974975
239	0xbefd244e	-0.4944176
240	0xbef65cce	-0.4811768
241	0xbee5a05d	-0.4484891
242	0x3f2fce15	0.6867383
243	0x3f0c9135	0.5490907
244	0x3f524cd3	0.82148474
245	0x3ef9a9fb	0.48762497
246	0x3f760523	0.9610159
247	0x3f0ce399	0.55034786
248	0xbecfe0f8	-0.40601325
249	0x3f26d8e0	0.65174675
250	0xbefa735c	-0.48916137
251	0xbf5a35fe	-0.85238636
252	0xbe8a8018	-0.27050853
253	0x3f595af7	0.84904426
254	0xbf35ea9a	-0.710611
255	0xbeb142cb	-0.34621271

linear_stack.2.weight f4 [400, 400]
0	0xbd35426a	-0.04425279
1	0x3a8fef9a	0.0010981441
2	0xbd35fcbb	-0.044430476
3	0xbcef3387	-0.029199375
4	0xbd4af34b	-0.04954843
5	0xba17decd	-0.0005793393
6	0xbc5dbe07	-0.013534076
7	0xbb929b4d	-0.0044740797
8	0x3cbc363d	0.022975082
9	0xbd028ee3	-0.03187455
10	0x3d284ca2	0.041088708
11	0xbb3084b3	-0.0026934564
12	0x3d3766af	0.04477566
13	0x3c2563ed	0.010094625
14	0x3bede8b3	0.007260406
15	0xbd408093	-0.046997618
16	0x3ce5070a	0.027957458
17	0x3c7f2713	0.015573281
18	0x3d16b77a	0.03679607
19	0xbd250870	-0.04029125
20	0x3c6ebe8d	0.014571798
21	0xbb0dee4d	-0.002165693
22	0xbc40b120	-0.01176098
23	0x3d3b2e40	0.045698404
24	0xbc9f6247	-0.019456042
25	0x3d179a7a	0.037012555
26	0x3c5872a0	0.0132109225
27	0x3d39b8da	0.045342304
28	0xbc8813da	-0.016611028
29	0xbc089e73	-0.0083385585
30	0x39f50ccd	0.0004673958
31	0x3d357bc0	0.04430747
32	0x3cbd67a0	0.023120701
33	0xbc6a62fa	-0.014305824
34	0xbd35ffea	-0.04443351
35	0xbd49f9d3	-0.049310517
36	0xbd43920d	-0.047746707
37	0xbcaaee93	-0.020865714
38	0xbcf2a70d	-0.029620672
39	0xbc10dafa	-0.008841271
40	0x3bae91e7	0.0053274515
41	0x3cffb0d7	0.031212253
42	0xbbee76b3	-0.0072773336
43	0xbcd62d9d	-0.026144797
44	0xbd2648d7	-0.04059681
45	0x3cee6d4a	0.029104847
46	0x3d091fc5	0.033477563
47	0xbcc1d9ca	-0.02366342
48	0x3b367f33	0.0027846813
49	0x3b822f73	0.0039729415
50	0x3d108512	0.035283156
51	0xbce80bd0	-0.028325945
52	0x3ca751aa	0.020424683
53	0x3c27282d	0.01020245
54	0x3cdeb757	0.027187033
55	0xb9210000	-0.00015354156
56	0xbd390f67	-0.045180704
57	0x3c2b55ad	0.010457438
58	0xbd409b83	-0.047023308
59	0xbd4a28f3	-0.04935546
60	0xbc75bb13	-0.014998215
61	0xbcec6787	-0.02885796
62	0x3c728eba	0.0148045365
63	0xbd001823	-0.03127302
64	0x3d22b40b	0.039722484
65	0xbd216260	-0.03940046
66	0xbd06e1ff	-0.03293037
67	0xbc6875e7	-0.014188266
68	0xbd352cdd	-0.044232238
69	0xbd06eaf5	-0.032938916
70	0xba127f9a	-0.0005588472
71	0xbc4f8940	-0.012667
72	0xbd0eb457	-0.034839954
73	0xbd26d5ad	-0.04073112
74	0x3d3629cb	0.04447345
75	0xbd0a5edf	-0.033781882
76	0x3ccbbabd	0.024869317
77	0x3d2227aa	0.039588608
78	0x3ce101c7	0.027466668
79	0x3c97740a	0.018487949
80	0xbd27700a	-0.040878333
81	0x3c8b15e0	0.016978204
82	0xbd2fa932	-0.042885967
83	0x396aeb33	0.00022403598
84	0x3d42e233	0.047579
85	0xbd057723	-0.03258432
86	0xbd08b782	-0.03337813
87	0xbcfac570	-0.030611724
88	0x3d3d8b67	0.046275523
89	0x3c5800e7	0.013183809
90	0x3bde105a	0.0067768516
91	0xbd3f7052	-0.046737976
92	0x3d28835b	0.041140895
93	0x3c7b1373	0.015324461
94	0xbc6143da	-0.013749087
95	0xbb9a5f00	-0.004711032
96	0xbccf0aa3	-0.025273627
97	0xbd411d8d	-0.047147322
98	0xbd24fa28	-0.04027763
99	0x3a7a7533	0.0009554207
100	0xbcbe2a03	-0.023213392
101	0x3cd526f3	0.026019549
102	0xbbd7e833	-0.0065889596
103	0xbc0d8b00	-0.008639097
104	0x3ce82970	0.028340071
105	0xbcd0c457	-0.025484247
106	0x3c180073	0.009277451
107	0xbcc44baa	-0.02396186
108	0xbc85af83	-0.016319042
109	0xbd32e6c7	-0.043677118
110	0x3ca295ea	0.019846875
111	0x3d1b6593	0.037938666
112	0x3d458e50	0.048231423
113	0xbb622f33	-0.0034512996
114	0x3ce6af43	0.028159743
115	0x3d321093	0.043472838
116	0x3c04ee8d	0.008113516
117	0xbcae71b3	-0.02129445
118	0xbd0a6b10	-0.03379351
119	0x3caead6d	0.02132293
120	0xbd48d278	-0.049028844
121	0xbcceb163	-0.025231069
122	0xbc1431a7	-0.009045041
123	0xbcd9b2da	-0.02657454
124	0xbb8f1b27	-0.0043672505
125	0xbccce757	-0.025012655
126	0xbd13e683	-0.036108505
127	0xbcc347ea	-0.023838002
128	0xbd09b545	-0.033620138
129	0x3d4b4dc0	0.049634695
130	0xbc721acd	-0.014776898
131	0xbc662ea0	-0.014049202
132	0xbc91fc4a	-0.017820496
133	0xbd0eca4f	-0.034860905
134	0xbb1a284d	-0.0023522556
135	0xba93cb00	-0.0011275709
136	0x3cef42a3	0.02920658
137	0xbca8f7d0	-0.020625979
138	0x3d04ce38	0.032423228
139	0x3cee4f10	0.029090434
140	0x3bd9dab3	0.0066483854
141	0x3d3fbf13	0.046813082
142	0x3ce7dfe3	0.028305
143	0x3d1bffd2	0.038085766
144	0x3be45ada	0.006968838
145	0x3bf8bf80	0.007591188
146	0xbcfa2147	-0.030533446
147	0xbd10b502	-0.035328873
148	0x3cee2c47	0.029073847
149	0xbcf6c7cd	-0.03012457
150	0xbc7ac8b3	-0.0153066395
151	0xbcd06990	-0.025440961
152	0xbcb63020	-0.022239745
153	0xbd24082b	-0.040046852
154	0xbc0c8a2d	-0.008577866
155	0x3ce04a70	0.027379245
156	0xbd02a380	-0.031894207
157	0xb91f319a	-0.000151819
158	0xbccb092d	-0.024784649
159	0xbd1612a5	-0.036638875
160	0xbd2001ea	-0.039064325
161	0x3d2e49bf	0.0425508
162	0x3d22d9c8	0.039758474
163	0x3caf095a	0.021366764
164	0xbb78ee00	-0.0037983656
165	0x3c8a44b0	0.016878456
166	0xbcd4267d	-0.025897259
167	0xbcd96547	-0.02653755
168	0xbd026988	-0.031838924
169	0x3d1e4600	0.038640976
170	0x3bded58d	0.0068003596
171	0xbcd57fd3	-0.026061928
172	0xbc7a95ad	-0.015294475
173	0xbc3027ed	-0.010751707
174	0x3c35c96d	0.011095387
175	0x3a916000	0.0011091232
176	0xbd3206ea	-0.043463625
177	0x3d1d7745	0.038443822
178	0xbce6ff23	-0.02819783
179	0xbbb15c9a	-0.0054126503
180	0xbd222f50	-0.039595902
181	0x3d3bbc88	0.045834094
182	0xbcb9619d	-0.022629553
183	0xbcf6b05a	-0.030113388
184	0xbcb4f9f0	-0.022091836
185	0x3cb1b063	0.021690553
186	0x3d127cab	0.035763424
187	0xbc215c47	-0.009848661
188	0x3b462100	0.0030232072
189	0xb9348ccd	-0.0001721859
190	0x3cb2803d	0.021789664
191	0x3d2d754a	0.042348184
192	0xbaaf1c9a	-0.0013359964
193	0x3cc0bc2d	0.02352723
194	0x3cc077dd	0.023494655
195	0x3c51cdf3	0.01280545
196	0x3d4783e5	0.04870977
197	0x3c0aff47	0.008483714
198	0x3d075d25	0.033047814
199	0xbd04beb0	-0.032408416
200	0x3caf8bfa	0.02142905
201	0x3d30ac02	0.04313279
202	0x3d1866a5	0.037207264
203	0xbd3c8930	-0.04602927
204	0xbccc152d	-0.024912441
205	0x3b0ed867	0.0021796466
206	0xbd2aa2ef	-0.04165929
207	0xbd04da8f	-0.032434996
208	0x3d3d98b5	0.04628821
209	0x3caf4947	0.021397246
210	0x3d114693	0.035467695
211	0xbc51ac47	-0.012797422
212	0xbd216e2d	-0.039411712
213	0xbce8553a	-0.028360952
214	0x3b326d33	0.0027225732
215	0x3d349442	0.044086702
216	0xbd12e735	-0.035865027
217	0x3cbb220a	0.02284338
218	0x3d0d0ea7	0.0344378
219	0xbc6acb87	-0.014330751
220	0x3ca635e7	0.020289375
221	0xbd1fd37f	-0.039020058
222	0xbbb29400	-0.005449772
223	0xba2de19a	-0.00066330435
224	0x3d010de3	0.031507384
225	0xbced39dd	-0.028958255
226	0xbc645967	-0.013937331
227	0xbc490a60	-0.01227054
228	0x3d3c0607	0.045904186
229	0x3cb21b5a	0.021741558
230	0x3c46ff0d	0.01214577
231	0x3d05273d	0.032508124
232	0xbca1ff6a	-0.019775111
233	0xbd2a0762	-0.041510947
234	0x3d1105aa	0.035405792
235	0x3d278400	0.04089737
236	0xbc9fc8f0	-0.019504994
237	0x3cfd9f6d	0.03095981
238	0xbc11ddda	-0.008902991
239	0x3c818b1a	0.0158134
240	0x3d1f250d	0.038853694
241	0xbd01acdd	-0.031658996
242	0xbd4bc3fd	-0.049747456
243	0xbd4c8b4b	-0.049937528
244	0xbcb5d8fa	-0.022198189
245	0xbb1ff54d	-0.0024407685
246	0xbd144da5	-0.03620686
247	0xbd0d42af	-0.034487423
248	0x3cdd7e4a	0.027037758
249	0x3c8664e7	0.016405536
250	0xbd2db15f	-0.042405482
251	0x3d08d47f	0.033405777
252	0xbc33d440	-0.010975897
253	0x3c2a655a	0.010400141
254	0xbb4a70b3	-0.0030889928
255	0x3cf2dc63	0.029646104

linear_stack.2.bias f4 [400]
0	0xbcef60ba	-0.029220928
1	0x3e845483	0.25845727
2	0xbd4000d0	-0.046875775
3	0x3e470eb5	0.19439204
4	0x3e85b0cb	0.26111445
5	0x3e734ae2	0.23759034
6	0x3c86d5f6	0.016459446
7	0xbc4adcc8	-0.01238174
8	0x3e3fd99f	0.1873536
9	0x3e3e1ece	0.18566439
10	0xbd241900	-0.040062904
11	0xbc81548a	-0.015787382
12	0xbc7d9bed	-0.01547907
13	0x3ecd1958	0.40058398
14	0xbc65ca94	-0.014025349
15	0x3ea53a13	0.3227087
16	0x3e62a00f	0.2213137
17	0xbbff616c	-0.007793596
18	0x3e87cc86	0.26523226
19	0xbd11447f	-0.035465714
20	0xbb25e700	-0.0025314689
21	0xbd395023	-0.04524244
22	0x3e83ad53	0.25718173
23	0x3e4e3cc6	0.2014037
24	0xbd332337	-0.043734755
25	0x3ea5f677	0.324146
26	0x3e48e839	0.19619836
27	0x3e33082f	0.1748359
28	0x3e4733b9	0.19453324
29	0x3d7a295c	0.0610746
30	0xbc976a0a	-0.01848318
31	0xbcbc7edd	-0.023009712
32	0x3b940b33	0.0045179366
33	0x3e729162	0.23688272
34	0x3e4b0ce7	0.1982914
35	0x3e5b1da3	0.21398024
36	0x3e3bf859	0.18356456
37	0xbd3ec440	-0.046573877
38	0x3ec772de	0.38954824
39	0x3e89e0c2	0.2692929
40	0x3dcbe347	0.09955459
41	0x3de3f011	0.111297734
42	0x3b427b0c	0.0029675392
43	0x3dc09b60	0.094046354
44	0x3e55c57b	0.20876114
45	0xbcfc6e43	-0.030814296
46	0x3e2d6aa3	0.1693521
47	0x3e8245ac	0.2544378
48	0x3e7b6db5	0.24553569
49	0x3e12c149	0.14331545
50	0xbd130ae4	-0.035899058
51	0x3e414c77	0.18876825
52	0x3ded89a7	0.11598521
53	0xbcdfa343	-0.027299529
54	0x3e24c557	0.16090904
55	0x3c0f7b99	0.008757495
56	0x3a589a6c	0.0008262757
57	0x3c9e1c4c	0.019300602
58	0x3e74d95b	0.2391104
59	0x3e8ea4c8	0.27860093
60	0xbd1493ba	-0.036273696
61	0x3e7717af	0.24130128
62	0x3e15d7cc	0.14633101
63	0xbc802378	-0.015641913
64	0x3e4b2c09	0.19841017
65	0x3eac84dd	0.33695117
66	0x3e73e365	0.23817213
67	0x3db3cd7f	0.0877943
68	0x3e932989	0.28742626
69	0xbcea11b2	-0.02857289
70	0xbd2ae355	-0.041720707
71	0x3e4da3a9	0.20081963
72	0xbcd7813d	-0.026306743
73	0xbd02a420	-0.031894803
74	0xbd36be92	-0.044615336
75	0x3ca7bea0	0.02047664
76	0x3caa821e	0.020813998
77	0x3eb53433	0.35391387
78	0x3e39078c	0.18069285
79	0xbd3f47ba	-0.046699263
80	0x3e6049e4	0.21903187
81	0x3e51001c	0.20410198
82	0xbd275d0a	-0.040860213
83	0x3c14fa44	0.009092871
84	0x3e8f6aae	0.28011078
85	0x3be888f3	0.0070964037
86	0x3dc406f6	0.0957164
87	0x3e16500f	0.14678977
88	0xbd11c94a	-0.035592355
89	0x3e43dd01	0.19127275
90	0xbd084daa	-0.03327719
91	0xbd1da127	-0.038483765
92	0xbca363be	-0.019945022
93	0x3aa7dd67	0.0012807072
94	0x3e864eac	0.26231897
95	0x3e74a98c	0.23892802
96	0xbd0ad3ad	-0.033893276
97	0xbd62ab77	-0.055339303
98	0x3dd47455	0.10373751
99	0x3e2ac089	0.16675009
100	0x3e277a09	0.16355146
101	0x3e4c1e33	0.19933395
102	0x3e3b7e94	0.18310004
103	0xbce4e5e7	-0.027941657
104	0x3e66b386	0.2252942
105	0x3e3c027d	0.18360324
106	0x39b30dd3	0.0003415184
107	0x3e8904a0	0.2676134
108	0xbd0bccc6	-0.034130834
109	0x3e8800e7	0.26563188
110	0xbd05b833	-0.03264637
111	0xbbcc305a	-0.00623135
112	0x3e917be1	0.28414825
113	0x3db778ce	0.089585885
114	0x3e280555	0.16408284
115	0x3e01b275	0.12665732
116	0x3c5794a7	0.013158
117	0x3e3bdf92	0.18347004
118	0xbd366078	-0.044525594
119	0x3d4b9e20	0.049711347
120	0x3e4494a0	0.19197321
121	0x3bd2bea7	0.006431419
122	0x3e3a3637	0.18184744
123	0x3e211e19	0.15734138
124	0xbd11a7cd	-0.035560418
125	0xbc76073e	-0.015016375
126	0x3dd302f8	0.103033006
127	0x3e40ee90	0.18841004
128	0x3df43903	0.119249366
129	0xbcb0ec4f	-0.021597056
130	0xbd4f45d2	-0.050603695
131	0x3b856f4d	0.004072106
132	0x3c98f510	0.018671542
133	0x3e7924ec	0.24330491
134	0x3e277456	0.16352972
135	0x3e063592	0.13106373
136	0x3e23f050	0.1600964
137	0x3ccf7ef0	0.025329083
138	0x3e525f46	0.20544156
139	0xbd16be1d	-0.0368024
140	0x3d0c6476	0.034275495
141	0x3e846116	0.2585532
142	0xbc6ff34c	-0.014645409
143	0x3e23122d	0.15924902
144	0x3e387b70	0.18015838
145	0xbd303f75	-0.043029267
146	0xbc810f7a	-0.01575445
147	0x3e595562	0.21223977
148	0x3e4043b1	0.18775822
149	0xbcad61e3	-0.02116484
150	0xbd09f782	-0.033683307
151	0x3c1bb64c	0.009503912
152	0xbd0c6566	-0.03427639
153	0x3e87b866	0.26507872
154	0xbd4693aa	-0.048480667
155	0x3d4cae21	0.04997075
156	0x3e353d3e	0.17699143
157	0x3e81ec6c	0.25375688
158	0x3e872a87	0.26399633
159	0x3de245e1	0.110484846
160	0xbd5455da	-0.051839687
161	0x3e80e1ee	0.2517237
162	0xbb9bc954	-0.004754225
163	0xbb3fbc68	-0.0029256586
164	0x3d1332ec	0.035937235
165	0xbd13f799	-0.0361248
166	0x3e0cb852	0.13742188
167	0xbdd9ec6c	-0.10640797
168	0xbcb2dfcd	-0.021835232
169	0x3d3dd49c	0.04634534
170	0x3db5eb2e	0.088827476
171	0x3ddf2259	0.10895223
172	0x3dde4a56	0.10854022
173	0x3e450cf7	0.19243227
174	0x3e0c71a5	0.13715227
175	0x3e573cb7	0.21019255
176	0xbd3f993c	-0.046776995
177	0xbce80073	-0.028320527
178	0x3e95c0ab	0.29248556
179	0x3c88b27d	0.016686672
180	0xbd18af8c	-0.03727679
181	0x3ea4d854	0.32196295
182	0x3e4e1dce	0.20128557
183	0x3d80b696	0.062848255
184	0x3deced0f	0.11568653
185	0xbc185498	-0.0092975125
186	0x3e50f4ee	0.20405933
187	0x3c976a7b	0.018483391
188	0xbbca3571	-0.0061709215
189	0x3d314fb9	0.04328892
190	0x3ce59a0b	0.028027555
191	0xbcbaebe0	-0.022817552
192	0x3e29875a	0.16555539
193	0x3d02da6e	0.031946592
194	0x3cb6f8b5	0.02233539
195	0x3e03b227	0.12860928
196	0x3e44f6ab	0.19234721
197	0xbc59f43a	-0.013302857
198	0xbbe2b44d	-0.006918466
199	0x3e9615e8	0.29313588
200	0x3e35bb80	0.17747307
201	0x3e03e0e9	0.12878765
202	0x3e9024b1	0.28152993
203	0x3e7df5e3	0.2480083
204	0xbca98517	-0.020693345
205	0x3e643432	0.22285536
206	0x3e096506	0.13417444
207	0x3eb1ed3d	0.3475131
208	0x3e1d61fa	0.15369406
209	0xb9325d96	-0.00017010266
210	0x3e85c440	0.2612629
211	0x3d21bf23	0.039488923
212	0x3e5be527	0.21474133
213	0xbd6233d2	-0.0552252
214	0x3c3d064d	0.011537147
215	0x3bc6220a	0.0060465382
216	0x3e154de7	0.14580499
217	0x3eb555b2	0.35416943
218	0x3e40b089	0.18817343
219	0x3d4d6196	0.050141893
220	0xbc545519	-0.012959742
221	0x3cffd063	0.031227296
222	0xbba9475b	-0.005165977
223	0x3e69926a	0.22809759
224	0xbce9639d	-0.028489882
225	0x3cb7c863	0.022434419
226	0xbd281805	-0.04103853
227	0xbd58ab01	-0.052897457
228	0x3af2dbbd	0.0018528622
229	0x3dd3325f	0.10312342
230	0x3ea721ab	0.32642874
231	0x3dfad87c	0.12248322
232	0xbbcb108d	-0.0061970414
233	0x3e5251d1	0.20539023
234	0x3e17c03e	0.14819428
235	0xbd0f64d0	-0.03500825
236	0x3e30fdbb	0.1728429
237	0x3d080bca	0.033214368
238	0x3e9435ee	0.28947395
239	0x3e7b81a9	0.2456118
240	0x3ba419a7	0.005007941
241	0x3c82e6f0	0.01597926
242	0x3e96218a	0.29322463
243	0xbd3c1bfb	-0.04592512
244	0x3e234b05	0.15946586
245	0x3dc2d517	0.095133
246	0x3d16e298	0.03683719
247	0x3e8af2ee	0.27138466
248	0x3d1a5153	0.037675213
249	0x3eb444d5	0.35208765
250	0x3e1ed5ad	0.15511198
251	0x3e3cd7ce	0.18441698
252	0xbc7a4ba0	-0.0152768195
253	0x3ddcfb35	0.107901014
254	0x3e335225	0.17511804
255	0x3e92100a	0.28527862

linear_stack.4.weight f4 [5, 400]
0	0x3cfd07ca	0.030887503
1	0x3e7336b3	0.23751335
2	0xbcf97a23	-0.030453747
3	0x3de79023	0.11306789
4	0x3e3f183a	0.18661585
5	0xbf97e951	-1.1868078
6	0xbc2d3d03	-0.010573628
7	0x3cde0d46	0.027105939
8	0x3dbf0f29	0.093290634
9	0x3eaea593	0.34110698
10	0xbd43c753	-0.047797512
11	0xbcee2963	-0.02907247
12	0x3c86d750	0.01646009
13	0x3ecbbd29	0.39792755
14	0xbc73e78d	-0.014886749
15	0x3ed29bac	0.41134393
16	0x3e99b4ee	0.3002085
17	0xbc83a5f4	-0.016070344
18	0x3e1a25a9	0.15053429
19	0xbce011e0	-0.027352273
20	0xbd315000	-0.043289185
21	0x3c12be9a	0.008956576
22	0x3ea28b3e	0.31746858
23	0x3dcfa57b	0.10138985
24	0xbd1b6f11	-0.037947718
25	0x3ef17dd6	0.47166318
26	0x3e0a245b	0.13490431
27	0x3ca73aaa	0.020413715
28	0x3eb86487	0.36014196
29	0x3d2bc37d	0.04193448
30	0x3caaac73	0.020834183
31	0x3c6f795a	0.014616335
32	0x3d25b45a	0.0404552
33	0x3e0d780f	0.1381533
34	0x3e305349	0.17219271
35	0x3e06d39d	0.13166662
36	0x3e204fdc	0.15655464
37	0x3c3af29a	0.01141038
38	0x3df14e1a	0.11782475
39	0x3e107b2f	0.14109491
40	0x3c6feb85	0.014643555
41	0x3d6ee43b	0.058323126
42	0xbb1ad1df	-0.0023623628
43	0x3c5b9c3e	0.01340395
44	0x3de9ed01	0.11422158
45	0x3d360fd2	0.04444868
46	0x3df42ef9	0.11923022
47	0x3e804818	0.25055003
48	0x3ecce57c	0.40018833
49	0x3e7c90e9	0.24664654
50	0x3d1c88c1	0.038216356
51	0x3e23c8c4	0.15994555
52	0x3d3b27a3	0.045692097
53	0xbd3339fb	-0.043756466
54	0x3d62b83d	0.055351485
55	0x3ce10f13	0.027473008
56	0xbc08f492	-0.008359091
57	0xbd0d916f	-0.034562524
58	0x3e186cd7	0.14885269
59	0x3ede2978	0.43391013
60	0x3bf7d880	0.0075636506
61	0x3ed2db07	0.4118273
62	0x3dd9759d	0.10618136
63	0xbd020f68	-0.031752974
64	0x3de93dc8	0.11388737
65	0x3ebdeb96	0.370938
66	0x3df68c03	0.12038424
67	0x3e8c79fc	0.27436817
68	0x3e63b912	0.22238567
69	0x3c3bf971	0.011473046
70	0xbd4922bf	-0.049105402
71	0x3e32f169	0.17474903
72	0xbd3dc56a	-0.046330847
73	0x3bb5a833	0.0055437325
74	0xbb1f9fe7	-0.0024356784
75	0xbcf08e2d	-0.02936467
76	0x3abd1d1c	0.0014428231
77	0x3f42f84a	0.7616011
78	0x3e06e0d0	0.13171697
79	0xbd041fd7	-0.032256927
80	0x3ea868a6	0.3289234
81	0x3e0d6205	0.13806923
82	0xbd04871a	-0.032355405
83	0xbc22b0ca	-0.009929845
84	0x3dfd0b9c	0.1235573
85	0x3ca8ac5a	0.020589996
86	0x3d63774c	0.055533692
87	0x3e062620	0.13100481
88	0xbd4b53b3	-0.04964037
89	0x3dd0fb9a	0.10204239
90	0x3ccfdecf	0.025374798
91	0xbd22d0d6	-0.039749943
92	0xbc5eb975	-0.013594021
93	0x3a99ab33	0.0011723995
94	0x3e4e06e4	0.20119816
95	0x3f137ab0	0.5760908
96	0x3ce260dd	0.027634079
97	0xbd080884	-0.033211246
98	0x3d1237fb	0.03569792
99	0x3e8037e1	0.25042632
100	0x3d9ea612	0.07746519
101	0x3e29ecf7	0.16594301
102	0x3e97118e	0.2950558
103	0x3c0e2e1f	0.008677988
104	0x3e26820e	0.1626055
105	0x3e1d6cee	0.15373585
106	0x3d192c0d	0.037395526
107	0x3e5c8cb3	0.21538047
108	0x3c5bfb23	0.013426575
109	0x3e3601d4	0.17774135
110	0xbd2de82d	-0.04245775
111	0xbcbdaf83	-0.02315498
112	0x3e4e5ff8	0.20153797
113	0x3e89af62	0.2689162
114	0x3db61169	0.088900395
115	0x3e01812a	0.12646928
116	0xbd00f5eb	-0.031484526
117	0x3d832c06	0.06404881
118	0xbc227f7a	-0.009918088
119	0xbd143402	-0.03618241
120	0x3e152dae	0.14568207
121	0xbd14ca0b	-0.036325496
122	0x3d44f41e	0.04808437
123	0x3e7585ad	0.23976775
124	0x3d19d5da	0.03755746
125	0xbbd84667	-0.0066001895
126	0xbc3050b9	-0.010761433
127	0x3e329b39	0.17442025
128	0x3de8f9a8	0.11375743
129	0x3ca037e1	0.019557895
130	0xbb92cc80	-0.0044799447
131	0x3be1a840	0.006886512
132	0xbc233d39	-0.009963327
133	0x3f3fe89b	0.749643
134	0x3e2f2f73	0.17107944
135	0x3dc1c5a2	0.094615236
136	0x3e06fc06	0.13182077
137	0xbd125bba	-0.03573201
138	0x3deaa003	0.11456301
139	0x3c5fe8e7	0.013666368
140	0x3981d8f6	0.00024766446
141	0x3dce5789	0.1007529
142	0xbc603e90	-0.013686791
143	0xbc9f64f4	-0.019457318
144	0x3e22724e	0.15863916
145	0xbd188a8f	-0.037241515
146	0x3d4468db	0.04795156
147	0x3e3108d5	0.17288525
148	0x3e4aa1c5	0.19788273
149	0xbbe9dfe7	-0.007137287
150	0xbc19dac0	-0.009390533
151	0xbd304e40	-0.043043375
152	0x3d38f932	0.045159526
153	0x3d879470	0.06620109
154	0xbc4b444d	-0.012406421
155	0x3cc32180	0.023819685
156	0x3defcb95	0.11708752
157	0x3e647207	0.22309123
158	0x3e1653cf	0.14680408
159	0x3e32dec2	0.17467788
160	0x3cd44413	0.025911367
161	0xbc728a0b	-0.01480342
162	0xbccd69c3	-0.025074845
163	0xbc4e3cba	-0.0125877205
164	0x3c0d62cf	0.008629515
165	0xb8fb2f2d	-0.000119774
166	0x3d8cdfe5	0.06878642
167	0x3d14187e	0.03615617
168	0xbce9fef7	-0.02856396
169	0xbabe0a51	-0.0014498924
170	0xbcb0c140	-0.021576524
171	0x3dac98ad	0.08427558
172	0x3dd49a17	0.10380953
173	0x3e8c4ae5	0.2740089
174	0x3d87b030	0.06625402
175	0x3df4a864	0.119461805
176	0xbd2ecdd5	-0.042676765
177	0x3d21dbfc	0.039516434
178	0x3e829078	0.25500846
179	0xbc32dbad	-0.010916633
180	0xbd0ec554	-0.034856156
181	0x3ed70b11	0.4200063
182	0x3e1d75eb	0.15377013
183	0xbd526e4b	-0.051374715
184	0x3e735263	0.23761897
185	0xbd069c51	-0.03286392
186	0x3e6f5cb7	0.23375212
187	0xbcc9b017	-0.024620099
188	0x3d39c37d	0.045352448
189	0xbcc72c16	-0.024313014
190	0xbd0c5b00	-0.034266472
191	0xbbb3f4ff	-0.0054918523
192	0xbd7d6434	-0.06186314
193	0xbcd13545	-0.025538096
194	0x3aca46b6	0.001543245
195	0x3e3662ce	0.17811128
196	0x3dcaf1a4	0.099093705
197	0x3d1d1668	0.038351446
198	0xbcac694b	-0.021046301
199	0x3ece693c	0.40314662
200	0x3dbc0e14	0.09182373
201	0x3d9c218b	0.07623585
202	0x3ea8d042	0.32971388
203	0x3e430092	0.19043186
204	0xbc894233	-0.016755199
205	0x3e21330d	0.1574213
206	0x3da52a7c	0.08064744
207	0x3f479723	0.7796499
208	0x3dcc2c2a	0.09969361
209	0xbcb0dea2	-0.021590535
210	0x3ed47e75	0.4150273
211	0x3ccc3d3d	0.024931544
212	0x3e815abf	0.25264546
213	0xbcb40db8	-0.021979198
214	0xbcd54ea0	-0.026038468
215	0x3d32436b	0.043521326
216	0x3f34e027	0.7065453
217	0x3efdb184	0.49549496
218	0x3d6a11f2	0.05714602
219	0x3cbb8351	0.022889765
220	0x3d3801b7	0.04492351
221	0xbc7fa353	-0.015602904
222	0x3bd55860	0.0065107793
223	0x3eb29b36	0.34884042
224	0x3d236923	0.039895188
225	0xbd1a1d24	-0.037625447
226	0xbd1cdb79	-0.038295243
227	0xba81ee0e	-0.0009912865
228	0x3d117d30	0.03551978
229	0x3e1bf4c3	0.15230088
230	0x3ea4bca8	0.32175183
231	0x3d85d183	0.06534102
232	0x3c9405fd	0.018069262
233	0x3dcc1349	0.09964616
234	0x3d7d695b	0.061868053
235	0x3aad6b67	0.0013230861
236	0x3e1869db	0.1488413
237	0xbd27c3cc	-0.04095821
238	0x3eb6db5c	0.35714233
239	0x3e0c6371	0.13709809
240	0x3d4821f0	0.04886049
241	0xbce318d3	-0.027721798
242	0x3ec5f860	0.38666058
243	0x3d306a0c	0.043069884
244	0x3db22772	0.0869893
245	0x3e2136a7	0.15743504
246	0x3c936aed	0.017995322
247	0x3e1457da	0.14486638
248	0xbd1769dd	-0.036966193
249	0x3ee0aa65	0.4388
250	0x3e05da5d	0.1307158
251	0x3d0acc3b	0.033886176
252	0x3cf47551	0.029841097
253	0xbe95478c	-0.29156148
254	0x3e0e17f9	0.13876332
255	0x3e963035	0.29333654

linear_stack.4.bias f4 [5]
0	0x3e27a811	0.16372706
1	0xbd5dacba	-0.054119803
2	0x3e981d00	0.29709625
3	0x3e54d62c	0.20784825
4	0x3e15c055	0.1462415
