data/U1_new/model_UAV_3.pth (torch, 660400 bytes, 6 tensors)

linear_stack.0.weight f4 [400, 4]
0	0x3e1bc4f4	0.1521185
1	0xbe919045	-0.2843038
2	0x3efdd349	0.4957526
3	0xbe390900	-0.1806984
4	0xbcf847c1	-0.030307652
5	0x3e105fff	0.1409912
6	0xbe7ce2f8	-0.24695957
7	0x3e336feb	0.17523162
8	0x3cc3508f	0.023842124
9	0x3e5f968e	0.21834776
10	0xbe72fb32	-0.23728636
11	0xbec79102	-0.3897782
12	0x3ecdf6ee	0.40227455
13	0x3ea1bc5d	0.31589022
14	0x3f239e1d	0.63913137
15	0x3f47a0ba	0.77979624
16	0xbca5c431	-0.020235153
17	0xbf488c54	-0.78339124
18	0x3ea44d0e	0.32090038
19	0xc025e4c0	-2.5920868
20	0xbd1e844e	-0.038700394
21	0xbd5aea5a	-0.05344615
22	0x3f0610ae	0.523692
23	0x3f23a9e8	0.6393113
24	0x3e517040	0.20452976
25	0x3e43ecef	0.19133352
26	0xbc2ae207	-0.010429866
27	0xbdcd7ebe	-0.1003394
28	0x3e043f62	0.12914804
29	0xbecde67c	-0.40214908
30	0x3f7fca34	0.9991791
31	0x3f35df9f	0.71044344
32	0xbf3d9027	-0.74048084
33	0x3e2f6972	0.17130068
34	0xbfb2da1f	-1.3972815
35	0xbf87cb3a	-1.0608895
36	0x3e02346f	0.12715314
37	0xbeb3ed1c	-0.35141838
38	0x3ee20e02	0.44151312
39	0x3f59c751	0.8506976
40	0xbc399416	-0.01132681
41	0xbd0efff3	-0.03491206
42	0x3f276e08	0.6540227
43	0x3cceb0fe	0.02523088
44	0xbdfef7fd	-0.12449644
45	0x3eef4837	0.46734783
46	0x3e9fb0f2	0.31189686
47	0xbdd3f32b	-0.10349115
48	0x3d992305	0.074773826
49	0x3ddfb384	0.10922912
50	0xbe3ee1f3	-0.1864088
51	0xbedd4d51	-0.4322305
52	0x3dae9c91	0.085259564
53	0xbe11c56c	-0.14235467
54	0x3ee1f191	0.44129613
55	0xbcb72c00	-0.022359848
56	0x3e14d3e0	0.14533949
57	0xbde23c0f	-0.110466115
58	0xbe8fc7b5	-0.28082052
59	0xbeb00334	-0.34377444
60	0xbe580be4	-0.21098286
61	0x3e86a838	0.26300216
62	0x3ea7b22f	0.3275313
63	0x3f5cc9a3	0.86245173
64	0xbe7a03cf	-0.24415515
65	0x3e92c0d0	0.2866273
66	0xc02c5e60	-2.6932602
67	0x3e7e6c2e	0.24845955
68	0x3d8fbf9d	0.07018969
69	0x3ec758bb	0.38934883
70	0xbea6509c	-0.32483375
71	0x3f67ccdb	0.9054696
72	0x3e7a70fc	0.24457163
73	0xbde78216	-0.11304109
74	0x3eaffca0	0.34372425
75	0x3f0e160d	0.55502397
76	0xbdf8c626	-0.12147169
77	0x3e8272cb	0.25478205
78	0x3f3476dd	0.7049387
79	0xbf1f9fa8	-0.6235299
80	0xbe9fc56c	-0.31205308
81	0xbdaafdc8	-0.08349186
82	0x3e156e6c	0.14592904
83	0xbea1548e	-0.31509823
84	0xbb4a14a3	-0.0030835054
85	0xbe3fc9ad	-0.18729277
86	0x3f7f735e	0.9978541
87	0xc01b6b06	-2.4284072
88	0xbe8af8aa	-0.2714284
89	0x3f17b17e	0.59255207
90	0xbef30a30	-0.4746871
91	0x3e86eaab	0.26350912
92	0x3e2aa2ce	0.16663668
93	0xbf996e91	-1.1986867
94	0x3f243af8	0.6415248
95	0xc0794370	-3.894741
96	0x3de5b450	0.112160325
97	0x3da740e5	0.081666745
98	0xbe268a44	-0.16263682
99	0xbdb55ee8	-0.088559926
100	0xbed7e195	-0.42164293
101	0x3eb5af82	0.35485464
102	0x3ed3af8f	0.41344878
103	0xbe1ddba4	-0.15415817
104	0xbe942dba	-0.28941137
105	0x3f046943	0.51723117
106	0x3f3c30aa	0.73511755
107	0xbe38b5f2	-0.18038157
108	0x3ea934d9	0.33048132
109	0xbda81251	-0.082066186
110	0x3ea1a624	0.31572068
111	0xbe782257	-0.2423185
112	0x3dcae78a	0.09907444
113	0xbf1bdbc4	-0.6088221
114	0x3f41e0fd	0.7573393
115	0xc05da10a	-3.462954
116	0x3b4c9182	0.003121466
117	0x3de9bc6b	0.11412891
118	0x3d649086	0.05580189
119	0x3ea453ad	0.3209509
120	0x3b47aec5	0.003046916
121	0xbf815deb	-1.0106786
122	0xbed3a946	-0.41340083
123	0xbf9f90a2	-1.2466013
124	0xbc33bb71	-0.0109699825
125	0x3d8dfa93	0.06932559
126	0x3c773bbf	0.015089928
127	0xbeafbe85	-0.34325042
128	0xbe2ae55f	-0.1668906
129	0x3e9d89e7	0.30769274
130	0xbecd5c85	-0.4010965
131	0x3efdba57	0.4955623
132	0x3d9e7232	0.07736625
133	0x3e0e71eb	0.13910644
134	0x3e94396b	0.28950056
135	0xbec3a248	-0.38209748
136	0xbd3697c7	-0.04457834
137	0xbd60e156	-0.054902397
138	0xbda5719f	-0.08078312
139	0x3edd8586	0.43265933
140	0xbd8aff17	-0.06786936
141	0x3e5374bf	0.20650004
142	0x3e49aeaf	0.19695543
143	0x3d3de532	0.046361156
144	0x3deb8f4b	0.1150194
145	0xbe9e96ba	-0.3097437
146	0x3f3a87f3	0.7286369
147	0x3ed54a48	0.41658235
148	0x3ef09733	0.46990356
149	0xbe69442a	-0.22779909
150	0x3ec2b06a	0.38025218
151	0x3ec21cb1	0.37912515
152	0x3e360263	0.17774348
153	0x3e9fa9d9	0.3118427
154	0x3e8f381b	0.27972493
155	0x3f111f30	0.56688213
156	0xbe821f63	-0.2541457
157	0x3eee6508	0.46561456
158	0x3f3b9dda	0.7328774
159	0x3dc93d65	0.09826163
160	0xbe09c0a4	-0.13452393
161	0x3e5366a3	0.20644622
162	0x3f455108	0.7707677
163	0x3f211f09	0.6293798
164	0xbef7fc34	-0.48434603
165	0xbec2e56e	-0.38065666
166	0x3e559310	0.20856881
167	0xbdb54210	-0.08850491
168	0xbd204d19	-0.039136026
169	0x3e26f96e	0.16306087
170	0x3f109da3	0.56490535
171	0x3d1c9862	0.03823126
172	0xbe8132de	-0.2523412
173	0xbe990354	-0.29885352
174	0xbef5f1b4	-0.48035967
175	0xbd5180b0	-0.051148117
176	0xbf1532df	-0.5828075
177	0xbf0bdb0b	-0.5463111
178	0x3ec04be2	0.37557894
179	0x3f02c253	0.51077765
180	0x3e4581a2	0.19287732
181	0xbf06778a	-0.5252615
182	0x3ef1626b	0.471454
183	0x3f511257	0.8166861
184	0x3da70546	0.08155303
185	0x3eec7050	0.46179438
186	0xbcd05de3	-0.025435394
187	0x3e9bcd0f	0.30429885
188	0xbfa2bab2	-1.2713225
189	0xbec76f7b	-0.3895224
190	0xbfd2cba3	-1.6468395
191	0x3f87c700	1.0607605
192	0xbe390f89	-0.18072332
193	0x3e963164	0.29334557
194	0xbf797f9f	-0.9746036
195	0xbfd56463	-1.667126
196	0x3cbc0023	0.022949284
197	0x3f18170a	0.59410155
198	0x3caf54c1	0.021402718
199	0x3e929921	0.28632453
200	0x3d9b3bc2	0.07579757
201	0x3c19b4c6	0.009381479
202	0x3ec95664	0.39323723
203	0xc000734c	-2.0070372
204	0x3dea560a	0.11442192
205	0xbe62000a	-0.22070327
206	0xbdca0a4e	-0.09865247
207	0xbcfad2ca	-0.03061809
208	0x3e882ebb	0.26598153
209	0xbd8ba961	-0.06819416
210	0xbeb334ac	-0.35001123
211	0x3efdf3ad	0.49599972
212	0x3e91c9b0	0.28474188
213	0xbe1db28d	-0.15400143
214	0x3d9cca57	0.07655781
215	0x3ec064e6	0.3757698
216	0xbf92e10f	-1.1474932
217	0xbe66bc2b	-0.22532718
218	0xbe4d2255	-0.20032628
219	0xc00db7a0	-2.2143326
220	0xbe9e6e89	-0.30943707
221	0x3eca2ebb	0.39488778
222	0x3e8c566b	0.27409682
223	0x3f20a620	0.62753487
224	0x3e343d93	0.17601614
225	0x3ec9fb2e	0.39449447
226	0x3eb7fb2b	0.35933813
227	0x3effb076	0.49939317
228	0xbe4cd538	-0.20003211
229	0xbe930fd2	-0.28723007
230	0x3eac2394	0.33620894
231	0xbe7869b8	-0.24259079
232	0x3e455f82	0.19274715
233	0xbe330ec3	-0.174861
234	0xbe98ab65	-0.29818264
235	0xbe761193	-0.24030142
236	0x3dba0b78	0.09084219
237	0x3e8816dc	0.2657994
238	0xbd9fdf06	-0.0780621
239	0xbe245729	-0.16048874
240	0xbe0fd3fd	-0.14045711
241	0xbf41419d	-0.7549074
242	0x3d689cdb	0.056790214
243	0xbf9434e3	-1.157864
244	0xbd542d90	-0.051801264
245	0xbe9590b4	-0.29211962
246	0x3dedb770	0.116072536
247	0xbd86c3a8	-0.06580287
248	0xbe870f02	-0.26378638
249	0xbe580d40	-0.21098804
250	0xbdffaa10	-0.12483609
251	0xbeb19186	-0.34681338
252	0x3e997445	0.2997152
253	0x3e799347	0.24372588
254	0x3cd307ff	0.025760649
255	0xbc773a9f	-0.01508966

linear_stack.0.bias f4 [400]
0	0xbeeec2f1	-0.46633103
1	0xbecb1e3c	-0.39671504
2	0x3ebaa6e7	0.3645546
3	0x3f760dde	0.9611491
4	0x3ef745e0	0.48295498
5	0xbea77051	-0.32702878
6	0x3f0989c4	0.5372584
7	0xbd39b380	-0.0453372
8	0xbd1d8632	-0.038458057
9	0xbeabdb45	-0.33565727
10	0xbde1933f	-0.11014413
11	0x3f634ee2	0.8879224
12	0x3e688b76	0.2270945
13	0xbf048455	-0.5176442
14	0xbe365758	-0.17806756
15	0x3e073ac3	0.1320601
16	0x3dbfaddf	0.09359335
17	0x3f23d77b	0.6400067
18	0x3e86622f	0.26246783
19	0x3e2a9481	0.16658212
20	0xbb601900	-0.0034194589
21	0x3e9bcc83	0.30429468
22	0x3f43bdb7	0.76461357
23	0xbe8a8193	-0.27051982
24	0x3e254899	0.16140975
25	0x3e3fdb06	0.18735895
26	0x3e660c8e	0.22465727
27	0x3f218ed4	0.63108563
28	0xbdbfafae	-0.0935968
29	0xbf3bddcc	-0.7338531
30	0x3f1ad6b9	0.6048389
31	0x3e7bbc46	0.2458354
32	0x3d595d43	0.053067457
33	0x3eae3e0f	0.34031722
34	0x3daa9eb8	0.083310544
35	0xbea1b1b4	-0.3158089
36	0xbda571ca	-0.08078344
37	0x3f36f827	0.714724
38	0x3efee03a	0.49780446
39	0x3e90ec0f	0.28305098
40	0xbeabaa71	-0.33528474
41	0xbe7aa2a8	-0.24476111
42	0xbf423b17	-0.75871414
43	0xbe94178c	-0.28924215
44	0x3f0b2d67	0.54366153
45	0xbdae54ef	-0.085122935
46	0x3f2d5380	0.67705536
47	0x3f8dab7e	1.106796
48	0x3eb395ed	0.35075322
49	0x3f28933a	0.6584965
50	0xbea5887f	-0.323307
51	0x3e42b6a7	0.19014989
52	0x3ee1d6af	0.44109103
53	0x3e9c3623	0.30510053
54	0x3fa1ec06	1.2650154
55	0x3d997acb	0.07494124
56	0x3f1ff351	0.62480646
57	0xbeb19258	-0.34681964
58	0x3eafc312	0.34328514
59	0x3ee4c5c0	0.4468212
60	0x3f401384	0.7502978
61	0xbea46254	-0.32106268
62	0xbe693c40	-0.2277689
63	0x3f23451b	0.6377732
64	0xbe83c351	-0.25734952
65	0x3e02450e	0.12721655
66	0x3e820d1a	0.2540062
67	0x3f06cc8d	0.5265587
68	0x3f4934e4	0.7859633
69	0xbf2045ff	-0.62606806
70	0x3fa5552b	1.2916616
71	0x3f6b680e	0.9195565
72	0x3f2b15b1	0.66829973
73	0x3f4564c5	0.7710689
74	0x3f351e40	0.7074928
75	0xbe84e86c	-0.25958574
76	0x3f943c72	1.1580946
77	0xbdc7ec68	-0.09761888
78	0x3f371add	0.71525365
79	0x3f1a61b8	0.60305357
80	0xbe7edc06	-0.2488862
81	0x3c3d8282	0.01156676
82	0xbe91116a	-0.28333598
83	0x3f00bce3	0.5028822
84	0xbf1228d6	-0.5709356
85	0xbe053f30	-0.13012385
86	0x3ec2361d	0.3793191
87	0x3ebfe714	0.37480986
88	0x3e8bd6df	0.2731237
89	0x3dcb72a6	0.09933977
90	0x3e952169	0.29127052
91	0x3ec757da	0.38934213
92	0x3e9639bd	0.29340926
93	0x3e0b60cf	0.13611148
94	0x3eb41ace	0.351767
95	0xbdf61552	-0.12015785
96	0x3f107ef9	0.56443745
97	0x3eb7bdd7	0.35887024
98	0xbefea80b	-0.49737582
99	0x3e305e97	0.17223583
100	0x3ed8730d	0.42275277
101	0x3f034ad6	0.51286066
102	0x3f9d82da	1.2305558
103	0x3e671d6d	0.22569819
104	0xbf1e2d76	-0.6178812
105	0xbe27d075	-0.16388114
106	0xbdb047f4	-0.08607474
107	0xbeff0b7a	-0.49813443
108	0xbf3981be	-0.72463596
109	0x3f461cf9	0.7738796
110	0xbf3e0b1a	-0.7423569
111	0x3e8fc922	0.2808314
112	0xbf0b2c62	-0.543646
113	0xbe40d8bc	-0.18832678
114	0x3f3f2440	0.7466469
115	0x3ef81e51	0.4846063
116	0x3cb80423	0.02246291
117	0xbdcdd5c7	-0.100505404
118	0xbefd3732	-0.49456173
119	0xbf2afb76	-0.6678995
120	0x3de49d9a	0.111628726
121	0xbed78dc7	-0.42100355
122	0xbee04774	-0.43804514
123	0xbd897bca	-0.06713064
124	0x3f943113	1.1577476
125	0x3f09cbf1	0.53826815
126	0xbeb177b8	-0.3466165
127	0x3dc03cf4	0.09386626
128	0x3d55f37f	0.05223417
129	0xbf386569	-0.7202974
130	0xbf3ce373	-0.7378456
131	0xbef5caa4	-0.48006165
132	0xbf2664c7	-0.64997524
133	0x3ef8a91a	0.48566514
134	0x3d22c641	0.03973985
135	0x3eed5879	0.46356562
136	0xbe972801	-0.29522708
137	0x3f7bf6a4	0.9842322
138	0x3e3d52e1	0.18488647
139	0x3e2a2df4	0.16619092
140	0xbe83b6f2	-0.25725514
141	0x3eb772c8	0.3582976
142	0xbdd488f9	-0.10377688
143	0xbd4ce2b2	-0.05002088
144	0x3f08ec08	0.53485155
145	0xbe5431f5	-0.20722182
146	0x3f0de55f	0.5542812
147	0x3ebdf60e	0.37101787
148	0x3efba759	0.49151114
149	0x3ebcf66c	0.36906755
150	0x3f10b121	0.5652028
151	0x3e29ac66	0.16569671
152	0xbf15eeb3	-0.5856735
153	0x3f9bbf2b	1.2167715
154	0xbe4c9135	-0.19977267
155	0xbf3a7b64	-0.7284453
156	0x3ee69243	0.45033464
157	0x3de32c8b	0.1109248
158	0xbe9fe412	-0.3122869
159	0x3d7a3662	0.06108702
160	0x3f4f5a20	0.80996895
161	0x3f4734b4	0.77814794
162	0x3f27cf89	0.6555105
163	0x3f3fbdb2	0.7489883
164	0xbf182b3e	-0.5944098
165	0x3ead37d2	0.3383165
166	0xbe8b7c0a	-0.27243072
167	0xbed6553c	-0.41861904
168	0x3e8cce45	0.2750112
169	0x3eb5cb1b	0.3550652
170	0x3ed5f56f	0.41788813
171	0xbf36998f	-0.7132806
172	0xbd7ffca8	-0.06249681
173	0x3ec0ee2f	0.3768172
174	0x3d9dd64f	0.07706892
175	0xbe03acd8	-0.12858903
176	0xbef1132e	-0.47084945
177	0x3e890a5e	0.26765722
178	0xbcbae9be	-0.022816535
179	0xbebccd3f	-0.3687534
180	0xbf0a3d01	-0.53999335
181	0x3e8252cf	0.25453803
182	0xbd8d4873	-0.06898584
183	0xbd2347e0	-0.039863467
184	0x3d5a0ef3	0.053236913
185	0xbea8963b	-0.32927117
186	0x3efc9b5d	0.49337283
187	0x3ed888d6	0.42291898
188	0xbcb71ee0	-0.02235359
189	0x3e9c007f	0.30469128
190	0xbe8c16e2	-0.27361208
191	0xbf191037	-0.59790367
192	0x3ea398f8	0.31952643
193	0x3f8f355f	1.1188163
194	0x3f7d33e2	0.9890729
195	0xbbfe8700	-0.007767558
196	0xbe88998a	-0.2667964
197	0x3f1eae81	0.6198502
198	0x3f4011a8	0.7502694
199	0x3f245e67	0.64206547
200	0x3f8b708b	1.089372
201	0xbd3e6e20	-0.046491742
202	0xbecda206	-0.40162677
203	0x3e440c95	0.19145425
204	0xbee665c6	-0.44999522
205	0x3e3c3c2d	0.1838233
206	0x3c0d7bb8	0.008635454
207	0x3ef4a62b	0.47783026
208	0x3d963a17	0.073352985
209	0xbe49b6a0	-0.19698572
210	0x3d9920b8	0.07476944
211	0x3f51f1f9	0.82009846
212	0xbdedea95	-0.116170086
213	0x3f65eb4e	0.8981217
214	0x3f80eae8	1.0071688
215	0x3f8cd901	1.1003724
216	0xbd047570	-0.03233856
217	0x3f3c2bcd	0.73504335
218	0x3f8eac35	1.1146303
219	0xbf01f5aa	-0.5076548
220	0x3f965a65	1.1746336
221	0xbec1b168	-0.37830663
222	0xbb3fdac5	-0.0029274684
223	0xbe284264	-0.16431576
224	0xbd44d2dd	-0.048052657
225	0x3f0aeeae	0.54270446
226	0x3eef6f27	0.4676449
227	0x3f57a076	0.8422922
228	0x3e3d1663	0.18465571
229	0x3e67c408	0.22633374
230	0xbf3ec113	-0.7451336
231	0xbdee8a06	-0.1164742
232	0x3f1fa70c	0.6236427
233	0x3ee089f4	0.4385525
234	0xbec0860c	-0.3760227
235	0xbefd7ee3	-0.4951087
236	0x3f546768	0.82970285
237	0xbdaab1c5	-0.08334688
238	0x3ef63ad6	0.48091763
239	0xbe6db4d5	-0.23213513
240	0x3edac186	0.42725772
241	0xbe4b6994	-0.19864494
242	0xbe84db54	-0.25948584
243	0x3f4ebe95	0.80759555
244	0x3ed9f41e	0.4256906
245	0xbf143e1f	-0.5790729
246	0xbe384459	-0.17994823
247	0x3ec23e49	0.37938145
248	0x3db69498	0.08915061
249	0x3f6994a9	0.9124246
250	0x3f3cd16e	0.73757064
251	0xbe6938c4	-0.2277556
252	0x3ef5e589	0.48026684
253	0x3e36f97a	0.17868605
254	0x3f92a8aa	1.1457722
255	0x3f1f8a4a	0.6232039

linear_stack.2.weight f4 [400, 400]
0	0xbe906ab6	-0.28206414
1	0xbe879112	-0.26477867
2	0xbd99858f	-0.074961774
3	0x3dca348a	0.09873302
4	0xbf25ab92	-0.6471492
5	0x3cbc96c9	0.023021119
6	0xbe0de057	-0.1385511
7	0x3b80cbdc	0.003930552
8	0xbfb0e988	-1.3821268
9	0x3d730306	0.059329055
10	0x3e0d4702	0.13796619
11	0x3e6da759	0.2320837
12	0xbe2d10dd	-0.16900964
13	0xbe97b741	-0.29632
14	0xbeb73666	-0.3578369
15	0xbd98916b	-0.07449611
16	0xbe9b6685	-0.30351654
17	0x3da11a89	0.07866389
18	0xbdd623e9	-0.10456068
19	0x3dc9fde7	0.09862881
20	0x3d2b92f5	0.041888196
21	0xbf23c688	-0.6397481
22	0x3ee99902	0.45624548
23	0xbe49a07c	-0.19690126
24	0xbe0bd375	-0.13654883
25	0xbc90fa96	-0.017697614
26	0x3e168215	0.1469806
27	0xbd6ebf99	-0.05828819
28	0x3e50a7e8	0.20376551
29	0xbea554b4	-0.32291186
30	0xbf0c988d	-0.54920274
31	0xbd801167	-0.06253319
32	0xbe7bdbd1	-0.24595572
33	0xbdd016c8	-0.10160595
34	0xbdef1862	-0.116745725
35	0xbe2e5ab7	-0.17026792
36	0xbd8373a4	-0.06418541
37	0xbdb8a5a9	-0.09015972
38	0xbd8f87a6	-0.07008295
39	0x3dd4f219	0.10397739
40	0xbc39fce7	-0.0113518005
41	0xbcee0b6d	-0.029058183
42	0xbdfc825f	-0.12329554
43	0xbd3ff258	-0.046861976
44	0x3f01d463	0.507147
45	0xbdc43cce	-0.0958191
46	0xb92cdcfe	-0.00016485524
47	0x3f0eecfb	0.55830353
48	0xbe96065c	-0.29301727
49	0xbd0c7ddd	-0.03429972
50	0xbf02dc99	-0.51117855
51	0x3dbe5964	0.09294394
52	0xbd9fa096	-0.07794301
53	0xbe13a25f	-0.14417408
54	0x3efefb70	0.49801207
55	0x3eadad6d	0.33921376
56	0xbd8782c8	-0.066167414
57	0x3c913123	0.017723626
58	0xbdf42713	-0.11921515
59	0xbdd98ab3	-0.10622158
60	0xbf44cd09	-0.7687536
61	0x3c23f83a	0.010007912
62	0x3c3718d3	0.011175352
63	0xbd5de3f7	-0.054172482
64	0xbe989956	-0.29804486
65	0xbd8024b7	-0.06257003
66	0xbdddce7c	-0.108303994
67	0xbda7cbfa	-0.08193202
68	0xbe070910	-0.13187051
69	0xbe9896bd	-0.29802504
70	0x3e077420	0.13227892
71	0x3b1c6539	0.0023864044
72	0x3f045395	0.51690036
73	0x3d6b08f3	0.05738158
74	0xbce25eab	-0.027633032
75	0xbd80f6cc	-0.06297073
76	0x3db9f16d	0.090792514
77	0xbaf78567	-0.0018884361
78	0xbcf5179d	-0.029918486
79	0xbf21817f	-0.6308822
80	0xbb86689b	-0.0041018254
81	0x3dccb16b	0.09994777
82	0xbe936aaf	-0.2879233
83	0xbde8f189	-0.11374194
84	0xbca4edea	-0.020132978
85	0xbbb25c27	-0.0054431143
86	0xbd2269ea	-0.03965179
87	0x3e3b4063	0.1828628
88	0xbe2c9abd	-0.16855903
89	0xbdca6462	-0.09882428
90	0xbef6db03	-0.48213968
91	0xbf36233e	-0.71147525
92	0xbda01f83	-0.078185104
93	0xbeb160ff	-0.34644315
94	0xbe3462c3	-0.176158
95	0x3e5119a3	0.20419936
96	0xbf5ee8ff	-0.87074274
97	0xbd9e3c26	-0.07726316
98	0xbe6f7ca5	-0.23387392
99	0xbd8bd9c0	-0.06828642
100	0xbdc419ce	-0.09575234
101	0xbe5e1a4e	-0.21689722
102	0x3e395bef	0.18101476
103	0xbe0bd706	-0.13656244
104	0xbdd8fb41	-0.10594798
105	0xbe852558	-0.26005054
106	0xbf17c24d	-0.59280854
107	0xbe254f1c	-0.16143459
108	0xbc0cb3d7	-0.008587799
109	0x3f299486	0.66242254
110	0xbe7378dd	-0.23776574
111	0x3f23e0b3	0.6401474
112	0xbec22ccf	-0.3792481
113	0xbcd6e818	-0.026233718
114	0xbd816d57	-0.06319683
115	0xbe024a17	-0.12723576
116	0xbf54eced	-0.8317402
117	0xbe68ba9e	-0.22727439
118	0xbbe571c0	-0.0070020854
119	0xbeb4be7a	-0.35301572
120	0xbee8241e	-0.45340055
121	0xbe13bcce	-0.14427492
122	0xbca1b647	-0.019740237
123	0xbeb47416	-0.35244817
124	0x3ddbaaf9	0.1072597
125	0xbe3b9968	-0.18320239
126	0x3c0d4d2d	0.008624357
127	0x3f045bf2	0.517028
128	0xbd21bd20	-0.039487004
129	0x3d8f793b	0.07005545
130	0xbeaaf36b	-0.33388838
131	0x3d394c0f	0.04523855
132	0xbe447c6c	-0.19188088
133	0xbd26874a	-0.040656365
134	0x3e08fdbc	0.13378042
135	0xbeec0e4d	-0.4610466
136	0xbef787c2	-0.48345762
137	0x3e684736	0.22683415
138	0xbf3313d6	-0.6995214
139	0xbc48a416	-0.012246152
140	0xbdcb8596	-0.09937589
141	0x3f4d0dd7	0.8009924
142	0xbe684b61	-0.22685005
143	0xbf66c9f6	-0.9015192
144	0xbdd6b79a	-0.10484238
145	0x3eb2cc81	0.3492165
146	0xbd07a7ac	-0.03311889
147	0xbd6dc18e	-0.058045916
148	0xbd979351	-0.07401145
149	0xbf59df7a	-0.85106623
150	0xbdbdd077	-0.09268277
151	0xbdecb185	-0.11557297
152	0xbe8733ef	-0.2640681
153	0x3e99e3ee	0.3005671
154	0xbec7cef4	-0.3902508
155	0xbe6bcf3e	-0.23028275
156	0xbdb36083	-0.087586425
157	0xbdb448ec	-0.08802971
158	0xbe3e9487	-0.18611346
159	0xbe53b134	-0.20673066
160	0x3f0ac5f4	0.542083
161	0xbd965aac	-0.07341513
162	0x3e3faf09	0.18719114
163	0x3f198986	0.5997547
164	0xbeecbee2	-0.46239382
165	0xbe072444	-0.13197428
166	0xbc2b57d3	-0.010457951
167	0x3d3ebe9a	0.04656849
168	0xbd14a85a	-0.036293365
169	0x3f1122e7	0.5669388
170	0xbe7dd382	-0.24787715
171	0xbe4e071b	-0.20119898
172	0xbe56120f	-0.20905326
173	0xbf2beebd	-0.6716116
174	0xbeb8206d	-0.3596224
175	0xbcd2fa5d	-0.025754148
176	0xbe24c07a	-0.16089049
177	0xbf1503c4	-0.5820887
178	0xbca5b49d	-0.020227725
179	0xbfac6c01	-1.347046
180	0xbebe75a5	-0.3719913
181	0xbdf4e492	-0.11957659
182	0xbf464883	-0.77454394
183	0xbd804e78	-0.06264967
184	0xbebaf763	-0.36516866
185	0xbf009766	-0.50231016
186	0xbe008551	-0.12550856
187	0xbdb14acf	-0.08656847
188	0x3cc15dd3	0.02360431
189	0xbdda63b0	-0.10663545
190	0x3ae59643	0.0017516095
191	0xbf044d3e	-0.5168036
192	0xbe0b8324	-0.13624245
193	0x3fa016b3	1.2506927
194	0x3f7d9e23	0.9906942
195	0xbc99ed4a	-0.018789906
196	0x3cbcbe6e	0.023040023
197	0xbf4ffa2e	-0.8124112
198	0xbef45b7a	-0.4772604
199	0xbf68467f	-0.9073257
200	0x3f576dee	0.84152114
201	0xbd1ecf57	-0.038771953
202	0x38388667	4.399419e-05
203	0xbda86439	-0.08222241
204	0x3ca2ca17	0.019871755
205	0xbf1a7257	-0.6033072
206	0xbe2de8e7	-0.16983376
207	0x3ecd515e	0.4010114
208	0xbdd1e391	-0.10248483
209	0x3d21efc7	0.03953531
210	0xbd11ec75	-0.035625894
211	0x3f11e4b0	0.56989574
212	0xbdab569d	-0.083661295
213	0x3eac94f7	0.337074
214	0x3f25f510	0.6482706
215	0x3e17b7c9	0.14816202
216	0x3c891dfd	0.016737932
217	0xbe2ad7b4	-0.16683847
218	0x3de6d879	0.11271758
219	0xbdf0ddde	-0.11761068
220	0x3e062ba8	0.13102591
221	0xbc48ba00	-0.012251377
222	0xbe4d262c	-0.20034093
223	0x3c2a61d3	0.0103993
224	0xbe095214	-0.13410217
225	0xbf200196	-0.6250242
226	0xbe1b8b74	-0.15189916
227	0xbcd38125	-0.025818417
228	0xbdaf473e	-0.0855851
229	0xbeb9496f	-0.36188838
230	0xbe8cad24	-0.27475846
231	0xbd187fa1	-0.03723109
232	0xbd8faedc	-0.07015774
233	0xbe8ac251	-0.27101377
234	0x3d3d300b	0.046188395
235	0xbe0edeaf	-0.13952135
236	0x3e92f513	0.28702602
237	0x3f2317cb	0.6370818
238	0xbe2f8cac	-0.17143506
239	0xbddfbf66	-0.10925178
240	0xbdab180c	-0.08354196
241	0xbddf81a0	-0.10913396
242	0xbe8f38f6	-0.27973145
243	0x3d1830a3	0.03715576
244	0xbd805745	-0.06266645
245	0xbd92ba0d	-0.071643926
246	0x3e1e3c3f	0.1545267
247	0xbe37f689	-0.1796514
248	0xbd94f2f5	-0.07272903
249	0xbefeac7d	-0.49740973
250	0x3cf2900a	0.029609699
251	0xbc6e48cd	-0.014543724
252	0xbe031d35	-0.1280411
253	0xbe0ff448	-0.1405803
254	0x3dbee38c	0.09320745
255	0xbe480b1f	-0.19535492

linear_stack.2.bias f4 [400]
0	0x3e1574f5	0.14595397
1	0xb8a00641	-7.6305594e-05
2	0x3db2c19a	0.08728333
3	0xbd179967	-0.03701153
4	0xbb4ff05f	-0.0031728966
5	0x3e3ad09c	0.1824364
6	0x3e84e595	0.25956407
7	0x3e146431	0.14491345
8	0x3e7a712b	0.24457233
9	0x3e405d8e	0.18785688
10	0x3e0d97a7	0.13827382
11	0x3b8a91a9	0.00422879
12	0x3d07f324	0.03319086
13	0x3c97ffc7	0.018554581
14	0x3e058429	0.13038696
15	0xbbd2148a	-0.00641114
16	0x3db5e08c	0.088807195
17	0x3de66225	0.11249188
18	0x3d9c76c7	0.076398425
19	0x3e4528d3	0.19253854
20	0x3cf7d782	0.03025413
21	0xbd38caca	-0.04511527
22	0x3c00ffcb	0.007873486
23	0x3d215671	0.039389078
24	0x3d33a0af	0.04385441
25	0xbc3b6cf1	-0.011439548
26	0x3e6e57c7	0.23275672
27	0xbd6c3680	-0.057669163
28	0xbd509ca7	-0.050930645
29	0x3ca3271d	0.019916112
30	0xbc6e1af5	-0.014532794
31	0xbd1d5607	-0.03841212
32	0x3e606b03	0.21915822
33	0x3e441bb6	0.19151196
34	0x3e6a9f10	0.2291224
35	0xbe4a6574	-0.19765264
36	0x3e726ea4	0.23675019
37	0x3e39db78	0.18150127
38	0x3e50e05b	0.20398085
39	0x3e5b88b4	0.21438867
40	0x3e3b71cf	0.18305133
41	0x3e4eb31d	0.20185514
42	0x3c188083	0.009307983
43	0x3e652728	0.22378218
44	0x3e69f719	0.22848167
45	0xbd36e038	-0.044647425
46	0x3b9b3947	0.0047370526
47	0xb8b06000	-8.4102154e-05
48	0x3e743055	0.23846562
49	0x3e69c547	0.22829162
50	0x3e63a7f5	0.2223204
51	0x3de0457b	0.10950752
52	0xbd44764a	-0.04796437
53	0x3dddcab4	0.10829678
54	0xbd5b4fee	-0.053543024
55	0x3e322f26	0.17400798
56	0x3dbbd207	0.09170919
57	0x3e8af11f	0.27137086
58	0x3e263498	0.16231
59	0x3e036edd	0.1283526
60	0x3e65dafe	0.2244682
61	0xbc9bc1ef	-0.019013373
62	0x3e2462ca	0.1605331
63	0x3da1a3af	0.07892548
64	0xbc49ff6d	-0.012328965
65	0x3e899f16	0.26879185
66	0x3dffc9b0	0.12489641
67	0x3e6b7cea	0.2299687
68	0x3c18d7da	0.009328807
69	0x3e1aee5b	0.15129988
70	0xbc996793	-0.018726146
71	0x3e146f17	0.14495502
72	0xbd447f1d	-0.047972787
73	0xbd21da79	-0.039514992
74	0xbd073a28	-0.033014446
75	0x3e6418b3	0.22275047
76	0x3e587606	0.21138772
77	0x3e853bec	0.2602228
78	0x3e214141	0.15747549
79	0x3e698c75	0.22807486
80	0x3e396914	0.1810649
81	0xbd46eda5	-0.04856648
82	0x3cff10f9	0.031136023
83	0x3e43bea9	0.191157
84	0xbcd8e2f2	-0.026475403
85	0x3e7a89de	0.24466655
86	0x3dd8380b	0.10557564
87	0x3d124fa2	0.035720475
88	0x3df76bb6	0.12081091
89	0x3d8931a1	0.06698919
90	0x3e2dd45f	0.16975544
91	0x3d87ade0	0.06624961
92	0x3cf34570	0.029696196
93	0xbd274117	-0.04083356
94	0x3b678255	0.0035325487
95	0x3e43bda4	0.19115311
96	0x3e671a93	0.22568731
97	0x3d919c35	0.07109872
98	0x3d3866d0	0.045019925
99	0x3ca9e66a	0.020739753
100	0xbb92e46d	-0.004482797
101	0x3e4c28b5	0.19937404
102	0xbaabe966	-0.0013115823
103	0x3e68ada9	0.22722496
104	0x3e15e5cd	0.14638443
105	0x3e7b679f	0.24551247
106	0x3e63ce40	0.22246647
107	0x3e06fb26	0.13181743
108	0x3ccba776	0.024860125
109	0x3e773b3a	0.24143687
110	0xbd24b491	-0.040211264
111	0x3e5d22a5	0.21595247
112	0x3dba18c6	0.090867564
113	0x3d6e95e2	0.05824841
114	0x3dbbdd1b	0.09173032
115	0x3d6ab6d4	0.057303265
116	0x3e24d9fb	0.16098778
117	0x3d5f85ae	0.054570846
118	0x3c92c2f0	0.017915219
119	0x3e051a6a	0.12998357
120	0x3ca5ad80	0.020224333
121	0x3e1c49fc	0.15262598
122	0xbd022c60	-0.0317806
123	0x3e800892	0.2500654
124	0x3e489d3e	0.19591233
125	0x3e74f44d	0.23921318
126	0xbd35e4c9	-0.04440764
127	0xbd660d71	-0.056165162
128	0xbd6b72c0	-0.05748248
129	0x3c1807ad	0.009279174
130	0x3e6c730c	0.23090762
131	0xbcc2c18a	-0.023773927
132	0x3e1e4982	0.15457729
133	0x3e81617c	0.25269687
134	0x3e296d2e	0.16545555
135	0x3e5add58	0.21373498
136	0xbd18db0e	-0.03731828
137	0x3e1f3b46	0.15549955
138	0x3e415c4b	0.18882863
139	0x3e3c0e8c	0.18364924
140	0xbd1f911e	-0.038956754
141	0xbcd096f1	-0.0254626
142	0x3e51d45d	0.20491166
143	0x3e02cfb4	0.12774545
144	0xbd1762d7	-0.036959495
145	0x3e598e6e	0.21245739
146	0x3e8952ea	0.2682107
147	0x3d84f054	0.064911515
148	0x3e4a2b79	0.19743146
149	0x3e19c155	0.15015157
150	0x3e7df50c	0.24800509
151	0x3e3b1d2d	0.18272848
152	0x3df8cb0e	0.121481046
153	0x3e559a7b	0.20859711
154	0xbd313378	-0.043261975
155	0xbc5ea5e4	-0.013589356
156	0xbcdf99f8	-0.027295098
157	0x3ce6dbf7	0.02818106
158	0x3e2b74cb	0.16743772
159	0x3e5a9546	0.21346006
160	0xbce848a0	-0.028354943
161	0x3e1fdb2f	0.15610956
162	0xbd536620	-0.051611066
163	0x3e40ed01	0.1884041
164	0x3e4451c3	0.19171815
165	0x3e183444	0.14863688
166	0x3e4b37e4	0.1984554
167	0x3e4f2c00	0.20231628
168	0x3e37d9a5	0.17954119
169	0x3e7af38b	0.24506967
170	0xbc7e3a3a	-0.015516812
171	0x3d26730b	0.040637057
172	0x3bd2e61a	0.0064361217
173	0x3d29dbc9	0.04146937
174	0x3e372225	0.17884119
175	0xbd0e4802	-0.03473664
176	0xbc2231b5	-0.009899546
177	0xbca17247	-0.019707812
178	0x3e8c5eab	0.27415976
179	0x3ac41967	0.0014961184
180	0x3e354c0a	0.17704788
181	0x3cd33b92	0.025785241
182	0x3e611dd8	0.2198404
183	0xbcb38c37	-0.021917446
184	0x3efeb556	0.49747723
185	0x3e817412	0.25283867
186	0x3e8bc660	0.27299786
187	0x3d052067	0.032501604
188	0x3cff5f68	0.031173423
189	0x3d9e0dbe	0.07717465
190	0xbcaa2320	-0.020768702
191	0x3e36d5ad	0.17854948
192	0x3b2ac9b3	0.0026060164
193	0x3e1adbf6	0.15122971
194	0xbc9ffbe3	-0.019529289
195	0x3e70f31b	0.23530237
196	0xbbb643e9	-0.0055622947
197	0x3b26d50d	0.0025456578
198	0xbd1af7b1	-0.037833873
199	0xbd330afd	-0.04371165
200	0x3e653924	0.22385079
201	0x3e7a656a	0.24452749
202	0x3bf61c8e	0.007510728
203	0x3dd9b1e1	0.10629631
204	0x3e762802	0.240387
205	0x3c8552dc	0.016274862
206	0x3d1aa9a2	0.03775943
207	0x3e87abb3	0.26498184
208	0x3df7be5d	0.12096856
209	0x3dde7bfd	0.10863493
210	0x3c9c3ea3	0.019072836
211	0x3c0c39f3	0.008558738
212	0x3de4f667	0.1117981
213	0x3c9a67da	0.018848348
214	0x3e320e34	0.1738823
215	0x3e1ac52c	0.15114278
216	0x3c46758a	0.012112984
217	0x3dd8e613	0.10590758
218	0x3dd611b4	0.10452595
219	0x3e874ea1	0.26427177
220	0x3d5f4e77	0.05451819
221	0xbe10dc36	-0.14146504
222	0xbd41048b	-0.047123473
223	0x3cdc3db8	0.026884899
224	0x3c868068	0.01641865
225	0x3dac937f	0.0842657
226	0x3d4286e0	0.047491908
227	0xbd38c5b2	-0.045110412
228	0x3bc198ba	0.005908099
229	0x3e202409	0.15638746
230	0xbcee2acd	-0.029073143
231	0xbd36843b	-0.0445597
232	0x3e330561	0.1748252
233	0x3e3f3b8f	0.18675064
234	0xbc8ec12e	-0.0174261
235	0x3e18abc3	0.14909272
236	0x3e71714c	0.23578376
237	0x3e5a1e0d	0.21300526
238	0xbc042482	-0.008065345
239	0x3dc2bf9b	0.09509202
240	0x3e74d6c9	0.23910059
241	0x3df4fda0	0.11962438
242	0xbd14592c	-0.036217853
243	0x3b387dce	0.0028151157
244	0x3e77f4f6	0.24214539
245	0x3d83dabf	0.06438207
246	0xbd21b981	-0.03948355
247	0xbcde9950	-0.027172714
248	0xbc82ab8d	-0.015950942
249	0x3e1b599d	0.15170904
250	0x3e4a7296	0.19770274
251	0x38a563cd	7.8864025e-05
252	0x3e6cc31d	0.23121305
253	0xbcf8c6ab	-0.03036817
254	0x3ca7f4d1	0.02050248
255	0x3e299244	0.16559702

linear_stack.4.weight f4 [5, 400]
0	0x3f5f81ae	0.8730725
1	0x3eb2f0dd	0.3494939
2	0x3de5b54b	0.112162195
3	0x3d50c30e	0.05096727
4	0xbd29c97d	-0.04145192
5	0x3e7bd390	0.24592423
6	0x3e83e763	0.25762472
7	0x3e5bac97	0.21452557
8	0x3e7366cd	0.23769684
9	0x3d8b31b0	0.067965865
10	0x3e159cbb	0.14610569
11	0xbba03ac2	-0.004889817
12	0x3e647e8c	0.22313899
13	0x3ca67a01	0.020321848
14	0xbdf2cf0d	-0.11855898
15	0xbd12e64a	-0.035864152
16	0x3f0c76f7	0.54869026
17	0x3ee84482	0.45364767
18	0x3e544bb4	0.20732003
19	0x3ed91014	0.4239508
20	0x3d1a9785	0.037742157
21	0x3d4b660b	0.049657863
22	0xbca6f194	-0.020378865
23	0xbc2d0b79	-0.010561817
24	0xbc0f84e0	-0.008759707
25	0xbd03a056	-0.03213533
26	0x3e895506	0.2682268
27	0x3a561284	0.0008166211
28	0xbd393d46	-0.04522445
29	0x3d240e7f	0.040052887
30	0x3d0e0518	0.034672827
31	0xbd49edff	-0.049299236
32	0x3e8e34ce	0.27774662
33	0x3e1a59d9	0.15073337
34	0x3e8aa4be	0.27078813
35	0x3e06a0b4	0.13147241
36	0x3e6affce	0.22949144
37	0x3e7e5207	0.24835978
38	0x3ea18e7f	0.31554028
39	0x3eaff6fb	0.3436812
40	0x3ef52d76	0.47886246
41	0x3db9cd9c	0.0907242
42	0xbd23494c	-0.039864823
43	0x3e9f35fb	0.3109587
44	0x3e7450d7	0.23858963
45	0x3cc1c83a	0.023655046
46	0x3e7bb1d3	0.24579553
47	0x3d319c98	0.04336223
48	0x3e66cbbb	0.22538655
49	0x3e89d95d	0.26923648
50	0x3e8d67b9	0.27618197
51	0x3df0d455	0.11759249
52	0x3c312707	0.0108125275
53	0x3d9a4da6	0.075343415
54	0xbd14afa2	-0.03630031
55	0x3e853ee7	0.26024553
56	0x3d947920	0.07249665
57	0x3ea012aa	0.3126424
58	0x3dcb48fe	0.099260315
59	0x3e9673ca	0.29385215
60	0x3e7bfa6f	0.24607252
61	0xbd12c6eb	-0.035834234
62	0x3db51d19	0.088434406
63	0x3e09199e	0.13388678
64	0xbcb5c1ca	-0.022187132
65	0x3e87d0e4	0.26526558
66	0x3e0c55f3	0.13704662
67	0x3e9d08ae	0.30670685
68	0x3c88cb8a	0.016698617
69	0x3d9b38f8	0.07579225
70	0xbcc7e7ae	-0.024402466
71	0x3ebf224c	0.37330854
72	0x3bdb8a7e	0.006699859
73	0x3d8a751c	0.06760618
74	0x3ca40dd1	0.02002612
75	0x3e658f81	0.22418024
76	0x3e950a07	0.29109213
77	0x3ef5836b	0.47951826
78	0x3eb1491b	0.34626088
79	0x3e267164	0.16254193
80	0x3f009f36	0.50242937
81	0x3cbc6a12	0.022999797
82	0x3e192a34	0.14957505
83	0x3e4a098c	0.19730204
84	0x3d3b8ce6	0.045788668
85	0x3e77e5b0	0.24208713
86	0x3dcfef99	0.101531215
87	0x3d012152	0.031525917
88	0x3e112cb8	0.14177215
89	0xbd477d28	-0.048703343
90	0x3e948554	0.2900797
91	0x3d285c86	0.041103862
92	0x3bf1a41a	0.0073742988
93	0xbc1acf87	-0.009448892
94	0xbcd4ffa0	-0.026000798
95	0x3e7ffa79	0.24997891
96	0x3e7c7ccf	0.24656986
97	0x3d6873c0	0.056751013
98	0x3db54433	0.088508986
99	0x3dcabdf7	0.09899514
100	0xbd0c79dc	-0.0342959
101	0xbf1cc7d6	-0.61242425
102	0xbc749876	-0.014928928
103	0x3e2be3e2	0.16786149
104	0x3e05c533	0.13063507
105	0x3e9134ae	0.28360504
106	0x3ed339ff	0.41255185
107	0x3f09de42	0.53854764
108	0xbb05e207	-0.0020428912
109	0x3e603179	0.21893872
110	0x3cc1a523	0.023638314
111	0x3e82112d	0.2540373
112	0x3e9587c8	0.29205155
113	0x3e127d5a	0.1430563
114	0x3da47d25	0.08031682
115	0x3e4d3f19	0.20043601
116	0x3e5e0ba3	0.21684127
117	0x3dfc83a8	0.12329799
118	0xbbd4dc68	-0.006496001
119	0x3d5eda48	0.054407388
120	0xbcc3d15a	-0.023903538
121	0x3e8bbe91	0.27293828
122	0xbd0f6240	-0.035005808
123	0x3e29dfc4	0.16589266
124	0x3eedcb67	0.46444246
125	0x3e98a370	0.29812193
126	0x3d062016	0.032745443
127	0x3d415cea	0.04720775
128	0xbccadd1c	-0.024763636
129	0x3b80d240	0.0039313138
130	0x3e928656	0.28618115
131	0x3d481fa9	0.04885832
132	0x3de51019	0.11184711
133	0x3ea29cd8	0.31760287
134	0x3f2b2c35	0.6686433
135	0x3e887ac8	0.26656175
136	0x3adb03eb	0.0016709542
137	0x3d7d980e	0.06191259
138	0x3ee18136	0.44043893
139	0x3d90f6c8	0.0707832
140	0xbceab46e	-0.028650489
141	0x3d26d51f	0.040730592
142	0x3e3ced05	0.18449791
143	0x3e21325b	0.15741865
144	0x3cca1511	0.024668248
145	0x3e2bba7f	0.16770361
146	0x3f1df148	0.6169629
147	0x3e3bb399	0.1833023
148	0x3e1f7b80	0.15574455
149	0x3e2e7ae9	0.17039074
150	0x3e896b0f	0.26839492
151	0x3ea8ff27	0.33007166
152	0x3dda7cfc	0.1066837
153	0x3e78f965	0.24313886
154	0xbd3a7b02	-0.045527466
155	0x3c8470eb	0.016167125
156	0xbd1a5f7e	-0.037688725
157	0xbc9256b7	-0.017863614
158	0x3e988075	0.29785505
159	0x3e13622d	0.1439292
160	0x3d34470f	0.04401308
161	0x3e8ddb73	0.2770649
162	0xbba2242d	-0.00494816
163	0x3eb707e0	0.35748196
164	0x3eacda90	0.337605
165	0x3ebe953c	0.37223232
166	0x3e543146	0.20721921
167	0x3e9bc97b	0.30427155
168	0x3ea51589	0.32242993
169	0x3e864790	0.26226473
170	0xbc0c38fa	-0.008558506
171	0xbd0281f2	-0.031862207
172	0x3d2d6fcd	0.04234295
173	0xbb712da4	-0.0036800886
174	0x3e07e5a9	0.13271202
175	0x3cebde35	0.02879248
176	0x3c1f8bed	0.009737951
177	0xbc55e6c4	-0.013055507
178	0x3e98bc8d	0.29831353
179	0x3b3922e7	0.0028249563
180	0x3f070a7e	0.52750385
181	0xbc674017	-0.014114401
182	0x3e062044	0.13098246
183	0x3b4e2ba0	0.0031459108
184	0x401356ad	2.3021653
185	0x3e4e9357	0.20173393
186	0x3f235e48	0.63815737
187	0x3b0e8b73	0.0021750599
188	0x3b221bef	0.0024735888
189	0x3dd4d4be	0.1039214
190	0x3c805a18	0.01566796
191	0x3e1fc644	0.15602976
192	0xbc81b2db	-0.015832355
193	0x3e54bf0a	0.20776
194	0x3c32a640	0.010903895
195	0x3e863867	0.26214907
196	0xbd2de3f2	-0.042453714
197	0xbcf10d3b	-0.029425254
198	0xbd11a877	-0.03556105
199	0x3d308477	0.04309508
200	0x3f38f083	0.7224199
201	0x3e8ed897	0.2789962
202	0xbd16051b	-0.036625963
203	0x3d3b2122	0.045685895
204	0x3eb8d07f	0.3609657
205	0xbcda4d06	-0.026648056
206	0x3c91bad3	0.01778928
207	0x3eb3649a	0.3503769
208	0x3e45354f	0.19258617
209	0x3d0e4e29	0.034742508
210	0x3d245468	0.04011956
211	0x3d26a05b	0.04068027
212	0x3de4e608	0.111766875
213	0xbcc7b24d	-0.024377013
214	0x3e54f985	0.20798309
215	0x3e27afd0	0.16375661
216	0xbcf44de7	-0.029822303
217	0x3e67f6f2	0.22652796
218	0x3e72b290	0.23700929
219	0x3ed71e11	0.42015126
220	0x3dd6853d	0.10474632
221	0xbd7f9b90	-0.062404215
222	0x3c18a3f4	0.009316433
223	0xbd08a415	-0.033359606
224	0xbc5939d8	-0.01325842
225	0x3eaacc6e	0.33359092
226	0xbce100ef	-0.027466265
227	0x3d2afa77	0.04174277
228	0x3b81c68f	0.0039604376
229	0x3eb39578	0.35074973
230	0xbca3fe4d	-0.020018721
231	0x3ce54f3a	0.02799188
232	0x3eae8109	0.3408282
233	0x3e25757a	0.16158095
234	0xbd294bbf	-0.041332003
235	0x3e047e81	0.12938882
236	0x3e6d134f	0.23151897
237	0x3e9313d0	0.28726053
238	0x3bef6a67	0.0073063853
239	0x3e21cda2	0.15801099
240	0x3e6622c6	0.22474203
241	0x3e3171e3	0.173286
242	0xbcae7bff	-0.02129936
243	0xbd1aac5d	-0.037762035
244	0x3e9814a2	0.29703242
245	0x3c833c3a	0.01601993
246	0x3c517720	0.012784749
247	0x3bc84ec0	0.0061129034
248	0xbca467bd	-0.020068998
249	0x3e041d6d	0.1290185
250	0x3e84994e	0.25898212
251	0xbcfa38a7	-0.030544592
252	0x3e9e80ad	0.30957547
253	0xbc948c39	-0.01813327
254	0xbb66947d	-0.003518372
255	0x3e87d2b2	0.26527935

linear_stack.4.bias f4 [5]
0	0x3dcb981f	0.09941124
1	0x3d0e44fe	0.034733765
2	0x3e60e1da	0.21961156
3	0xbd2ed76f	-0.042685922
4	0xbd3181d0	-0.04333669
